Programming Assignment/b1/model.ckpt (torch, 88335 bytes, 29 tensors)

_backbone.linear_layers.0.weight f4 [50, 57]
0	0x40a689c8	5.204319
1	0xc111c0bc	-9.109554
2	0x408b6325	4.3558526
3	0xbfee5eb7	-1.8622655
4	0x41012c87	8.073371
5	0x41152d71	9.323594
6	0x407a7685	3.9134839
7	0xc08ffb78	-4.499447
8	0x40a9a0a5	5.30086
9	0x409f6bc4	4.981905
10	0xc0ade26e	-5.4338903
11	0xc0ca9c08	-6.331547
12	0xc029cb92	-2.65305
13	0xc0a1ef01	-5.0604253
14	0xc0990b5b	-4.782636
15	0x40a3a07d	5.113341
16	0xc0a3aa62	-5.1145487
17	0xc0ccd498	-6.4009514
18	0x409da934	4.9269047
19	0x40a524d9	5.160748
20	0xc0ba5293	-5.82258
21	0xbfbe7622	-1.4879801
22	0x40ab0bfd	5.3452134
23	0xc09dc7b3	-4.9306273
24	0xc0bde074	-5.933649
25	0x40b74b38	5.727932
26	0x405942d8	3.3947048
27	0xc0a203f1	-5.062981
28	0xc093e537	-4.6217303
29	0xc070d025	-3.7627041
30	0x4099ae02	4.802491
31	0x409623ee	4.691886
32	0xc0792799	-3.8930418
33	0xbf81adea	-1.0131199
34	0x4096ab16	4.7083845
35	0xbfe42682	-1.7824252
36	0xc0985e83	-4.761537
37	0xc0a9eb48	-5.309971
38	0x40bd1554	5.9088535
39	0xc04e61e8	-3.2247257
40	0x407f0c70	3.9851341
41	0xc09393b6	-4.611781
42	0xc0792846	-3.893083
43	0xc0b9feec	-5.8123684
44	0x4096bd26	4.7105894
45	0xc0b95b04	-5.7923603
46	0xc08faae1	-4.4896092
47	0xc094ec87	-4.653873
48	0x40ac0a58	5.3762627
49	0xc099ec43	-4.8100905
50	0x40b717e7	5.721668
51	0x4047b2fa	3.1202989
52	0x4088faef	4.2806315
53	0x40ac679e	5.3876486
54	0x40002172	2.0020413
55	0xc019bfb1	-2.402325
56	0xc0ba0614	-5.813242
57	0x4099488e	4.790107
58	0xc0f76f75	-7.7323556
59	0x4087c02e	4.2422094
60	0xc037597d	-2.864837
61	0x40f79b14	7.7376804
62	0x41118728	9.095497
63	0x40ad910a	5.423955
64	0xc0bbf420	-5.8735504
65	0x40a31370	5.0961227
66	0x40923c1f	4.569839
67	0xc0a78a34	-5.2356205
68	0xc0c887a7	-6.266559
69	0xbff3c194	-1.904345
70	0xc0ca0151	-6.3126607
71	0xc09b2d3f	-4.849273
72	0x409f9c78	4.98785
73	0xc0a9f566	-5.311206
74	0xc0a52659	-5.160931
75	0x409459d9	4.6359677
76	0x409c263d	4.8796678
77	0xc07563e8	-3.8342228
78	0xbf63e5f5	-0.8902276
79	0x40acaca4	5.3960743
80	0xc09426bd	-4.629729
81	0xc0b9f0fa	-5.810666
82	0x40b64cab	5.696859
83	0x40a1ac11	5.052254
84	0xc0a282ad	-5.0784516
85	0xc0bb6d3d	-5.8570848
86	0xc03103b7	-2.7658517
87	0x408ba519	4.3639035
88	0x408f699a	4.481641
89	0xc0a5b149	-5.1778913
90	0xbf2f3d7a	-0.6845318
91	0x4072fdcd	3.7967408
92	0xbf64a107	-0.8930821
93	0xc095407c	-4.6641216
94	0xc0a9e893	-5.3096404
95	0x4098e8db	4.7784247
96	0xc04a1c8b	-3.1579921
97	0x40329c2a	2.7907815
98	0xc0938ad7	-4.610698
99	0xc02e183c	-2.7202291
100	0xc08eb5d4	-4.459696
101	0x40975a3d	4.7297654
102	0xc0b802f3	-5.75036
103	0xc09315e2	-4.5964212
104	0xc08d571b	-4.416883
105	0x40ab2a12	5.3488855
106	0xc09a8f05	-4.8299584
107	0x40b1faf8	5.561886
108	0x40945ad3	4.636087
109	0x40a6fa85	5.218081
110	0x40ab2d09	5.3492475
111	0x3e89900a	0.26867706
112	0xc0913399	-4.5375485
113	0xc0b59b61	-5.675217
114	0x40a06b88	5.0131264
115	0xc0f6e904	-7.7159443
116	0x40aba4a8	5.3638496
117	0xc04c54a1	-3.1926653
118	0x4112a1c6	9.164495
119	0x410d1bf0	8.819321
120	0x407e04ea	3.96905
121	0xc0916d5f	-4.544601
122	0x40a17161	5.04509
123	0x409692c9	4.705418
124	0xc0a293c6	-5.0805387
125	0xc0c8c38b	-6.27387
126	0xc015e2bf	-2.3419645
127	0xc0c4d674	-6.1511784
128	0xc08e3b2e	-4.444724
129	0x409b8016	4.8593855
130	0xc0a2e7b8	-5.090786
131	0xc0a446a7	-5.1336246
132	0x409624f5	4.6920114
133	0x40954e91	4.6658406
134	0xc0681a76	-3.626615
135	0xc088510d	-4.259894
136	0x40ada0c1	5.4258733
137	0xc0900425	-4.500506
138	0xc0b92f3e	-5.787017
139	0x40b74c54	5.7280674
140	0x40a00a93	5.001291
141	0xc0a0ca45	-5.024691
142	0xc08daf5f	-4.4276576
143	0xc021971b	-2.5248477
144	0x405f3f8a	3.488253
145	0x408e94fa	4.4556856
146	0xc05eb18d	-3.4795868
147	0xbe5fa612	-0.21840695
148	0x40649941	3.5718539
149	0xbf3e9d8a	-0.74459136
150	0xc0861a62	-4.1907206
151	0xc0869486	-4.2056303
152	0x40ba63f7	5.8247027
153	0xc030fe0e	-2.7655063
154	0x40370ad6	2.8600364
155	0xc069f08c	-3.6553068
156	0xc01d57e3	-2.4584892
157	0xc0b90515	-5.7818704
158	0x4094c2fe	4.6488028
159	0xc0b94b5a	-5.790448
160	0xc08e335c	-4.4437695
161	0xc041cfd2	-3.0283093
162	0x40ab64d4	5.356058
163	0xc09bb588	-4.8659096
164	0x4086428d	4.195624
165	0x40d10543	6.5318923
166	0x40a4e6b3	5.1531615
167	0x40a2738f	5.0766063
168	0xbefc01b5	-0.49220052
169	0xc0a597a0	-5.174759
170	0xc0b47f75	-5.6405587
171	0x40bb8267	5.8596683
172	0xc1188492	-9.532366
173	0x40baa060	5.832077
174	0xc02645b7	-2.598005
175	0x4129a28f	10.602187
176	0x4130a16e	11.039412
177	0x40b64eb1	5.697106
178	0xc09d6218	-4.9182243
179	0x40dfd4e9	6.99474
180	0x40acaedd	5.3963456
181	0xc0e439e1	-7.1320653
182	0xc0acef72	-5.404229
183	0xc09cb3f2	-4.896966
184	0xc0da39f3	-6.819574
185	0xc0d24191	-6.5705037
186	0x40dca8c8	6.895603
187	0xc0166c04	-2.3503428
188	0xc0dccb5e	-6.899825
189	0x40d969c4	6.794161
190	0x40e07323	7.014055
191	0xc0ca9264	-6.33037
192	0xc0183287	-2.378084
193	0x40424382	3.0353703
194	0xc0df6da5	-6.9821343
195	0xc093d219	-4.6193967
196	0x40c1ff66	6.0624266
197	0x40829a33	4.081323
198	0xc0833fea	-4.101552
199	0xc09e7f39	-4.95303
200	0xc0cbe9ed	-6.3723054
201	0x40d835dc	6.7565746
202	0x40cfd681	6.4949346
203	0xc08af09a	-4.3418703
204	0xc094f0fe	-4.654418
205	0x40d0c3cc	6.523901
206	0xc08d6315	-4.418345
207	0xc0a9006e	-5.2813025
208	0xc0b9242b	-5.785665
209	0x40cf7b22	6.483781
210	0xc0b23642	-5.5691233
211	0x40b70b16	5.7201033
212	0xc0d44964	-6.633959
213	0xc0a870d3	-5.2637725
214	0xc0ce9457	-6.455608
215	0x40668af4	3.602231
216	0xc0ccd0a1	-6.4004674
217	0xbfc121df	-1.5088462
218	0xc0ab3d66	-5.351245
219	0x408d004d	4.4062867
220	0xbef52e96	-0.47887105
221	0x409262d3	4.5745635
222	0x40e2fb0e	7.0931463
223	0x40e73751	7.2255025
224	0x4000e5c1	2.014023
225	0x40331e9b	2.798743
226	0xc0ba6b23	-5.825578
227	0xc091d951	-4.557778
228	0x40e88280	7.26593
229	0xc1034d48	-8.2063675
230	0x408d12a6	4.4085264
231	0xc077ef84	-3.8739939
232	0x4111ff0d	9.124768
233	0x411a75cb	9.653758
234	0x4088004b	4.250036
235	0xc0b7c7f9	-5.7431607
236	0x40a9c9b0	5.30587
237	0x409ee5f4	4.9655704
238	0xc0aa2b8a	-5.317815
239	0xc08464e8	-4.1373177
240	0xc0021bd7	-2.0329492
241	0xc0a53118	-5.162243
242	0xc09b12ff	-4.846069
243	0x40a44bca	5.1342516
244	0xc08e53a4	-4.44771
245	0xc0af9c21	-5.4878087
246	0x40a5edd6	5.1852827
247	0x40aabc59	5.3354917
248	0xc0b93356	-5.7875166
249	0xc0908c84	-4.517153
250	0x40a46e72	5.138482
251	0xc0a42eba	-5.130704
252	0xc0b680dc	-5.70323
253	0x40b4ea22	5.6535807
254	0x40a1f15a	5.060712
255	0xc0a39568	-5.111988

_backbone.linear_layers.0.bias f4 [50]
0	0x40f9d1ca	7.806859
1	0x40eecd2e	7.4625463
2	0x40e0eca0	7.028885
3	0x411b2059	9.695397
4	0x40fc701d	7.8886857
5	0x411a6c64	9.651463
6	0x40fa0061	7.8125463
7	0x40f7f8a0	7.7490997
8	0x40eb0933	7.344873
9	0x40e71325	7.221087
10	0x41003dfb	8.015132
11	0x40f8a969	7.77068
12	0x411c4cbd	9.768735
13	0x40f5c39a	7.680127
14	0x411e942e	9.911177
15	0x40f1b928	7.553852
16	0x40f901e6	7.7814817
17	0x411c1e2e	9.757368
18	0x40e059ec	7.010977
19	0x411ca298	9.789696
20	0x40f9f6f5	7.811396
21	0x40fe7b2e	7.9525366
22	0x411b4f9f	9.706939
23	0x40efc090	7.492256
24	0x411e1d6e	9.882185
25	0x40fe4c6a	7.946828
26	0x411d91c3	9.848086
27	0x40f36373	7.60589
28	0x40fc3044	7.880892
29	0x40fe3c34	7.944849
30	0x40fc6fcf	7.8886485
31	0x40ed55c3	7.416719
32	0x40d1f730	6.5614243
33	0x40f22331	7.566796
34	0x40fd9acc	7.925146
35	0x40fb2ba9	7.8490796
36	0x40f6e251	7.7151265
37	0x411b5310	9.707779
38	0x410086f3	8.032947
39	0x40d5f2d6	6.685893
40	0x40fd11f6	7.9084425
41	0x4119db5a	9.616053
42	0x411de496	9.868307
43	0x411a433d	9.641416
44	0x4119f222	9.621614
45	0x411b7bfb	9.717769
46	0x40eb0838	7.3447533
47	0x40e185c1	7.0475774
48	0x40fbe5cf	7.871803
49	0x411aeef0	9.683334

_embedding_layer.cat_embedding_layers.0.weight f4 [13, 7]
0	0xbf2906dd	-0.660261
1	0x3f091dbd	0.53561
2	0x3f13268c	0.5748069
3	0xbfb1e814	-1.389895
4	0xbe4ea84c	-0.20181388
5	0x3f2339a9	0.6375986
6	0xbe8d73de	-0.27627462
7	0x40996d4b	4.7945914
8	0xc0a21cf8	-5.066036
9	0x40c1a53e	6.051421
10	0x40b3ef16	5.6229353
11	0xc0c381dc	-6.109602
12	0xc0b3b596	-5.6159163
13	0xbfe791cb	-1.8091367
14	0x40b6cb03	5.7122817
15	0xc0a71ec3	-5.222505
16	0x40c4fbf4	6.155756
17	0x40ae9417	5.4555774
18	0xc0b967c9	-5.793919
19	0xc0ad5421	-5.4165196
20	0xc06e7d18	-3.726385
21	0x408c7acf	4.3899913
22	0xc0b3ef68	-5.6229744
23	0x40d31055	6.5957437
24	0x40b90978	5.782406
25	0xc0d0e230	-6.527611
26	0xc0be0bab	-5.9389243
27	0xc0341967	-2.8140504
28	0x408718ce	4.221778
29	0xc0e2da8e	-7.089179
30	0x40ade315	5.43397
31	0x40d33cfa	6.6011934
32	0xc0d278de	-6.5772543
33	0xc08afdf5	-4.3435006
34	0xc02a2e26	-2.6590667
35	0x404d7e27	3.2108247
36	0xc060172e	-3.5014148
37	0x40b7b634	5.7409916
38	0x40e09d9a	7.0192385
39	0xc0adb5f3	-5.4284606
40	0xc0f26c5c	-7.5757275
41	0xc0cd6793	-6.4188933
42	0x40b00b23	5.5013595
43	0xc097c318	-4.742565
44	0x40a3d105	5.119265
45	0x40bacc8e	5.83747
46	0xc0cad3ec	-6.3383694
47	0xc0de6902	-6.9503183
48	0xc004fcfc	-2.077941
49	0x4061da1a	3.5289369
50	0xc016ee9b	-2.3583133
51	0x40dab67d	6.8347764
52	0x40c28a02	6.0793467
53	0xc0d232ad	-6.568686
54	0xc0d93565	-6.787768
55	0xc0b27d81	-5.5778203
56	0x4088cce8	4.275013
57	0xc0b6d49d	-5.713454
58	0x40d3115f	6.5958705
59	0x40b081a9	5.5158277
60	0xc0ddebd9	-6.93504
61	0xc0a6fb82	-5.2182016
62	0xc01605a5	-2.3440945
63	0x40b10ff9	5.5332
64	0xc0b0128f	-5.5022655
65	0x40ebd66d	7.369925
66	0x40a1347f	5.037658
67	0xc0d03c26	-6.5073423
68	0xc0a1b3b5	-5.053187
69	0xc01d39ee	-2.4566607
70	0x40be4eab	5.947103
71	0xc08adf4a	-4.339757
72	0x40eda2e1	7.4261327
73	0x40969ade	4.7064047
74	0xc0ceaa14	-6.4582615
75	0xc0a5c77a	-5.1806
76	0xc00e5ffd	-2.2246087
77	0x4093d1a8	4.619343
78	0xc0d4e643	-6.653108
79	0x40c49e05	6.1442895
80	0x40b72ac5	5.723971
81	0xc0cae4cf	-6.3404307
82	0xc0d5d240	-6.6819153
83	0xc02464cb	-2.568652
84	0x409e0cfb	4.9390845
85	0xc0b00d1f	-5.5016017
86	0x40baa00c	5.832037
87	0x40bbdea4	5.870928
88	0xc0ccc7d8	-6.399395
89	0xc0cc5ec9	-6.3865705
90	0xc014721c	-2.3194647

_embedding_layer.cat_embedding_layers.1.weight f4 [27, 14]
0	0xbf4fb196	-0.8113035
1	0x3f6a1130	0.91432476
2	0x3fb1c277	1.3887471
3	0x3f3609e7	0.7110886
4	0x3fdf5976	1.7449176
5	0x3f77f823	0.96863
6	0xbfb1c9ab	-1.3889669
7	0x3f2ab570	0.666831
8	0x3eafec75	0.3436009
9	0xbf780db0	-0.96895885
10	0x3e0c178a	0.13680854
11	0x3fa84cca	1.3148434
12	0x3f4aa978	0.7916484
13	0xbf1081f4	-0.5644829
14	0xc0e64875	-7.196345
15	0xc0d2b209	-6.584233
16	0x40e24a6a	7.0715837
17	0xc0a5f794	-5.186472
18	0xc113d087	-9.23841
19	0x40efe2e8	7.4964485
20	0x40f77970	7.733574
21	0xc0d55956	-6.6671553
22	0xc0bd129a	-5.9085207
23	0x40c3e0ba	6.1211824
24	0xc0fe40c4	-7.945406
25	0xc0e57d14	-7.1715183
26	0x40cea965	6.458178
27	0x40cd6123	6.4181075
28	0xc0e94082	-7.2891245
29	0xc0da302e	-6.8183813
30	0x40e0480e	7.0087957
31	0xc0b87b1f	-5.7650294
32	0xc104ffd0	-8.312454
33	0x40f57a8a	7.6712084
34	0x40f8b3fa	7.77197
35	0xc0eafbd8	-7.3432426
36	0xc09ae553	-4.8404937
37	0x40c484eb	6.1412253
38	0xc0e9fe7e	-7.312316
39	0xc0e1d15d	-7.056807
40	0x40c73403	6.225099
41	0x40afa610	5.4890213
42	0xc136e310	-11.430435
43	0xc12e58f9	-10.896722
44	0x41487185	12.527715
45	0xc1185136	-9.519827
46	0xc1314ed0	-11.081741
47	0x4147ab83	12.479373
48	0x4137a31b	11.477321
49	0xc12aef0a	-10.683359
50	0xc114ffca	-9.3124485
51	0x412079c9	10.029733
52	0xc13d72d9	-11.840539
53	0xc10e2055	-8.882894
54	0x411c3050	9.761795
55	0x413dbde0	11.858856
56	0xc0c068ba	-6.012784
57	0xc09a7e56	-4.827922
58	0x40b19737	5.549709
59	0xc071d603	-3.7786872
60	0xc0b2c896	-5.5869856
61	0x406abd3c	3.6678
62	0x40a8c757	5.2743335
63	0xc09c3ff6	-4.8828077
64	0xbfa6e676	-1.3039081
65	0x404d3bf0	3.2067833
66	0xc0a94689	-5.2898602
67	0xc09aebd5	-4.841288
68	0x4060de9b	3.5135868
69	0x4099cfbc	4.806608
70	0xc121a3af	-10.102462
71	0xc1189d7f	-9.538451
72	0x4136204d	11.382886
73	0xc10ef85d	-8.935636
74	0xc13379ce	-11.217237
75	0x412e129a	10.879541
76	0x41168194	9.406635
77	0xc108e3c4	-8.555607
78	0xc09275ac	-4.5768642
79	0x40ecd24c	7.400671
80	0xc1311ee2	-11.07004
81	0xc129f812	-10.623064
82	0x410b721e	8.715361
83	0x40ea5703	7.3231215
84	0xc05cc7a3	-3.4496849
85	0xc06cfd27	-3.7029512
86	0x40829951	4.0812154
87	0xc0701ea1	-3.7518694
88	0xc0b76d34	-5.7320805
89	0x4067ad3b	3.6199481
90	0x4078fc35	3.8903935
91	0xc01700cf	-2.3594244
92	0xbee939c5	-0.45551887
93	0x40552c69	3.3308356
94	0xc0556817	-3.3344781
95	0xc0714261	-3.7696764
96	0x40a3e5b3	5.1217895
97	0x404ab313	3.1671798
98	0xc18cdcea	-17.607868
99	0xc180b7b0	-16.089691
100	0x4192f214	18.368202
101	0xc156636a	-13.399271
102	0xc173aecc	-15.230175
103	0x417ace25	15.675328
104	0x418fab32	17.958591
105	0xc185cb04	-16.724129
106	0xc173f5ef	-15.247542
107	0x41638ab8	14.221367
108	0xc193eff7	-18.49217
109	0xc1660906	-14.377203
110	0x416d4b7b	14.830928
111	0x4178dfb7	15.554618
112	0xc0d6299b	-6.692579
113	0xc0ecb105	-7.396609
114	0x40f5a911	7.676888
115	0xc0c54753	-6.1649566
116	0xc0fe8e03	-7.9548354
117	0x40a9b39d	5.3031754
118	0x4107bf9f	8.4842825
119	0xc086440a	-4.1958055
120	0xc0b08974	-5.516779
121	0x4112e7ec	9.181622
122	0xc0c28288	-6.078434
123	0xc101d035	-8.113332
124	0x40e65595	7.197947
125	0x40cc86e4	6.391466
126	0xbf8fea52	-1.1243384
127	0xc023352c	-2.5501204
128	0x4013a87d	2.3071587
129	0x3e38a973	0.1803339
130	0xbf9b4c58	-1.2132673
131	0x40316fba	2.7724442
132	0x40763625	3.8470547
133	0xc015aa69	-2.338526
134	0x3fa7a943	1.309853
135	0x3fba81a9	1.4570819
136	0xc02ef53b	-2.7337177
137	0xbebc37d7	-0.36761352
138	0x3eb669d2	0.3562761
139	0x3f94437b	1.1583093
140	0xc124dcc9	-10.303903
141	0xc123c8dd	-10.236539
142	0x4125590b	10.334239
143	0xc10e824c	-8.906811
144	0xc1456244	-12.336491
145	0x411bd3e5	9.739232
146	0x4142db12	12.178484
147	0xc11ade3e	-9.679258
148	0xc0c55798	-6.1669426
149	0x411825bd	9.509213
150	0xc112adae	-9.167402
151	0xc124456d	-10.26695
152	0x40ee0cdb	7.4390693
153	0x41062577	8.384147
154	0xc0c58a2d	-6.173117
155	0xc0f88e09	-7.7673383
156	0x40d93daf	6.7887797
157	0xc0d9f932	-6.8116693
158	0xc10eb37f	-8.918822
159	0x40d3030d	6.5941224
160	0x40aa9da7	5.3317447
161	0xc0cc3843	-6.381868
162	0xc07d16ad	-3.954509
163	0x4106a874	8.416126
164	0xc0cb403b	-6.3515906
165	0xc10d84ff	-8.84497
166	0x40fad702	7.838746
167	0x40c1098d	6.032416
168	0xc0c3f23d	-6.12332
169	0xc0c27205	-6.0764184
170	0x409fec14	4.997568
171	0xc035b5bf	-2.839218
172	0xc090fa88	-4.5305824
173	0x4083f1f2	4.1232843
174	0x4098bd4e	4.7731085
175	0xc08276f5	-4.077021
176	0xbfd10557	-1.6329755
177	0x404bc126	3.1836638
178	0xc06ef58b	-3.7337368
179	0xc079079f	-3.8910902
180	0x403b92e3	2.9308403
181	0x408ce928	4.4034615
182	0xc0b1d417	-5.55714
183	0xc0cb6296	-6.3557844
184	0x40a77927	5.233539
185	0xc0a3ef45	-5.1229577
186	0xc0f4e5c6	-7.6530485
187	0x4100817e	8.031614
188	0x410bf836	8.748098
189	0xc0e2d18a	-7.0880785
190	0xc020d03c	-2.5127096
191	0x40a4b05b	5.146528
192	0xc0ac792e	-5.3897924
193	0xc0cd9efd	-6.4256577
194	0x40cec44c	6.461462
195	0x40b83031	5.7558827
196	0xc0c56405	-6.1684594
197	0xc0c694a0	-6.2056427
198	0x40d92b87	6.7865634
199	0xc00aafcf	-2.1669805
200	0xc0b16e40	-5.5447083
201	0x40d1e176	6.558772
202	0x40e888ee	7.266715
203	0xc075436f	-3.8322408
204	0xc00a30e1	-2.1592333
205	0x406bcd69	3.6844122
206	0xc09111bd	-4.5334153
207	0xbfb97fe8	-1.4492159
208	0x40762ee6	3.8466125
209	0x402538a7	2.5815828
210	0xc0db36bf	-6.850433
211	0xc0d46a79	-6.637997
212	0x40daad03	6.8336196
213	0xc0ee1af0	-7.4407883
214	0xc0a9112d	-5.2833467
215	0x40e6f861	7.2178197
216	0x40c39706	6.1121855
217	0xc0ba11ae	-5.814658
218	0xc002061b	-2.0316226
219	0x40a3a699	5.1140866
220	0xc0c263e2	-6.0746927
221	0xc0d86cac	-6.7632656
222	0x408296d5	4.080912
223	0x40bdb4bd	5.928313
224	0xc1ab415d	-21.406916
225	0xc1a6c4d0	-20.8461
226	0x41a895f6	21.073223
227	0xc18713a6	-16.884594
228	0xc197db11	-18.981966
229	0x418f39a2	17.903141
230	0x41994cb7	19.162458
231	0xc18f6f3f	-17.92932
232	0xc182bcf9	-16.342272
233	0x418762e6	16.92329
234	0xc19a3363	-19.275091
235	0xc1919f2e	-18.202724
236	0x419614ff	18.760252
237	0x418e5908	17.793472
238	0xc0f3fe3a	-7.6247835
239	0xc1022eb1	-8.136399
240	0x40fae7b4	7.840784
241	0xc094fabb	-4.6556067
242	0xc106674c	-8.400219
243	0x40cff177	6.4982257
244	0x410a23af	8.633712
245	0xc0c1966a	-6.049611
246	0xc0bbf3e8	-5.8735237
247	0x40cd06fc	6.4071026
248	0xc0e90742	-7.282136
249	0xc0c3cf54	-6.1190586
250	0x40af39d7	5.4758105
251	0x40bbddc5	5.8708215
252	0xc086e942	-4.215974
253	0xc04e98a1	-3.2280657
254	0x404d71bc	3.2100668
255	0xc01d0fa3	-2.4540794

_embedding_layer.cat_embedding_layers.2.weight f4 [42, 21]
0	0x3ee3cb9f	0.44491288
1	0xbfe3d61f	-1.779972
2	0x3fd22ede	1.6420553
3	0x3c230022	0.009948762
4	0xbf9e7cac	-1.2381797
5	0xbee82ab9	-0.45345095
6	0xbed1b8af	-0.40961215
7	0xbfc8c560	-1.5685234
8	0x3f98e3e1	1.1944543
9	0xbd9e70ab	-0.077363335
10	0xbfb981b4	-1.4492707
11	0xbfd08e62	-1.6293452
12	0x3f05ade6	0.5221847
13	0xbe7ab8f6	-0.2448462
14	0xbd360727	-0.044440415
15	0xbedf458f	-0.43607756
16	0x3ffd13d1	1.9771672
17	0x3edbf791	0.42962316
18	0xbf8b9553	-1.0904945
19	0x3f9bbe41	1.2167436
20	0xbf4af821	-0.79284865
21	0xbfb35754	-1.4011025
22	0xbf5c06bb	-0.8594777
23	0x401f2367	2.4865358
24	0xbece6412	-0.40310723
25	0xbed02fdf	-0.40661523
26	0xc00c8f70	-2.1962547
27	0x40a464f8	5.1373253
28	0xc0065bc8	-2.099352
29	0xc081bc6a	-4.05425
30	0x3fd4ae23	1.6615642
31	0x3eebc6cb	0.46050104
32	0xbb95ef7f	-0.0045756693
33	0x405d0d5e	3.4539409
34	0xc064ccf3	-3.575009
35	0x3e9a528e	0.3014111
36	0x4045f527	3.093088
37	0xbb3c2794	-0.0028710114
38	0xbf2c9f4d	-0.67430574
39	0xbff56eb9	-1.9174415
40	0xbfd2e53c	-1.6476207
41	0x3f26affe	0.6511229
42	0xc046cf2c	-3.1063948
43	0xc06f2fdf	-3.7372968
44	0xc005d71e	-2.0912547
45	0x4036c2e1	2.8556445
46	0x4089fc6a	4.3120623
47	0xbf8bf354	-1.0933633
48	0x40092b92	2.1432843
49	0x40598f6a	3.3993783
50	0xc0913e10	-4.538826
51	0xc057eebb	-3.373946
52	0xbfd5d067	-1.6704224
53	0x4080c132	4.0235834
54	0xbdf22ddf	-0.118251555
55	0x40225f19	2.5370543
56	0xbfdbb466	-1.7164428
57	0xbfa5298e	-1.2903306
58	0xc06140f6	-3.51959
59	0x404d4136	3.2071052
60	0xc047fe23	-3.1248863
61	0xc000f408	-2.0148945
62	0xc02c0a84	-2.6881418
63	0xc0c8c327	-6.2738223
64	0xc0a75f7a	-5.230405
65	0xbfc88e82	-1.566849
66	0x40a7d77b	5.245054
67	0x40d5f047	6.6855807
68	0xc08d9f3a	-4.425687
69	0x3fc3ec58	1.5306501
70	0x40b1c289	5.554997
71	0x3f2f81ee	0.6855763
72	0xc08263ef	-4.074699
73	0xc0b9351c	-5.787733
74	0x40f5f900	7.6866455
75	0xc0183faa	-2.3788857
76	0x40bcf95c	5.9054394
77	0xc05bfd3b	-3.437331
78	0xc06d464e	-3.707416
79	0xc0e5e2ab	-7.1839194
80	0x40cc669d	6.387526
81	0xc0d35013	-6.6035247
82	0xc0b3a85e	-5.6143026
83	0xc07a05d5	-3.906606
84	0xc14008f5	-12.002187
85	0xc1409ab2	-12.037767
86	0xc0e9395b	-7.2882514
87	0x410fd39a	8.989161
88	0x410e0a90	8.877579
89	0xc13d726a	-11.840433
90	0xc0ae0462	-5.438035
91	0x412c5333	10.770312
92	0x41813c75	16.15452
93	0xc130e481	-11.055787
94	0xc107a0c7	-8.476752
95	0x410bdab8	8.740898
96	0xc0d47fe0	-6.6406097
97	0x40a6c85b	5.2119575
98	0xc10200ef	-8.125228
99	0xc0debf55	-6.960856
100	0xc1146dd8	-9.276817
101	0x41209d97	10.038474
102	0xc1058fe5	-8.3476305
103	0xc13c4af5	-11.7683
104	0xc1214737	-10.079886
105	0xc1443bc9	-12.264596
106	0xc10e866c	-8.907818
107	0xc0f71241	-7.7209783
108	0x410d73c7	8.840766
109	0x411c1976	9.756216
110	0xc124744a	-10.278391
111	0xc07df59e	-3.9681163
112	0x412a4020	10.6406555
113	0x40057a24	2.0855799
114	0xc129dd6a	-10.616556
115	0xc1092042	-8.570375
116	0x411db11c	9.85574
117	0xc12fab7c	-10.979366
118	0x410221e9	8.133279
119	0xc108ca50	-8.549393
120	0xc10aecb6	-8.682791
121	0xc10d8ad6	-8.8463955
122	0x40d89348	6.7679787
123	0xc0f37f7f	-7.6093135
124	0xc0f0a61c	-7.520277
125	0xc117c0e8	-9.484596
126	0xc0a0e4c3	-5.027925
127	0xc1045d3b	-8.272761
128	0xc10b8782	-8.720583
129	0x411818d9	9.506066
130	0x410e3acc	8.889355
131	0xc0c16b90	-6.04438
132	0xc0ac1a75	-5.3782296
133	0x40f313eb	7.5961814
134	0x3f57b3b8	0.84258604
135	0xc109c5bb	-8.610774
136	0xc0cc5c97	-6.3863025
137	0x40ecaac5	7.395846
138	0xc0e43381	-7.131287
139	0x40c98ee9	6.298695
140	0xc10121ec	-8.070782
141	0xc0abd701	-5.3699956
142	0xc0f6f26c	-7.7170925
143	0x40807f6a	4.0155535
144	0xc10855f5	-8.520986
145	0xc0a6404f	-5.19535
146	0xc0f98939	-7.798001
147	0xc133f04f	-11.246169
148	0xc15c2309	-13.7585535
149	0xc15d1f7d	-13.820188
150	0x41639672	14.22423
151	0x4171656c	15.087261
152	0xc140bd5b	-12.046229
153	0xc12fc146	-10.984686
154	0x414f25d6	12.946737
155	0x418249fe	16.286129
156	0xc1538997	-13.221091
157	0xc1672176	-14.445669
158	0x41602bc8	14.010689
159	0xc141d208	-12.113777
160	0x4160b1e3	14.043429
161	0xc17096a7	-15.03678
162	0xc123eddd	-10.245572
163	0xc14e114f	-12.879226
164	0x414aede6	12.683081
165	0xc147c828	-12.486366
166	0xc15847c5	-13.517522
167	0xc143ec23	-12.245151
168	0xc131d702	-11.114992
169	0xc1385fd3	-11.523395
170	0xc1398bcb	-11.596629
171	0x4123a6ff	10.228271
172	0x412b21da	10.695765
173	0xc1322103	-11.1330595
174	0xc12671fc	-10.402828
175	0x41321d82	11.132204
176	0x4060ecd2	3.5144544
177	0xc13c632c	-11.774212
178	0xc1122bd3	-9.135699
179	0x41273e71	10.4527445
180	0xc1160609	-9.376473
181	0x4126349a	10.387842
182	0xc1355c85	-11.335088
183	0xc11df780	-9.872925
184	0xc1142365	-9.258641
185	0x410b4c1d	8.706082
186	0xc11fcf4b	-9.988109
187	0xc0d7a1b6	-6.73849
188	0xc1534377	-13.203971
189	0xbe5a8a27	-0.21341763
190	0xc047a561	-3.119469
191	0xbfc38cdf	-1.5277365
192	0x4040bcd5	3.0115254
193	0x3ff642b8	1.9239111
194	0xc05f1ffd	-3.4863274
195	0x4008a397	2.1349847
196	0x3f670cfd	0.90254194
197	0xc0d11f64	-6.535082
198	0xc01a6261	-2.4122546
199	0xbe0d3d7a	-0.13792983
200	0x3fae2128	1.3603868
201	0xbf9c3641	-1.2204057
202	0x3fb576be	1.4176862
203	0xbf75cf45	-0.96019393
204	0xbf2d6997	-0.6773924
205	0xbfbd92f0	-1.4810467
206	0x3ed6a5bb	0.41923317
207	0xc02669fb	-2.6002185
208	0xbec5df13	-0.38646755
209	0xc02408d0	-2.5630379
210	0xc0a2d9c6	-5.0890837
211	0xc03fe279	-2.9981978
212	0x3e2ca390	0.16859269
213	0x3fa04613	1.2521385
214	0x403f9117	2.9932306
215	0xc0847189	-4.1388593
216	0x40583d22	3.3787313
217	0x3ff7575f	1.9323539
218	0xbedf3b3f	-0.4359989
219	0xbfe80391	-1.8126088
220	0xc03a39bc	-2.9097738
221	0x406ac87d	3.6684868
222	0xbf5d005f	-0.8632869
223	0x40118910	2.2739906
224	0xc04ddc56	-3.2165732
225	0x3e6a7c9c	0.22899097
226	0xc0a494e7	-5.1431766
227	0x40855f3b	4.167875
228	0xc03e679b	-2.9750736
229	0xbfe25956	-1.7683513
230	0xc0239596	-2.556005
231	0xc019c401	-2.4025881
232	0xc0637812	-3.5542035
233	0xc086902a	-4.205098
234	0x403dde52	2.9666944
235	0x40764678	3.848051
236	0xc02cb1d0	-2.6983528
237	0xbf1d4e93	-0.6144802
238	0x401487a9	2.32078
239	0xbff7c0ed	-1.9355751
240	0xc0470efb	-3.1102893
241	0xc084c710	-4.1492996
242	0x408fc9de	4.493392
243	0xc0864a29	-4.1965528
244	0x4034bdf8	2.8240948
245	0xc094cf5f	-4.650314
246	0xbfed1fc8	-1.8525324
247	0xc04c6bd1	-3.1940806
248	0x4044665f	3.0687482
249	0xc08e1f3c	-4.441313
250	0xc00145b0	-2.0198784
251	0xbfaeaeb4	-1.3647065
252	0xc0918146	-4.5470304
253	0xbff78005	-1.9335943
254	0xc0a26523	-5.074846
255	0x408a887e	4.3291616

_embedding_layer.cat_embedding_layers.3.weight f4 [18, 9]
0	0xbf4b056c	-0.7930515
1	0xc00451e6	-2.0674987
2	0xbe11b501	-0.14229204
3	0x3d3e2b20	0.046427846
4	0x3e9210fd	0.28528586
5	0x3eb5484b	0.35406718
6	0xbf8470e0	-1.0346947
7	0xbf7e6922	-0.9937917
8	0xbf5588ff	-0.83412164
9	0x4095e54d	4.684241
10	0xc03720d4	-2.8613787
11	0x40890280	4.281555
12	0x40fb0984	7.8449116
13	0x40b9af38	5.802639
14	0x4092325e	4.5686483
15	0x3fbe5205	1.486878
16	0xc0b2344d	-5.5688844
17	0xc0c44fd7	-6.134746
18	0x402aea37	2.6705453
19	0xc09d2e24	-4.9118824
20	0x40a601f6	5.1877394
21	0xc00cdb45	-2.2008832
22	0x3e6e3705	0.23263176
23	0x402af64f	2.6712835
24	0xc0118e43	-2.274308
25	0xbec717eb	-0.38885435
26	0xc08b1fa1	-4.347611
27	0x407f5d96	3.990087
28	0xbfd4dec7	-1.6630486
29	0x4050f210	3.2647743
30	0x40b34c7f	5.603088
31	0x40b1e239	5.558865
32	0x401c7e0a	2.4451928
33	0xbe3e40eb	-0.18579452
34	0xbff4d519	-1.9127532
35	0xbff65283	-1.924393
36	0x408e549a	4.4478273
37	0xc0545ce0	-3.3181686
38	0x40a9a035	5.3008065
39	0x4085bbb3	4.1791625
40	0x40c7cf4c	6.244055
41	0x40483b3f	3.128616
42	0x4011efb9	2.2802565
43	0xc09fae3e	-4.99002
44	0xc091d680	-4.557434
45	0x40c2f291	6.09211
46	0xc08da694	-4.4265842
47	0x40aa6f04	5.3260517
48	0x40d87486	6.764224
49	0x411101e6	9.0629635
50	0x40afd26b	5.494436
51	0x3ffb3617	1.9625882
52	0xc0f2fa4e	-7.593055
53	0xc0ab016c	-5.3439236
54	0x4113ac64	9.229588
55	0xc11c2126	-9.758093
56	0x41279542	10.47394
57	0x4132c5d1	11.173295
58	0x414daae4	12.854221
59	0x40fcb0b7	7.8965716
60	0x412fa0d7	10.976768
61	0xc11bd8c6	-9.740423
62	0xc13467b0	-11.275314
63	0x412a15a7	10.630286
64	0xc11806dd	-9.501676
65	0x412ef9e2	10.936007
66	0x415296d9	13.161828
67	0x415a8386	13.65711
68	0x4148207f	12.507934
69	0x4119bbaa	9.608316
70	0xc1285685	-10.521123
71	0xc13ee45c	-11.930752
72	0x40fcda13	7.9016204
73	0xc0aa5863	-5.3232894
74	0x4113434d	9.203931
75	0x40fd0eab	7.9080405
76	0x4119fa9f	9.623687
77	0x40e6be7a	7.2107515
78	0x40e358e7	7.1046023
79	0xc0e02fe2	-7.005845
80	0xc110760f	-9.028823
81	0x4149ceac	12.612957
82	0xc1783471	-15.512803
83	0x41645eb4	14.273121
84	0x4184427a	16.53246
85	0x415b346b	13.700297
86	0x415f3f04	13.952885
87	0x413eeb77	11.932487
88	0xc17e5da1	-15.897859
89	0xc15eb3eb	-13.918925
90	0x412e2088	10.882942
91	0xc148cd74	-12.550159
92	0x413473fd	11.278317
93	0x415a0737	13.626761
94	0x41596aa5	13.588536
95	0x415d1ce2	13.819551
96	0x4121a60a	10.103037
97	0xc15cd17d	-13.801145
98	0xc1653065	-14.324315
99	0x418982c5	17.188852
100	0xc1895d42	-17.170536
101	0x418b11d4	17.383705
102	0x4182d0fc	16.352043
103	0x4187ccde	16.975033
104	0x4189b90f	17.21536
105	0x415868a3	13.525546
106	0xc171cd20	-15.112579
107	0xc189d5ef	-17.22946
108	0x414f2247	12.9458685
109	0xc14d0ace	-12.815138
110	0x415a9ce5	13.663304
111	0x41738ff1	15.222642
112	0x415480e5	13.281468
113	0x4142a771	12.165879
114	0x4161fcff	14.124267
115	0xc154aa51	-13.291581
116	0xc145d17e	-12.363646
117	0x41462d80	12.386108
118	0xc1394527	-11.579383
119	0x413cc344	11.797672
120	0x4151b160	13.105804
121	0x4166043c	14.376034
122	0x412a7443	10.653384
123	0x4143729b	12.21548
124	0xc1641e80	-14.257446
125	0xc128a9d2	-10.54146
126	0x418e928e	17.82156
127	0xc18d74f1	-17.6821
128	0x418a49af	17.285978
129	0x419a97b5	19.324076
130	0x418ec8c1	17.848024
131	0x41911783	18.13648
132	0x416e2e60	14.886322
133	0xc19192e8	-18.196732
134	0xc18daaff	-17.708494
135	0x41508d39	13.034478
136	0xc1332b5c	-11.198086
137	0x414437d7	12.263633
138	0x415f7870	13.966904
139	0x416232e6	14.137426
140	0x4157d147	13.488593
141	0x415a4297	13.641257
142	0xc16a051e	-14.626249
143	0xc14d532a	-12.832804
144	0x411f1fde	9.94528
145	0xc10e991c	-8.91238
146	0x4102303e	8.136778
147	0x4145b4f7	12.356681
148	0x41341a90	11.256485
149	0x412bdc04	10.741215
150	0x411d448d	9.829236
151	0xc11b10ed	-9.691632
152	0xc11bbda7	-9.733802
153	0x41312cf4	11.073475
154	0xc1168efd	-9.409909
155	0x4128087c	10.502071
156	0x4130b117	11.043235
157	0x411bb880	9.732544
158	0x41362ce7	11.3859625
159	0x407990f4	3.8994722
160	0xc14ce539	-12.805963
161	0xc1292936	-10.572561

_embedding_layer.normalizing_batch_norm.bn.weight f4 [6]
0	0xc179a73c	-15.603329
1	0x418e3817	17.777388
2	0x4033e4fb	2.8108509
3	0xc04ceb76	-3.2018714
4	0x419c111b	19.508352
5	0x4179b505	15.606694

_embedding_layer.normalizing_batch_norm.bn.bias f4 [6]
0	0x40aa3f1f	5.320205
1	0xc0d551f1	-6.6662526
2	0x40caa05c	6.332075
3	0xc098179f	-4.7528834
4	0x40ad8879	5.4229093
5	0x40dc7c5e	6.8901815

_embedding_layer.normalizing_batch_norm.bn.running_mean f4 [6]
0	0xbc398881	-0.011324049
1	0x3b5e03d1	0.0033876786
2	0x38298f16	4.0426e-05
3	0x3b24f0eb	0.0025168012
4	0x3c08d10f	0.008350625
5	0x3baa249c	0.0051923525

_embedding_layer.normalizing_batch_norm.bn.running_var f4 [6]
0	0x3f7ba347	0.98296016
1	0x3f80506c	1.0024543
2	0x3f808482	1.0040438
3	0x3f81a148	1.0127344
4	0x3f7e4f38	0.9933963
5	0x3f7d4144	0.9892771

head.layers.0.weight f4 [1, 50]
0	0x40abb4b3	5.365808
1	0x40a7f9e7	5.2492557
2	0x40a51a8f	5.159492
3	0x40c93fe4	6.289049
4	0x40afa796	5.4892073
5	0x40c48c7e	6.14215
6	0x40af4512	5.4771814
7	0x40aea5c1	5.4577336
8	0x40aa1682	5.3152475
9	0x40a44774	5.1337223
10	0x40b3ad82	5.61493
11	0x40acd55e	5.401046
12	0x40c4f039	6.154324
13	0x40abcd9e	5.3688498
14	0x40cb6fa7	6.3573794
15	0x40aad848	5.3389015
16	0x40b17d29	5.5465283
17	0x40ca7486	6.326724
18	0x40a3101d	5.095717
19	0x40c61743	6.1903396
20	0x40a99405	5.299319
21	0x40ad52f9	5.4163785
22	0x40c421c9	6.129124
23	0x40aaf9c0	5.342987
24	0x40cbd5ac	6.369833
25	0x40aef1dd	5.4670243
26	0x40ca510a	6.3223925
27	0x40ac6f51	5.3885884
28	0x40ae86b5	5.4539437
29	0x40b07600	5.5144043
30	0x40af74fc	5.4830303
31	0x40a72289	5.2229657
32	0x409b7ea5	4.8592095
33	0x40a92a9b	5.286451
34	0x40abdd6c	5.370779
35	0x40af94ed	5.4869294
36	0x40acd27b	5.4006934
37	0x40c7d8a8	6.2451973
38	0x40b3cc52	5.6186914
39	0x40a46bc9	5.1381574
40	0x40b1de8a	5.5584154
41	0x40c45f15	6.1366067
42	0x40c8cd7a	6.2750826
43	0x40c98203	6.2971206
44	0x40c22b82	6.067811
45	0x40cab464	6.3345203
46	0x40a78607	5.2351108
47	0x40a576fb	5.170774
48	0x40af0e2a	5.470479
49	0x40c64fdb	6.197248

exp_avg f4 [50, 57]
0	0xc79198ff	-74545.99
1	0x47f50734	125454.41
2	0xc65a857f	-13985.374
3	0x46586cd5	13851.208
4	0xc6deddce	-28526.902
5	0x46977511	19386.533
6	0xc68b0d96	-17798.793
7	0x46ab17df	21899.936
8	0xc6a4d91f	-21100.56
9	0xc68be25e	-17905.184
10	0x46ab984d	21964.15
11	0x46810e1a	16519.05
12	0x4542c30f	3116.1912
13	0x44bde369	1519.1066
14	0xc51f6312	-2550.192
15	0x458231ac	4166.209
16	0x4598413b	4872.154
17	0x44360e3f	728.2226
18	0xc5dbc160	-7032.172
19	0x45a45f3c	5259.9043
20	0x4572c244	3884.1416
21	0xc468a22c	-930.53394
22	0xc56667d4	-3686.4893
23	0x45d87cf2	6927.618
24	0xc337571e	-183.3403
25	0xc57fea38	-4094.6387
26	0x44319238	710.28467
27	0xc5588dee	-3464.8706
28	0x45845b5a	4235.419
29	0x45ce3fc4	6599.9707
30	0xc5eabbbb	-7511.4663
31	0xc6097011	-8796.017
32	0xc4ae6bf1	-1395.3732
33	0xc63806f1	-11777.735
34	0xc5222e4b	-2594.8933
35	0x4665ea12	14714.518
36	0x45ca1432	6466.5244
37	0x44444037	785.00336
38	0xc6097c2d	-8799.044
39	0xc4ef52ac	-1914.5835
40	0xc4ccf325	-1639.5983
41	0xc50e6ea7	-2278.9158
42	0xc413d616	-591.3451
43	0x461734cd	9677.2
44	0x459cb057	5014.0425
45	0x4619ac9a	9835.15
46	0x456718b4	3697.544
47	0x45a03984	5127.1895
48	0xc619cee0	-9843.719
49	0xc437ad09	-734.7037
50	0xc62bf707	-11005.757
51	0xc6334c26	-11475.037
52	0xc65dfaba	-14206.682
53	0xc5317bf6	-2839.7476
54	0xc3c54a7b	-394.58188
55	0xc54cc53a	-3276.3267
56	0x45668ace	3688.6753
57	0xc78e9d74	-73018.91
58	0x47f00199	122883.195
59	0xc6561e96	-13703.646
60	0x46540dae	13571.42
61	0xc6da5e25	-27951.072
62	0x46952321	19089.564
63	0xc68840d1	-17440.408
64	0x46a7ab4a	21461.645
65	0xc6a186ed	-20675.463
66	0xc6891168	-17544.703
67	0x46a8236c	21521.71
68	0x467ceebe	16187.686
69	0x453ec635	3052.388
70	0x44b9e8e6	1487.2781
71	0xc51c6933	-2502.575
72	0x457f6f81	4086.969
73	0x45950311	4768.3833
74	0x44319cb5	710.44855
75	0xc5d75928	-6891.1445
76	0x45a10e7e	5153.8115
77	0x456dcf39	3804.9514
78	0xc464402f	-913.00287
79	0xc5619067	-3609.0251
80	0x45d43d43	6791.6577
81	0xc3385b9e	-184.35788
82	0xc57a86cd	-4008.425
83	0x442e7eef	697.98334
84	0xc5549b79	-3401.717
85	0x45816eb6	4141.839
86	0x45c9b70f	6454.8823
87	0xc5e5ab00	-7349.375
88	0xc6068427	-8609.038
89	0xc4abba70	-1373.8262
90	0xc6348a6a	-11554.604
91	0xc51e1110	-2529.0664
92	0x466179b3	14430.425
93	0x45c5a211	6324.2583
94	0x443de9e3	759.6545
95	0xc60690a4	-8612.16
96	0xc4ec2db4	-1889.4282
97	0xc4c6f6e7	-1591.7157
98	0xc50c2f0f	-2242.9412
99	0xc4143140	-592.76953
100	0x461403bf	9472.937
101	0x4599d598	4922.699
102	0x461678c2	9630.189
103	0x45623004	3619.001
104	0x459ca5c7	5012.722
105	0xc616a60b	-9641.511
106	0xc433c8f2	-719.1398
107	0xc6288004	-10784.004
108	0xc62f7c11	-11231.017
109	0xc6595a09	-13910.509
110	0xc52db78d	-2779.472
111	0xc3bdcf30	-379.61865
112	0xc5492a5c	-3218.6475
113	0x4561c9e1	3612.6174
114	0xc78c3bb3	-71799.4
115	0x47ec0157	120834.68
116	0xc65280de	-13472.217
117	0x4650858d	13345.388
118	0xc6d6702d	-27448.088
119	0x469277a6	18747.824
120	0xc685fe17	-17151.045
121	0x46a4e3dd	21105.932
122	0xc69ed9ac	-20332.836
123	0xc686ca70	-17253.219
124	0x46a559a9	21164.83
125	0x4678b99b	15918.401
126	0x453b9269	3001.1506
127	0x44b67f1a	1459.9719
128	0xc519f653	-2463.3953
129	0x457b5384	4021.2197
130	0x45927c39	4687.528
131	0x442df2c5	695.7933
132	0xc5d3ac41	-6773.5317
133	0x459e82f9	5072.3716
134	0x4569a27b	3738.155
135	0xc460cdf4	-899.218
136	0xc55dace8	-3546.8066
137	0x45d0a0d1	6676.102
138	0xc33866b8	-184.40125
139	0xc5763929	-3939.5725
140	0x442c1f05	688.4847
141	0xc5513247	-3347.1423
142	0x457e9172	4073.0903
143	0x45c658e3	6347.111
144	0xc5e1dd70	-7227.6797
145	0xc6044b31	-8466.798
146	0xc4a8e699	-1351.2062
147	0xc6319084	-11364.129
148	0xc51b6783	-2486.4695
149	0x465daadc	14186.715
150	0x45c25c3a	6219.5283
151	0x443a905d	746.2557
152	0xc604544f	-8469.077
153	0xc4e8657d	-1859.1715
154	0xc4c3b18b	-1565.5482
155	0xc509f98b	-2207.5964
156	0xc411f2a0	-583.791
157	0x46118884	9314.129
158	0x4597474c	4840.912
159	0x4613fff0	9471.984
160	0x455e80ae	3560.0425
161	0x459a0d5a	4929.669
162	0xc6141993	-9478.394
163	0xc431da1c	-711.40796
164	0xc625a90a	-10602.26
165	0xc62c8480	-11041.125
166	0xc655b043	-13676.065
167	0xc52a9403	-2729.2507
168	0xc3b91d1f	-370.2275
169	0xc5462a19	-3170.631
170	0x455dcffe	3548.9995
171	0xc7aac508	-87434.06
172	0x480fc5ed	147223.7
173	0xc680ca82	-16485.254
174	0x467ecaad	16306.669
175	0xc702c08e	-33472.555
176	0x46b03567	22554.701
177	0xc6a37da0	-20926.812
178	0x46c917d1	25739.908
179	0xc6c1e327	-24817.576
180	0xc6a491ae	-21064.84
181	0x46c9d03d	25832.12
182	0x4697e320	19441.562
183	0x4566d3e7	3693.244
184	0x44ea2bfe	1873.3748
185	0xc534f73d	-2895.4524
186	0x459565d3	4780.728
187	0x45b48fee	5777.991
188	0x446e5746	953.36365
189	0xc602422e	-8336.545
190	0x45bda74f	6068.9136
191	0x4590bf9f	4631.9526
192	0xc4827e6b	-1043.9506
193	0xc5893167	-4390.1753
194	0x46005d14	8215.27
195	0xc303526a	-131.32193
196	0xc5986b1c	-4877.3887
197	0x443e0f7a	760.2418
198	0xc5787301	-3975.1877
199	0x459e0676	5056.8076
200	0x45f46d35	7821.651
201	0xc60b17c1	-8901.938
202	0xc6228211	-10400.517
203	0xc4c150ae	-1546.5212
204	0xc656e742	-13753.814
205	0xc5444520	-3140.3203
206	0x4686c134	17248.602
207	0x45efb7ce	7670.9756
208	0x447b2be7	1004.686
209	0xc622aab2	-10410.674
210	0xc507a18b	-2170.0964
211	0xc4fab721	-2005.7228
212	0xc5214961	-2580.5862
213	0xc41937cf	-612.872
214	0x4632c86b	11442.1045
215	0x45b5542a	5802.5205
216	0x463595a7	11621.413
217	0x4589623c	4396.2793
218	0x45bed2ff	6106.3745
219	0xc635685f	-11610.093
220	0xc448c3a8	-803.0571
221	0xc64ab6b1	-12973.673
222	0xc6536df3	-13531.487
223	0xc682d006	-16744.012
224	0xc553f4a7	-3391.2908
225	0xc3f622c6	-492.27167
226	0xc56b854e	-3768.3315
227	0x458956c9	4394.848
228	0xc8147fc6	-152063.1
229	0x48164e05	153912.08
230	0xc65b51aa	-14036.416
231	0x461ece70	10163.609
232	0xc72c2887	-44072.527
233	0x4588aea4	4373.83
234	0xc660761e	-14365.529
235	0x468ce07b	18032.24
236	0xc6715edc	-15447.715
237	0xc64b150a	-12997.26
238	0x467d307f	16204.124
239	0x4633d502	11509.252
240	0xc15270d6	-13.152548
241	0xc5aa5caa	-5451.583
242	0xc61e6583	-10137.378
243	0x4635af23	11627.784
244	0x448eeee3	1143.4652
245	0xc5dd9331	-7090.399
246	0xc4860c32	-1072.3811
247	0x4652aba2	13482.908
248	0xc4da4a46	-1746.321
249	0xc5c55d16	-6315.6357
250	0x44d34f6b	1690.4818
251	0x43339af4	179.60529
252	0xc5b11dc0	-5667.7188
253	0x4467c0ef	927.0146
254	0x45b8ed34	5917.6504
255	0xc58c0f26	-4481.8936

exp_avg_sq f4 [50, 57]
0	0x5366b30b	9.908463e+11
1	0x53bdf80b	1.6318206e+12
2	0x53aebe6d	1.5010382e+12
3	0x534cb105	8.791432e+11
4	0x538444b8	1.1361772e+12
5	0x53fa4aeb	2.1499975e+12
6	0x5343b29f	8.405154e+11
7	0x53552843	9.155035e+11
8	0x53b19f51	1.5257642e+12
9	0x53945cb0	1.2744204e+12
10	0x53b37124	1.5413947e+12
11	0x539b59f7	1.3344586e+12
12	0x52ffb842	5.49154e+11
13	0x539b5173	1.3341728e+12
14	0x539f2fbb	1.3674012e+12
15	0x53b4f425	1.5543804e+12
16	0x5324895a	7.06679e+11
17	0x53b71953	1.5728078e+12
18	0x53b0f75e	1.5201288e+12
19	0x53be5201	1.6348392e+12
20	0x538cf875	1.2109277e+12
21	0x530ce72b	6.051738e+11
22	0x5332f6ef	7.6864704e+11
23	0x53bafd7f	1.6062338e+12
24	0x5353fd0a	9.104834e+11
25	0x5366a844	9.906655e+11
26	0x533b893e	8.054614e+11
27	0x5374cc57	1.0514003e+12
28	0x53a6fed2	1.4344795e+12
29	0x53a62b98	1.4273919e+12
30	0x53c4c0ba	1.690094e+12
31	0x53b07c2a	1.5159947e+12
32	0x53739b2e	1.04628054e+12
33	0x52c46dcc	4.2182784e+11
34	0x53aca50b	1.4830067e+12
35	0x51c04634	1.0322644e+11
36	0x53a967fd	1.4551882e+12
37	0x5380e096	1.1070475e+12
38	0x53b54f3b	1.5574367e+12
39	0x535900db	9.3202226e+11
40	0x5386e933	1.1588761e+12
41	0x53a0edb3	1.3823654e+12
42	0x5367449d	9.932886e+11
43	0x53c32ae5	1.6764765e+12
44	0x5343ecbb	8.414903e+11
45	0x53aefb1f	1.5030748e+12
46	0x532c98c6	7.412975e+11
47	0x53a8b35b	1.4491272e+12
48	0x53485bba	8.605324e+11
49	0x53202da4	6.879605e+11
50	0x536f85d0	1.0287422e+12
51	0x536d9822	1.0204596e+12
52	0x539a24ad	1.3240806e+12
53	0x5328b7c5	7.2463765e+11
54	0x5283c88d	2.830027e+11
55	0x53361371	7.820102e+11
56	0x5351a371	9.0039026e+11
57	0x53629454	9.7315114e+11
58	0x53ba285a	1.5990818e+12
59	0x53abca9d	1.4756774e+12
60	0x5348f984	8.6317964e+11
61	0x53817798	1.1121145e+12
62	0x53f480ac	2.1002616e+12
63	0x53408575	8.2687276e+11
64	0x5351a723	9.0045225e+11
65	0x53aed9a4	1.5019514e+12
66	0x539204b8	1.2542888e+12
67	0x53b0a3fc	1.5173309e+12
68	0x5398e619	1.3133909e+12
69	0x52fbb798	5.405585e+11
70	0x5398c578	1.312296e+12
71	0x539c9c0a	1.3452656e+12
72	0x53b2091f	1.5293144e+12
73	0x5321bc0e	6.946448e+11
74	0x53b41e96	1.5472145e+12
75	0x53ae18f7	1.4954863e+12
76	0x53bb4b36	1.6088414e+12
77	0x538aac09	1.1911835e+12
78	0x530abd83	5.9588497e+11
79	0x532fe443	7.554489e+11
80	0x53b80131	1.580588e+12
81	0x535048cc	8.945745e+11
82	0x5362c56f	9.73975e+11
83	0x53384d20	7.915679e+11
84	0x53705049	1.0321391e+12
85	0x53a40a68	1.4090984e+12
86	0x53a349fc	1.4026418e+12
87	0x53c15c8e	1.660963e+12
88	0x53ad6b47	1.4896583e+12
89	0x536f1db9	1.02699585e+12
90	0x52c074c7	4.1329646e+11
91	0x53a99916	1.4568357e+12
92	0x51bd1dd8	1.0153119e+11
93	0x53a669f7	1.4294847e+12
94	0x537d17d8	1.08702676e+12
95	0x53b226c4	1.5303091e+12
96	0x5355150b	9.151811e+11
97	0x538490d6	1.1387313e+12
98	0x539e11bf	1.3578051e+12
99	0x53632f1d	9.75748e+11
100	0x53bfc8f7	1.6474208e+12
101	0x53405c92	8.261868e+11
102	0x53abea86	1.4767481e+12
103	0x53296c3b	7.276653e+11
104	0x53a5b7fa	1.4235124e+12
105	0x5344ff11	8.460929e+11
106	0x531d94fb	6.7680934e+11
107	0x536b9c30	1.0119377e+12
108	0x5369c40a	1.0040164e+12
109	0x5397ac3c	1.3028594e+12
110	0x5325f290	7.127391e+11
111	0x5281cdc5	2.787515e+11
112	0x53331353	7.6912335e+11
113	0x534e1f96	8.852932e+11
114	0x535cc3fd	9.4818094e+11
115	0x53b5071c	1.5550167e+12
116	0x53a75e70	1.4376879e+12
117	0x5343d24d	8.410469e+11
118	0x537bd3f0	1.0815925e+12
119	0x53ed5499	2.0386531e+12
120	0x533bd011	8.0664966e+11
121	0x534c787d	8.781948e+11
122	0x53aa6bfe	1.4639125e+12
123	0x538e5d9d	1.2229119e+12
124	0x53ac28a5	1.4788326e+12
125	0x5395115a	1.2804825e+12
126	0x52f5c7e2	5.2781023e+11
127	0x5394de1c	1.2787631e+12
128	0x53989f1a	1.3110086e+12
129	0x53ad75a1	1.4900057e+12
130	0x531dc58d	6.776242e+11
131	0x53af7b7e	1.5073823e+12
132	0x53a9a8f4	1.4573681e+12
133	0x53b677c3	1.5673866e+12
134	0x53873056	1.161263e+12
135	0x530769b8	5.8159425e+11
136	0x532b89f3	7.367538e+11
137	0x53b34bef	1.5401462e+12
138	0x534b12a9	8.721914e+11
139	0x535d1e0b	9.496918e+11
140	0x5333bc31	7.719565e+11
141	0x536a38e9	1.00597714e+12
142	0x539fc56a	1.3724237e+12
143	0x539f0403	1.3659342e+12
144	0x53bc430e	1.6171577e+12
145	0x53a8e4c9	1.4507858e+12
146	0x5368f52a	1.0005456e+12
147	0x52bb7a41	4.0260498e+11
148	0x53a52aeb	1.4187793e+12
149	0x51b8b5fc	9.91659e+10
150	0x53a20995	1.3918909e+12
151	0x53769b4c	1.0591674e+12
152	0x53ad8982	1.4906727e+12
153	0x534f96b9	8.9158694e+11
154	0x53812d72	1.1096265e+12
155	0x5399ed09	1.3222136e+12
156	0x535d6471	9.508729e+11
157	0x53bad58c	1.6048933e+12
158	0x533b9699	8.056855e+11
159	0x53a7726e	1.4383587e+12
160	0x53253475	7.095497e+11
161	0x53a15da1	1.3861211e+12
162	0x534028d8	8.2531897e+11
163	0x5319ccb1	6.6056415e+11
164	0x5365c124	9.867879e+11
165	0x5363ed5e	9.7893994e+11
166	0x5393d4e5	1.269864e+12
167	0x5321ec67	6.954559e+11
168	0x527daa4e	2.7237099e+11
169	0x532eac35	7.5021346e+11
170	0x5349054d	8.6337736e+11
171	0x538bb1dc	1.1999689e+12
172	0x53e89d75	1.9981482e+12
173	0x53d1b358	1.8013141e+12
174	0x53769a85	1.05915436e+12
175	0x53a2b8e0	1.3977728e+12
176	0x541be472	2.6782104e+12
177	0x536903af	1.0007892e+12
178	0x537e4614	1.0920974e+12
179	0x53d3c626	1.819125e+12
180	0x53b0c672	1.5184872e+12
181	0x53d5f647	1.8379198e+12
182	0x53b92a94	1.5905666e+12
183	0x5316f646	6.483769e+11
184	0x53b9e838	1.5969299e+12
185	0x53be4e51	1.6347154e+12
186	0x53d87c48	1.859596e+12
187	0x53446e75	8.4366675e+11
188	0x53db1ff4	1.8822678e+12
189	0x53d3951a	1.8174792e+12
190	0x53e39388	1.9548655e+12
191	0x53a852f2	1.4458922e+12
192	0x5326d044	7.164587e+11
193	0x535603b6	9.1918526e+11
194	0x53df8546	1.9200273e+12
195	0x537e0f7f	1.0911817e+12
196	0x5389e1fb	1.1844037e+12
197	0x53605b70	9.6360674e+11
198	0x539360d7	1.2659698e+12
199	0x53c91ecf	1.7276106e+12
200	0x53c80eb4	1.7184803e+12
201	0x53eccdb5	2.034127e+12
202	0x53d462ef	1.8243858e+12
203	0x5392eb11	1.262018e+12
204	0x52ee2086	5.1137393e+11
205	0x53cff19a	1.7862233e+12
206	0x51e36793	1.2208691e+11
207	0x53cc3eb1	1.7544502e+12
208	0x539b37eb	1.3333162e+12
209	0x53da0f32	1.8731156e+12
210	0x5382b878	1.1228812e+12
211	0x53a2024e	1.3916467e+12
212	0x53c217ac	1.6672416e+12
213	0x538aeeb0	1.19342e+12
214	0x53ea7f64	2.0143192e+12
215	0x536b4573	1.0104825e+12
216	0x53d28691	1.8084016e+12
217	0x534f68dd	8.9081754e+11
218	0x53cb5b17	1.7468132e+12
219	0x536f1c05	1.0269673e+12
220	0x533e174a	8.164345e+11
221	0x538ebf37	1.2261868e+12
222	0x538dd86b	1.2184426e+12
223	0x53b83547	1.5823357e+12
224	0x5348c9f5	8.6238174e+11
225	0x529aed9f	3.327058e+11
226	0x535927c5	9.326751e+11
227	0x537a58d5	1.0752322e+12
228	0x536c23b7	1.0142115e+12
229	0x53c35af2	1.6780889e+12
230	0x53b3151a	1.5383063e+12
231	0x5351e36b	9.014636e+11
232	0x5388145f	1.1689146e+12
233	0x54012b5f	2.2191137e+12
234	0x53483f5a	8.600563e+11
235	0x535a399f	9.372696e+11
236	0x53b5f47e	1.562982e+12
237	0x5397eb0f	1.3049674e+12
238	0x53b7d401	1.5790717e+12
239	0x539f118a	1.3663881e+12
240	0x5302b16d	5.6132246e+11
241	0x539f2e94	1.3673625e+12
242	0x53a32313	1.4013362e+12
243	0x53b980b5	1.5934566e+12
244	0x53286fd3	7.234306e+11
245	0x53bbb169	1.6122707e+12
246	0x53b565e1	1.5581966e+12
247	0x53c32024	1.6761157e+12
248	0x53906940	1.2404822e+12
249	0x531011a2	6.187711e+11
250	0x53374322	7.871053e+11
251	0x53bfaa49	1.6463913e+12
252	0x5359268b	9.3265455e+11
253	0x536c3a68	1.0145922e+12
254	0x53400f7a	8.248934e+11
255	0x537af9ec	1.0779348e+12

exp_avg f4 [50]
0	0xc560e4f4	-3598.3096
1	0xc55c5e72	-3525.9028
2	0xc558b7ad	-3467.4797
3	0xc58436b7	-4230.8394
4	0xc52de117	-2782.068
5	0xc580f83b	-4127.029
6	0xc52d888b	-2776.534
7	0xc52d0957	-2768.5837
8	0xc5280a5e	-2688.648
9	0xc51b8eed	-2488.9329
10	0xc532161e	-2849.3823
11	0xc52b5288	-2741.1582
12	0xc581762b	-4142.771
13	0xc52a4ad7	-2724.6775
14	0xc585b63f	-4278.781
15	0xc5290a8e	-2704.6597
16	0xc52fdaed	-2813.6829
17	0xc5409b06	-3081.689
18	0xc5218aa8	-2584.666
19	0xc58235c9	-4166.723
20	0xc520d06e	-2573.0269
21	0xc52b991f	-2745.57
22	0xc542df2e	-3117.9487
23	0xc522b11d	-2603.0696
24	0xc585fc1f	-4287.515
25	0xc525ccdb	-2652.8035
26	0xc584d62c	-4250.7715
27	0xc5236540	-2614.3281
28	0xc525709f	-2647.0388
29	0xc52e934f	-2793.2068
30	0xc52dc519	-2780.3186
31	0xc52559a8	-2645.6035
32	0xc51a71c6	-2471.1108
33	0xc5279b4c	-2681.706
34	0xc52a498b	-2724.5964
35	0xc526d15f	-2669.0857
36	0xc52b1e52	-2737.895
37	0xc546a291	-3178.1604
38	0xc5324729	-2852.4475
39	0xc5231e27	-2609.8845
40	0xc5305fcd	-2821.9875
41	0xc580a5d4	-4116.7285
42	0xc5840ada	-4225.3564
43	0xc5847140	-4238.1562
44	0xc57f3249	-4083.1428
45	0xc5854992	-4265.1963
46	0xc51e88d6	-2536.5522
47	0xc523fe89	-2623.9084
48	0xc565b4df	-3675.3044
49	0xc582554d	-4170.6626

exp_avg_sq f4 [50]
0	0x514d20b6	5.506357e+10
1	0x5149ff3a	5.422315e+10
2	0x5143e19c	5.2581482e+10
3	0x5177530a	6.639063e+10
4	0x5153da83	5.6869007e+10
5	0x516f6634	6.426324e+10
6	0x51481817	5.371235e+10
7	0x514ccc7d	5.4975255e+10
8	0x5146037b	5.315387e+10
9	0x5148cdfa	5.3903073e+10
10	0x515896f9	5.8140365e+10
11	0x514fcad9	5.577884e+10
12	0x5170affe	6.460905e+10
13	0x514ce4f4	5.5000908e+10
14	0x517f41e0	6.8520116e+10
15	0x514e0d24	5.5311483e+10
16	0x51482aed	5.3732102e+10
17	0x517a378d	6.7167113e+10
18	0x51443e00	5.267836e+10
19	0x516f5e47	6.425493e+10
20	0x514de571	5.5269855e+10
21	0x51525459	5.645989e+10
22	0x516cb2bf	6.3538196e+10
23	0x51459cc0	5.304615e+10
24	0x517f7d23	6.8582257e+10
25	0x514cfada	5.502387e+10
26	0x5179d271	6.7061092e+10
27	0x514e0056	5.5298056e+10
28	0x5151aef4	5.628646e+10
29	0x51537300	5.6760467e+10
30	0x514f9f48	5.5733158e+10
31	0x51492a23	5.399971e+10
32	0x513a8b50	5.0075075e+10
33	0x51485c93	5.3784162e+10
34	0x5151add6	5.628529e+10
35	0x514dcac3	5.524188e+10
36	0x514cb62e	5.4951862e+10
37	0x517246c8	6.50356e+10
38	0x51589fb1	5.8149507e+10
39	0x51403279	5.159253e+10
40	0x5154fb64	5.717192e+10
41	0x516edc70	6.4118784e+10
42	0x51758ddf	6.591545e+10
43	0x517733e7	6.635798e+10
44	0x516854ba	6.236587e+10
45	0x517b3feb	6.7444322e+10
46	0x51484d87	5.3768385e+10
47	0x514485cf	5.2753658e+10
48	0x514f390b	5.5625953e+10
49	0x516e5cb6	6.3984853e+10

exp_avg f4 [13, 7]
0	0x00000000	0.0
1	0x00000000	0.0
2	0x00000000	0.0
3	0x00000000	0.0
4	0x00000000	0.0
5	0x00000000	0.0
6	0x00000000	0.0
7	0xc8bf4ddc	-391790.88
8	0x48d71d97	440556.72
9	0xc8eabdef	-480751.47
10	0xc8de403a	-455169.8
11	0x48ed4dc6	485998.2
12	0x48e4cd89	468588.28
13	0x48852426	272673.2
14	0xc8061783	-137310.05
15	0x4816e0af	154498.73
16	0xc824b9bd	-168678.95
17	0xc81bfd5b	-159733.42
18	0x4826946f	170577.73
19	0x4820962c	164440.69
20	0x47ba7a63	95476.77
21	0xc7d53c0c	-109176.09
22	0x47effbfc	122871.97
23	0xc803173d	-134236.95
24	0xc7f816ac	-127021.34
25	0x4804839c	135694.44
26	0x47ff5af9	130741.945
27	0x47940714	75790.16
28	0xc7899123	-70434.27
29	0x479ae21d	79300.23
30	0xc7aacc6f	-87448.87
31	0xc7a15ebc	-82621.47
32	0x47ac7440	88296.5
33	0x47a69d08	85306.06
34	0x47417e41	49534.254
35	0x46cabce9	25950.455
36	0xc6e5fdd1	-29438.908
37	0x46f7336e	31641.715
38	0x46ed1e10	30351.031
39	0xc6f9f242	-31993.129
40	0xc6f3b3db	-31193.928
41	0xc690747c	-18490.242
42	0xc70b5aa1	-35674.63
43	0x471e4281	40514.504
44	0xc72ed6ed	-44758.926
45	0xc724b7b0	-42167.688
46	0x47300c9c	45068.61
47	0x472949e7	43337.902
48	0x46c4c580	25186.75
49	0x48b39492	367780.56
50	0xc8ca486b	-414275.34
51	0x48d9a4c4	445734.12
52	0x48cea058	423170.75
53	0xc8dc01b5	-450573.66
54	0xc8d498fc	-435399.88
55	0xc8727c9b	-248306.42
56	0xc8af96f0	-359607.5
57	0x48c4aa46	402770.2
58	0xc8dc0b07	-450648.22
59	0xc8cf8f60	-425083.0
60	0x48de8745	455738.16
61	0x48d5c9ef	437839.47
62	0x48817403	265120.1
63	0x484410da	200771.4
64	0xc85c20df	-225411.48
65	0x48700ab8	245802.88
66	0x486335d0	232663.25
67	0xc872a12c	-248452.69
68	0xc869fe7b	-239609.92
69	0xc80859b7	-139622.86
70	0xc880eeeb	-264055.34
71	0x4891397a	297419.8
72	0xc89e89d1	-324686.53
73	0xc896404b	-307714.34
74	0x48a05138	328329.75
75	0x489ab739	316857.78
76	0x4833d9a2	184166.53
77	0xc76c5ef1	-60510.94
78	0x47850069	68096.82
79	0xc7938a44	-75540.53
80	0xc78b51b6	-71331.42
81	0x47952a91	76373.13
82	0x478f990a	73522.08
83	0x47286bd6	43115.836
84	0x47bb60cd	95937.6
85	0xc7d2cc3b	-107928.46
86	0x47e4fcaa	117241.33
87	0x47d92799	111183.195
88	0xc7e77f02	-118526.016
89	0xc7df6d13	-114394.15
90	0xc78215c8	-66603.56

exp_avg_sq f4 [13, 7]
0	0x00000000	0.0
1	0x00000000	0.0
2	0x00000000	0.0
3	0x00000000	0.0
4	0x00000000	0.0
5	0x00000000	0.0
6	0x00000000	0.0
7	0x5509ef6e	9.47884e+12
8	0x5524f296	1.1335113e+13
9	0x55213147	1.1077064e+13
10	0x551b56c4	1.067481e+13
11	0x5524979f	1.1310695e+13
12	0x552410fc	1.1274553e+13
13	0x54b12382	6.0864395e+12
14	0x54e8eace	8.002974e+12
15	0x550c42c1	9.638646e+12
16	0x550815a7	9.351661e+12
17	0x550312b5	9.007273e+12
18	0x550b13f3	9.557362e+12
19	0x550abe0e	9.534305e+12
20	0x54914fe1	4.992883e+12
21	0x557f37da	1.7538459e+13
22	0x55996066	2.1079913e+13
23	0x559517c0	2.0491155e+13
24	0x558fa416	1.9741863e+13
25	0x559856dc	2.0937353e+13
26	0x5597f144	2.088281e+13
27	0x5520aa18	1.1040775e+13
28	0x558a4b5a	1.900703e+13
29	0x55a5e322	2.2799368e+13
30	0x55a12b16	2.2150803e+13
31	0x559b5ec9	2.1353925e+13
32	0x55a4a167	2.262664e+13
33	0x55a43e49	2.2573427e+13
34	0x552f3e6c	1.2042665e+13
35	0x5593f3dc	2.0334447e+13
36	0x55b0d4b2	2.4303446e+13
37	0x55ab4509	2.3539124e+13
38	0x55a568dd	2.2733725e+13
39	0x55aedf7c	2.403436e+13
40	0x55aebbe8	2.401526e+13
41	0x553dd166	1.3044191e+13
42	0x558f87a3	1.972659e+13
43	0x55ac3b98	2.3671494e+13
44	0x55a61e62	2.2831178e+13
45	0x55a06b6a	2.20479e+13
46	0x55a9b465	2.3324032e+13
47	0x55a9b31f	2.3323348e+13
48	0x55354dba	1.245909e+13
49	0x55d01328	2.8597587e+13
50	0x55f7d4bc	3.4061632e+13
51	0x55f110f1	3.3131883e+13
52	0x55e8e2aa	3.2007527e+13
53	0x55f60d34	3.381707e+13
54	0x55f5bd38	3.377413e+13
55	0x5587430b	1.8590252e+13
56	0x55b282bb	2.453432e+13
57	0x55d53fb1	2.9308691e+13
58	0x55cded05	2.8302234e+13
59	0x55c71350	2.736072e+13
60	0x55d24171	2.8897314e+13
61	0x55d24d36	2.8903633e+13
62	0x5565768c	1.5768582e+13
63	0x558af5ef	1.909861e+13
64	0x55a604ef	2.2817515e+13
65	0x55a29daf	2.2349766e+13
66	0x559ca4ff	2.1529058e+13
67	0x55a606cc	2.2818515e+13
68	0x55a55e1f	2.2727958e+13
69	0x5533141e	1.2306187e+13
70	0x55afa454	2.414004e+13
71	0x55d1c238	2.8829012e+13
72	0x55cbeee1	2.8028355e+13
73	0x55c4e5c9	2.70614e+13
74	0x55d03a2c	2.8618533e+13
75	0x55cfe9da	2.8575411e+13
76	0x5562bb11	1.5580817e+13
77	0x5595987d	2.056027e+13
78	0x55b3970f	2.4682672e+13
79	0x55ade939	2.390215e+13
80	0x55a7c27e	2.3056722e+13
81	0x55b1acbf	2.4419437e+13
82	0x55b16da7	2.4385564e+13
83	0x553cf868	1.2985943e+13
84	0x555dd001	1.524284e+13
85	0x55846323	1.8195165e+13
86	0x5580a00b	1.7678108e+13
87	0x557861f9	1.706873e+13
88	0x55835016	1.8047499e+13
89	0x55832305	1.8023304e+13
90	0x550f27a1	9.837523e+12
