Programming Assignment/model.pth (torch, 478184 bytes, 7 tensors)

mlp_stack.Linear0.weight f4 [256, 77]
-0.052101243 0.02815454 -0.0159143 -0.0314094 0.0073759626 0.0754447 0.113788635 0.008389119
-0.0822396 -0.008473473 0.09293751 0.08847969 0.0612051 -0.039670862 -0.14961879 0.06543535
0.061652537 -0.0515872 0.012650409 -0.009234465 0.023057537 -0.11638096 0.041995652 -0.0017584913
-0.051354423 0.10018341 0.0031364453 -0.064282626 0.08424224 -0.07618373 0.11906661 -0.0080165155
0.048307788 0.043730997 0.0685048 0.007076413 0.05478184 0.082078576 -0.05528226 0.056616258
-0.018892724 0.15804067 -0.07383128 0.06963057 -0.01243198 -0.07474839 -0.061280604 0.034743186
-0.07362855 0.06267765 -0.040266745 0.12360881 0.10230369 0.035722367 -0.008883875 0.13037407
-0.10189136 -0.16038533 0.12502329 0.043670062 0.060022682 0.043472685 0.06537514 -0.009752643
0.018226285 0.06348008 -0.098273 -0.022237694 0.081423044 0.026163876 -0.1300615 -0.13431844
-0.009551198 0.011301186 -0.050764307 0.07759184 -0.08068112 -0.06919153 0.05876688 -0.014736178
-0.042696603 0.009910217 0.06042179 0.10002481 -0.074760295 0.0021515752 0.05162144 -0.08769776
0.087538525 -0.031833995 0.043193568 -0.0780762 -0.038105298 0.16187233 0.10165308 -0.0043886616
-0.09145972 -0.0422971 0.019651335 -0.04117173 0.027397567 -0.055402428 0.07896937 -0.05656076
0.032183837 0.13867004 0.13426273 -0.011730593 0.08526396 -0.0101035535 0.057728704 0.069474794
-0.11071177 -0.03767276 -0.07257468 -0.123864755 0.0897257 -0.03247872 -0.021604678 -0.030358672
-0.112499245 -0.09599668 0.09640688 -0.0037082068 -0.10743979 0.0727377 -0.038692363 0.021908881
0.0691117 0.06783527 -0.047005963 -0.09096455 0.24459995 0.018046455 -0.07840513 0.018356679
-0.01288375 0.1334779 0.029734956 0.062067606 0.10295043 0.07856666 0.13917437 0.0049293684
-0.008100562 0.045928128 -0.040794175 -0.05341712 -0.1301669 -0.03656224 -0.014689017 0.0591603
-0.1289222 -0.07523616 0.06181632 -0.039764088 -0.024860488 -0.11076695 -0.09494068 0.031544793
0.077228986 0.061928004 0.06270283 0.070520304 -0.10649225 0.013725542 -0.012236798 -0.1385772
-0.029322317 0.028291529 0.06715667 0.014746474 -0.04326846 -0.09595294 -0.008706847 -0.0095932875
-0.124045655 -0.10401725 -0.013769667 -0.07660721 -0.08462115 0.04786629 0.038478903 -0.05821335
-0.044281203 0.025822435 -0.019093288 0.11257344 0.09619067 0.051798776 0.06819528 0.10979148
-0.12612624 -0.017937846 -0.030112559 -0.024041776 -0.020960122 -0.0021804136 0.006856335 -0.0010237361
-0.03894917 -0.02105499 0.0879554 -0.016787032 0.16483825 -0.06661116 0.04910764 -0.18911576
0.10258031 -0.12357902 -0.08837811 -0.15199497 0.08282569 -0.089664735 -0.056259464 0.15323347
0.057290427 0.06297732 -0.017128956 -0.07412294 0.05401297 0.0010777568 0.011077162 0.10008914
0.06963181 -0.14944075 0.101378925 0.18568139 -0.066284046 -0.08466734 0.13887694 0.080235094
-0.01933638 -0.12825829 -0.06799213 -0.016407937 0.019969033 0.042765368 0.016879477 0.0854473
-0.09225618 -0.021247763 0.053009354 -0.043532316 -0.0300057 0.015143734 -0.08594344 -0.1035795
-0.08480857 0.09132084 -0.021710608 0.05048822 -0.000846304 -0.034739718 0.0484915 -0.08223084
00000000: 1d68 55bd 5aa4 e63c b55e 82bc 25a7 00bd
00000010: 0fb2 f13b c082 9a3d 040a e93d 8472 093c
00000020: 3c6d a8bd 52d4 0abc 0556 be3d d734 b53d
00000030: 33b2 7a3d ea7d 22bd ab35 19be f802 863d
00000040: 5f87 7c3d 1a4d 53bd a943 4f3c 274c 17bc
00000050: 29e3 bc3c 2459 eebd a203 2c3d 2d7d e6ba
00000060: 0459 52bd f62c cd3d d28c 4d3b 9ca6 83bd
00000070: 3287 ac3d 3706 9cbd 32d9 f33d b457 03bc
00000080: 63de 453d 461f 333d 3f4c 8c3d 41e1 e73b
00000090: ec62 603d d018 a83d a76f 62bd 73e6 673d
000000a0: eac4 9abc 6ad5 213e db34 97bd 799a 8e3d
000000b0: 81af 4bbc af15 99bd 5f01 7bbd df4e 0e3d
000000c0: 91ca 96bd 245d 803d beee 24bd 9e26 fd3d
000000d0: 9984 d13d 9e51 123d ac8d 11bc c880 053e
000000e0: 6bac d0bd 0d3c 24be 1b06 003e 61df 323d
000000f0: 58da 753d 6a10 323d 67e3 853d 8dc9 1fbc
00000100: 4a4f 953c d801 823d 5b43 c9bd d32b b6bc
00000110: 20c1 a63d a055 d63c d82e 05be c68a 09be
00000120: a17c 1cbc 9c28 393c 3cee 4fbd 78e8 9e3d
00000130: 253c a5bd 4ab4 8dbd 8ab5 703d 0370 71bc
00000140: a2e2 2ebd 765e 223c d77c 773d cfd9 cc3d
00000150: ed1b 99bd 7101 0d3b 0171 533d e29a b3bd
00000160: 6647 b33d 5d64 02bd bdeb 303d 6ae6 9fbd
00000170: 4d14 1cbd dcc1 253e 7d2f d03d c3ce 8fbb
00000180: 3c4f bbbd b93f 2dbd d6fb a03c b0a3 28bd
00000190: dd70 e03c a8ed 62bd b1ba a13d 41ac 67bd
000001a0: 33d3 033d 85ff 0d3e 2b7c 093e ac31 40bc
000001b0: df9e ae3d 6089 25bc ef74 6c3d cd48 8e3d
000001c0: dabc e2bd c14e 1abd 09a2 94bd ceac fdbd
000001d0: 1cc2 b73d 6808 05bd 4bfc b0bc c0b2 f8bc
000001e0: 0166 e6bd e899 c4bd f870 c53d 6305 73bb
000001f0: 6509 dcbd 81f7 943d e27b 1ebd 417a b33c
00000200: 6f8a 8d3d 38ed 8a3d 5389 40bd 9f4b babd
00000210: 6978 7a3e 29d6 933c de92 a0bd bf60 963c
00000220: 5d16 53bc 6eae 083e b996 f33c 9a3a 7e3d
00000230: add7 d23d 8fe7 a03d ba83 0e3e 8a86 a13b
00000240: 38b8 04bc 221f 3c3d cb17 27bd e9cb 5abd
00000250: 794a 05be 4ac2 15bd 34aa 70bc 1252 723d
00000260: 2e04 04be 6a15 9abd 1c33 7d3d abdf 22bd
00000270: 39a8 cbbc c8d9 e2bd 4270 c2bd 1d35 013d
00000280: 3b2a 9e3d 38a8 7d3d 576a 803d f36c 903d
00000290: 9c18 dabd 19e1 603c da7c 48bc 2ee7 0dbe
000002a0: 5b35 f0bc a3c3 e73c 7089 893d 329b 713c
000002b0: 453a 31bd fa82 c4bd 2aa7 0ebc 2a2d 1dbc
000002c0: a60b febd ff06 d5bd 2b9a 61bc 3ee4 9cbd
000002d0: da4d adbd 710f 443d 0e9c 1d3d 1f71 6ebd
000002e0: 3560 35bd 9289 d33c 8769 9cbc e78c e63d
000002f0: 9dff c43d f42a 543d f8a9 8b3d 5bda e03d
00000300: 3d27 01be 64f2 92bc 9dae f6bc 42f3 c4bc
00000310: 90b4 abbc 45e5 0ebb 1bab e03b e22e 86ba
00000320: 2a89 1fbd 847b acbc f621 b43d f584 89bc
00000330: 5ccb 283e 6f6b 88bd 1825 493d 90a7 41be
00000340: a015 d23d ff16 fdbd 95ff b4bd 92a4 1bbe
00000350: 84a0 a93d 25a2 b7bd 5370 66bd 3ce9 1c3e
00000360: 5ea9 6a3d 41fa 803d 0652 8cbc c5cd 97bd
00000370: b43c 5d3d 8443 8d3a fc7c 353c 89fb cc3d
00000380: 1f9b 8e3d ff06 19be c19f cf3d 4323 3e3e
00000390: eebf 87bd 1266 adbd c235 0e3e 4c52 a43d
000003a0: 5467 9ebc 2456 03be 753f 8bbd f069 86bc
000003b0: 1996 a33c bd2a 2f3d d446 8a3c fefe ae3d
000003c0: cff0 bcbd ca0f aebc 5620 593d f14e 32bd
000003d0: 84ce f5bc 6d1d 783c 1d03 b0bd 7d21 d4bd
000003e0: 1eb0 adbd 6c06 bb3d 72da b1bc bccc 4e3d
000003f0: 80da 5dba 3c4b 0ebd 069f 463d a568 a8bd

mlp_stack.Linear0.bias f4 [256]
-0.15454474 -0.21555069 -0.050332934 -0.17965266 -0.09117819 -0.109887086 -0.13998514 -0.13617265
-0.20564307 -0.07526328 0.004796154 0.009729866 -0.17312217 -0.10820175 -0.019744346 -0.25871608
-0.13478693 -0.11379299 -0.01689786 -0.24441779 -0.12773865 -0.05998993 -0.09319836 -0.028092576
-0.25452104 -0.19021991 -0.17554933 -0.05550135 -0.005788887 -0.039386824 -0.05313316 -0.11962744
-0.024894245 -0.06712258 -0.18765905 -0.114523284 -0.09725322 -0.18512176 -0.009190079 -0.048367176
-0.030684518 0.013095748 -0.16120198 -0.13116623 -0.199697 0.00534252 -0.12940645 -0.03640267
-0.1702974 -0.14300826 -0.09138906 -0.119353846 -0.23208392 -0.12506083 -0.184086 -0.15520023
-0.05158282 0.012145844 -0.0046654344 -0.22934255 -0.09847004 -0.2240978 -0.22179711 0.011581346
-0.1216979 -0.1900378 -0.055633906 -0.043276496 -0.058819562 -0.22622316 -0.14697449 -0.17811267
-0.15641484 -0.1197984 -0.21469432 -0.21232602 -0.05015943 -0.22297779 -0.184275 -0.043659754
-0.09244653 -0.14260355 -0.03373615 -0.0686257 -0.15448718 -0.14578456 -0.101190075 -0.060564008
-0.24074025 -0.056795295 -0.17777236 -0.17188142 -0.12345198 -0.038217124 0.015254534 0.0031953114
0.014322955 -0.04153666 -0.031124784 -0.13819388 -0.111697994 -0.13927613 -0.03345001 -0.120259725
-0.21382502 -0.0741475 -0.2451049 -0.24022412 -0.07917208 -0.08446488 -0.010811254 -0.016436292
-0.13761221 -0.15052818 -0.09953162 -0.09737037 -0.22642353 -0.051471174 -0.16848187 -0.14225177
-0.14437594 -0.2223274 -0.13316435 -0.055298228 -0.057451762 -0.10777714 0.0017788939 -0.099271126
-0.08829445 -0.0819886 -0.108344845 -0.123330645 -0.14712173 -0.023077896 -0.09934671 -0.22707154
-0.16791102 -0.12704663 -0.13383792 -0.21672015 -0.10496146 -0.07814961 -0.19210194 -0.16138442
-0.05081275 -0.12066313 -0.090211466 -0.20108373 -0.034944996 -0.16575216 -0.10304292 -0.06477161
-0.24191903 -0.17942871 -0.14663647 -0.1938904 -0.13882479 -0.026262557 -0.10276967 -0.19387504
-0.03350686 -0.19951794 -0.22279291 -0.0073334547 -0.18115564 -0.07707748 -0.09023939 -0.22304977
-0.113046594 -0.21941699 -0.061843015 -0.22562528 -0.18969747 -0.025688754 -0.017911728 -0.11830442
-0.06231337 -0.14877833 -0.11093992 -0.101948015 -0.09142918 -0.046300814 -0.19544084 -0.14992432
-0.18863007 -0.22307442 -0.16535045 -0.10222848 -0.17128707 -0.062307846 -0.23389949 -0.09093023
-0.08436501 -0.16071378 -0.05399355 -0.13482372 -0.08279617 -0.19194503 -0.0051532644 -0.1999796
-0.055213906 -0.15571602 -0.08902745 -0.0038229818 -0.21365957 -0.08431523 -0.07970531 -0.117406614
-0.16384521 -0.09480234 -0.21171682 -0.17338975 -0.0889847 -0.18084137 -0.080724284 -0.19647
-0.119882956 -0.2077087 -0.17921321 -0.09373682 -0.13156088 -0.1837639 -0.055002585 -0.06572394
-0.04954473 -0.06697546 -0.14431122 -0.13758217 -0.0568276 0.044913396 -0.17952383 -0.060494144
-0.019621 -0.14017373 -0.11980966 -0.14680193 -0.11948342 -0.091017604 -0.20951137 -0.19941652
-0.056733035 -0.10801799 -0.24325055 -0.14024863 -0.11602585 -0.1287714 -0.15274628 -0.13107112
-0.11388938 -0.07114015 -0.045135785 -0.19812177 -0.14239432 -0.14849108 -0.09015096 -0.066343606
00000000: fa40 1ebe 52b9 5cbe e829 4ebd def6 37be
00000010: a2bb babd 7b0c e1bd 4458 0fbe d870 0bbe
00000020: 1994 52be a223 9abd 0e29 9d3b 046a 1f3c
00000030: f046 31be e198 ddbd e5be a1bc 6f76 84be
00000040: 9605 0abe 4d0c e9bd 626d 8abc a848 7abe
00000050: eccd 02be 00b8 75bd c8de bebd 6722 e6bc
00000060: 9550 82be 02c9 42be 34c3 33be 6255 63bd
00000070: b4b0 bdbb 1454 21bd 28a2 59bd 3bff f4bd
00000080: 04ef cbbc 9077 89bd b229 40be 2f8b eabd
00000090: b22c c7bd 8f90 3dbe fc91 16bc a91c 46bd
000000a0: 195e fbbc 8c8f 563c 2212 25be 7150 06be
000000b0: 5f7d 4cbe 4e10 af3b 2083 04be f71a 15bd
000000c0: 7162 2ebe c270 12be 302a bbbd ca6f f4bd
000000d0: 68a7 6dbe f20f 00be 0a81 3cbe cfec 1ebe
000000e0: 8248 53bd 5dff 463c 80e0 98bb c6d8 6abe
000000f0: a9aa c9bd e579 65be c81e 63be b0bf 3d3c
00000100: c03c f9bd 4599 42be 61e0 63bd b242 31bd
00000110: c8ec 70bd 0ba7 67be 7b80 16be 2b63 36be
00000120: 362b 20be dd58 f5bd d4d8 5bbe fe6b 59be
00000130: f973 4dbd 4a54 64be 96b2 3cbe 92d4 32bd
00000140: 9b54 bdbd aa06 12be eb2e 0abd a28b 8cbd
00000150: e331 1ebe 8c48 15be be3c cfbd f711 78bd
00000160: 9d84 76be 2fa2 68bd f509 36be af01 30be
00000170: 64d4 fcbd 8f89 1cbd 27ee 793c 6e68 513b
00000180: d4aa 6a3c 5822 2abd 67f9 febc b282 0dbe
00000190: ebc1 e4bd 679e 0ebe e102 09bd bb4a f6bd
000001a0: f2f4 5abe a5da 97bd c7fc 7abe 50fd 75be
000001b0: f924 a2bd ecfb acbd b021 31bc 67a5 86bc
000001c0: 37ea 0cbe 0f24 1abe 3cd7 cbbd 1e6a c7bd
000001d0: 92db 67be 70d3 52bd 8386 2cbe 73aa 11be
000001e0: 49d7 13be cba9 63be 3c5c 08be 6580 62bd
000001f0: 8a52 6bbd 43ba dcbd c629 e93a a94e cbbd
00000200: b8d3 b4bd a4e9 a7bd e7e3 ddbd c794 fcbd
00000210: 14a7 16be db0d bdbc 4a76 cbbd 7185 68be
00000220: def0 2bbe 8318 02be cf0c 09be e3eb 5dbe
00000230: 09f6 d6bd e70c a0bd 5fb6 44be f541 25be
00000240: 0821 50bd 3b1e f7bd cac0 b8bd e5e8 4dbe
00000250: 7c22 0fbd efba 29be 2b08 d3bd faa6 84bd
00000260: 9fb9 77be 29bc 37be df27 16be 348b 46be
00000270: 1628 0ebe 9324 d7bc e878 d2bd 2e87 46be
00000280: 7d3e 09bd 6e4e 4cbe d323 64be 7a4d f0bb
00000290: dd80 39be ccda 9dbd 6ecf b8bd 2967 64be
000002a0: f984 e7bd d9ae 60be 1a4f 7dbd 500a 67be
000002b0: 0e40 42be 3971 d2bc 9ebb 92bc 9649 f2bd
000002c0: 4e3c 7fbd 5959 18be 7834 e3bd 1fca d0bd
000002d0: 393f bbbd eca5 3dbd a521 48be c385 19be
000002e0: 3e28 41be 9f6d 64be a151 29be 2a5d d1bd
000002f0: e165 2fbe 8336 7fbd 5983 6fbe a139 babd
00000300: 90c7 acbd 2792 24be 5728 5dbd 3b0f 0abe
00000310: 0a91 a9bd 3d8d 44be b7dc a8bb 74c7 4cbe
00000320: fa27 62bd 0574 1fbe 0654 b6bd fe8a 7abb
00000330: 93c9 5abe 77ad acbd 8a3c a3bd e172 f0bd
00000340: 0ac7 27be bb27 c2bd 4bcc 58be 158d 31be
00000350: 9c3d b6bd 7b2e 39be c652 a5bd 6f2f 49be
00000360: 3285 f5bd 97b1 54be ab83 37be 17f9 bfbd
00000370: e5b7 06be 9b2c 3cbe 644a 61bd 469a 86bd
00000380: 6aef 4abd 6e2a 89bd 52c6 13be 57e2 0cbe
00000390: 0fc4 68bd 1cf7 373d 18d5 37be b5c8 77bd
000003a0: 38bc a0bc b489 0fbe c45e f5bd 3f53 16be
000003b0: b9b3 f4bd 7067 babd 268a 56be d833 4cbe
000003c0: e660 68bd 8938 ddbd ac16 79be 569d 0fbe
000003d0: f69e edbd a6dc 03be 8569 1cbe 8237 06be
000003e0: d63e e9bd edb1 91bd 4de0 38bd 6fe0 4abe
000003f0: d1cf 11be 0c0e 18be 11a1 b8bd 28df 87bd

mlp_stack.Linear1.weight f4 [256, 256]
-0.023792695 -0.08432266 -0.10666831 -0.043192092 -0.033448886 -0.027073728 -0.09575506 0.00010519936
-0.0039803195 -0.120124705 -0.09889039 0.062111575 0.012421669 0.02884037 0.08006137 -0.13151917
-0.019067919 -0.12744378 -0.018978471 0.005164692 -0.03362966 0.017985418 -0.010674721 -0.017953733
-0.014469897 0.034150124 0.025942259 -0.007344568 0.12376622 0.046104666 -0.1739905 -0.13291353
-0.009127573 -0.08385887 0.064378 0.06318234 0.009383521 0.004169223 0.13085376 -0.041092075
-0.0021864115 0.039145812 0.02759453 -0.07165394 0.031371217 0.018114401 -0.013690041 -0.003047055
0.08193247 -0.06339372 0.08003709 0.02935446 -0.0016794022 -0.057343423 0.0025067572 0.025877416
0.037968576 -0.089185156 -0.045204796 -0.032109253 -0.056337968 0.014128271 -0.035684418 0.015398377
-0.106775194 -0.096330956 0.05333643 -0.04720378 -0.024578616 -0.0139777195 -0.1610849 -0.008489922
-0.06094588 -0.03527621 -0.05219453 0.08862231 -0.030117417 -0.03584052 0.044265237 -0.0055579995
0.018743355 0.013006209 -0.060193 0.017492354 0.08299212 0.03624767 0.01939747 -0.015487488
0.014274032 -0.08346255 -0.07487137 -0.007369853 -0.124749534 0.04495019 0.06680074 -0.097672455
-0.046555452 0.041287843 0.07412419 -0.043002166 0.0282325 0.081866875 -0.030211594 0.04646282
0.022081358 -0.00737077 0.014270553 -0.12401861 0.03684974 -0.004674498 0.03477689 0.021675793
-0.05811007 0.020485703 -0.031617165 -0.056375716 -0.013176804 0.07267813 -0.036605805 -0.055633437
-0.075419925 -0.0015829357 -0.02813781 0.068725795 -0.09216347 -0.010367231 -0.06426358 0.016660707
0.020047452 -0.022531822 -0.07560539 -0.043903604 -0.085641384 -0.056482524 -0.026903681 -0.010260464
-0.08614345 -0.047917128 0.016341504 0.04404372 0.054474708 0.025327248 0.007666977 -0.014455793
0.036195096 -0.01384112 -0.019698549 0.05415449 0.0030636257 0.0326658 -0.027761165 0.06490631
-0.044460393 -0.17970875 0.050393935 -0.11055043 0.0898604 -0.021478318 -0.10686399 0.033349037
-0.02009142 -0.037977416 -0.089941725 0.0078006224 0.044197913 0.18004677 0.017697923 0.0004954514
0.05010015 0.043616865 -0.07332538 0.024684314 -0.018734332 -0.02157586 0.035267655 -0.0718836
-0.007332932 0.06000664 -0.007932968 -0.06268034 0.049672812 -0.0032495465 -0.013828718 -0.008425311
-0.112437636 0.026669119 -0.025716593 -0.020878077 -0.092388034 -0.04688049 -0.0994813 0.0053583235
-0.005727414 -0.08156727 0.030686297 -0.092035055 0.0436906 -0.0228239 0.023532234 -0.08908379
0.0118807275 0.028334303 -0.05406072 0.03575705 0.08983265 0.04468732 0.048382536 -0.09332391
0.07949575 0.044906948 0.04411313 -0.11665452 -0.05667553 0.012521448 -0.01438186 0.0678218
-0.13022266 0.10755204 0.033215854 0.039341614 0.015736755 -0.023243206 -0.03228936 0.059488807
0.021542445 -0.0021892292 -0.11054104 0.043549117 0.01974206 0.04631068 -0.0048587183 0.018370803
0.03467695 -0.02648017 -0.08249753 -0.024676189 0.10338094 -0.018542182 0.020619744 -0.004853495
0.04092999 0.031148963 -0.093360655 -0.000800003 -0.010018676 0.04226444 0.058816362 0.038390264
-0.01150722 -0.029233044 0.021401811 0.019046988 0.05752769 -0.050743755 -0.0796742 0.07815558
00000000: e6e8 c2bc 5cb1 acbd ea74 dabd 31ea 30bd
00000010: b301 09bd b9c9 ddbc 3b1b c4bd 7a9e dc38
00000020: 576d 82bb f103 f6bd 0b87 cabd b568 7e3d
00000030: 4284 4b3c a442 ec3c 37f7 a33d f6ac 06be
00000040: 5334 9cbc 9f80 02be bd78 9bbc 943c a93b
00000050: 41bf 09bd 2856 933c 06e5 2ebc b513 93bc
00000060: 2613 6dbc 00e1 0b3d dc84 d43c b4aa f0bb
00000070: 2579 fd3d 3fd8 3c3d 912a 32be 7c1a 08be
00000080: d18b 15bc 33be abbd 9dd8 833d be65 813d
00000090: 57bd 193c fa9d 883b 87fe 053e 2a50 28bd
000000a0: e649 0fbb 5c57 203d ec0d e23c 4dbf 92bd
000000b0: 1b7f 003d a764 943c 324c 60bc 1ab1 47bb
000000c0: 36cc a73d 91d4 81bd 7cea a33d c478 f03c
000000d0: 631f dcba f0e0 6abd 6848 243b e0fc d33c
000000e0: f084 1b3d b5a6 b6bd aa28 39bd fe84 03bd
000000f0: a4c2 66bd 437a 673c d329 12bd 7949 7c3c
00000100: f4ac dabd 2a49 c5bd 4d77 5a3d c058 41bd
00000110: 1859 c9bc ce02 65bc 71f3 24be 5019 0bbc
00000120: 63a2 79bd ca7d 10bd eec9 55bd 9d7f b53d
00000130: cdb8 f6bc 82cd 12bd 774f 353d e11f b6bb
00000140: aa8b 993c ff17 553c ef8c 76bd 204c 8f3c
00000150: c6f7 a93d 7078 143d 71e7 9e3c 3cbf 7dbc
00000160: a1dd 693c 6aee aabd 2956 99bd cf7e f1bb
00000170: af7c ffbd b11d 383d d4ce 883d 7f08 c8bd
00000180: eeb0 3ebd 711d 293d 6cce 973d 0a23 30bd
00000190: d847 e73c d2a9 a73d 4e7e f7bc cc4f 3e3d
000001a0: f7e3 b43c 8086 f1bb 0acf 693c 78fd fdbd
000001b0: c1ef 163d 882c 99bb 3672 0e3d 6f91 b13c
000001c0: d304 6ebd a2d1 a73c 0081 01bd 39ea 66bd
000001d0: 86e3 57bc 45d8 943d f8ef 15bd e3df 63bd
000001e0: c375 9abd 827a cfba 4481 e6bc 1cc0 8c3d
000001f0: 34c0 bcbd 52db 29bc a09c 83bd 097c 883c
00000200: 8e3a a43c a894 b8bc 00d7 9abd 44d4 33bd
00000210: c064 afbd 385a 67bd 1c65 dcbc 811b 28bc
00000220: fa6b b0bd c044 44bd 9ede 853c 3067 343d
00000230: df20 5f3d 177b cf3c 443b fb3b fed7 6cbc
00000240: 4f41 143d ddc5 62bc da5e a1bc 19d1 5d3d
00000250: 1cc7 483b 93cc 053d 626b e3bc 99ed 843d
00000260: 1a1c 36bd 9205 38be df69 4e3d 4468 e2bd
00000270: bb08 b83d 4cf3 afbc 82db dabd 0099 083d
00000280: c396 a4bc 358e 1bbd 5e33 b8bd 5d9c ff3b
00000290: df08 353d 2e5e 383e 3cfb 903c 2ee1 013a
000002a0: d135 4d3d 99a7 323d 9e2b 96bd c236 ca3c
000002b0: be78 99bc dcbf b0bc d174 103d b537 93bd
000002c0: 1849 f0bb 86c9 753d 48f9 01bc 8d5e 80bd
000002d0: b875 4b3d 58f6 54bb d991 62bc 510a 0abc
000002e0: b445 e6bd 3279 da3c 9bab d2bc 8008 abbc
000002f0: f035 bdbd c205 40bd dabc cbbd e094 af3b
00000300: 08ad bbbb be0c a7bd d461 fb3c e07c bcbd
00000310: eaf4 323d 30f9 babc acc6 c03c 9071 b6bd
00000320: 62a7 423c 571d e83c c66e 5dbd fc75 123d
00000330: 2efa b73d 0d0a 373d c42c 463d 9b20 bfbd
00000340: abce a23d 59f0 373d f8af 343d 91e8 eebd
00000350: 9a24 68bd c226 4d3c e5a1 6bbc 28e6 8a3d
00000360: 1759 05be 3e44 dc3d 590d 083d ac24 213d
00000370: 5eea 803c 8968 bebc d941 04bd 89aa 733d
00000380: c879 b03c 2c79 0fbb 5763 e2bd 8f60 323d
00000390: 1aba a13c 45b0 3d3d e235 9fbb 5e7e 963c
000003a0: 6b09 0e3d f1ec d8bc 77f4 a8bd b825 cabc
000003b0: 63b9 d33d c6e5 97bc bdea a83c 110a 9fbb
000003c0: 35a6 273d 1c2c ff3c df33 bfbd 4bb7 51ba
000003d0: 5f25 24bc 7a1d 2d3d 6de9 703d 1c3f 1d3d
000003e0: c788 3cbc 237a efbc da52 af3c 6e08 9c3c
000003f0: 28a2 6b3d afd8 4fbd 3a2c a3bd 0810 a03d

mlp_stack.Linear1.bias f4 [256]
-0.012466169 0.020786526 -0.018931659 -0.061357424 -0.024392568 -0.03616021 -0.031693444 0.0136972135
-0.036991283 -0.07990277 -0.06025208 0.051696036 -0.037918735 0.0075732386 0.0056915884 -0.05879296
-0.014695028 0.057986904 0.037850972 0.052438874 0.020356335 -0.0020967415 -0.036648687 -0.022879055
-0.052106082 -0.017484156 0.015726428 0.05827579 0.012497799 -0.008033563 0.10342926 0.027676877
-0.059520498 -0.025605643 -0.006424703 -0.08881972 -0.03916046 -0.041378453 -0.023371862 -0.06473445
0.023115616 0.024092153 0.048037276 0.028053217 -0.038630776 -0.07211862 0.06169236 -0.014322477
0.04535174 -0.051938694 0.025486942 -0.0031135764 0.01230753 -0.03260118 -0.103416085 -0.06344192
0.030913828 -0.053773325 0.020176802 -0.08258057 -0.017227279 -0.08734326 -0.025797699 0.02365624
-0.09506699 0.032636575 -0.025879223 -0.083217286 0.030438792 -0.06246225 -0.0217715 -0.05001559
0.080900475 -0.04080344 -0.018464696 -0.020065892 -0.04916163 -0.021156473 -0.08999025 0.09674209
-0.022167522 0.008216145 0.024372978 0.005748225 -0.06505571 -0.02967081 -0.029939039 -0.083623394
-0.11661794 0.08758388 -0.010874943 0.027873678 0.0437182 0.024636522 0.021459786 0.009349879
-0.036714982 0.008486418 -0.048802134 -0.1040046 -0.03718564 -0.08446614 0.019840479 -0.065750405
0.073991686 -0.019192658 -0.07077241 -0.054588128 -0.0042243516 -0.015673127 0.049108505 0.074865185
0.028811956 -0.061775986 -0.08417208 -0.05934079 -0.055641875 0.028128248 -0.049885683 0.0091775935
0.063955784 0.06766299 0.04441267 -0.035348378 0.023103507 -0.050936993 -0.009024199 -0.049768418
-0.051294606 0.048459288 0.005941172 0.057077605 0.02735119 -0.034365688 0.05703528 -0.0433133
-0.07939749 -0.020579528 -0.022047814 0.032514956 0.046837885 -0.029387562 -0.023509713 -0.058378488
0.010641087 -0.04017587 -0.04432995 0.02521798 -0.006775829 -0.023659058 0.017905997 0.042593643
-0.019243868 -0.08646803 -0.05142563 0.035606377 -0.13660075 0.050026976 -0.05635296 -0.045292526
-0.06883252 -0.010766722 -0.03994237 0.069515765 0.04331085 0.085827224 -0.040491257 0.037354227
-0.031293802 -0.026890483 0.08856562 -0.07515206 -0.08072567 -0.06465522 0.07896698 0.0663007
-0.04052898 0.0020790116 -0.0075413818 0.021400029 0.089000605 -0.025195852 0.0134911295 0.060626883
0.0039896774 -0.0042514456 0.01967809 -0.04684114 -0.015655596 0.0660014 -0.0071645775 0.07864555
-0.049990352 -0.06278853 -0.065944985 0.037757367 -0.017236391 -0.07913829 0.031272635 -0.05739143
-0.078278504 -0.029661676 0.06569258 0.009055594 -0.005513595 0.038158722 -0.06020989 -0.020839453
-0.030302579 0.0052940478 0.006246442 0.026850723 0.07159639 -0.0486508 -0.08906718 -0.034954816
-0.0011066142 0.017476356 0.0839435 -0.0006958067 0.049164593 -0.011332508 0.048591577 0.03100268
0.07780617 0.030250136 -0.01206395 -0.015130033 -0.051544584 0.023549888 0.019156855 -0.040140215
0.038035966 -0.04792361 0.009847838 0.016013501 -0.022698361 -0.008607009 0.12545522 0.015930569
-0.059851322 -0.00024035835 0.041701667 0.06797908 0.027703324 -0.07818355 -0.016772749 -0.042698897
-0.06472661 0.053387765 -0.09148361 -0.10219178 0.007026148 0.02301736 0.054741967 -0.041979462
00000000: e73e 4cbc 8148 aa3c 9116 9bbc ec51 7bbd
00000010: ecd2 c7bc ba1c 14bd fcd0 01bd 476a 603c
00000020: 2c84 17bd 10a4 a3bd e3ca 76bd 39bf 533d
00000030: ad50 1bbd ee28 f83b 8180 ba3b e3d0 70bd
00000040: 6ac3 70bc ad83 6d3d 9f09 1b3d 25ca 563d
00000050: 54c2 a63c 7c69 09bb ef1c 16bd db6c bbbc
00000060: 306d 55bd ef3a 8fbc b6d4 803c 98b2 6e3d
00000070: 91c3 4c3c 359f 03bc b8d2 d33d 9eba e23c
00000080: c4cb 73bd edc2 d1bc 5186 d2bb 1de7 b5bd
00000090: b866 20bd 747c 29bd 5976 bfbc 7f93 84bd
000000a0: f65c bd3c e85c c53c bcc2 443d dccf e53c
000000b0: 4e3b 1ebd edb2 93bd 21b1 7c3d d3a8 6abc
000000c0: bfc2 393d abbd 54bd fec9 d03c 250d 4cbb
000000d0: 86a5 493c d188 05bd d0cb d3bd d6ed 81bd
000000e0: ff3e fd3c 6b41 5cbd d249 a53c 0020 a9bd
000000f0: 3920 8dbc 06e1 b2bd b255 d3bc bbca c13c
00000100: 7bb2 c2bd eead 053d aa00 d4bc d36d aabd
00000110: c65a f93c 6bd8 7fbd 255a b2bc 26dd 4cbd
00000120: 26af a53d 8221 27bd 4643 97bc 3a61 a4bc
00000130: b55d 49bd 5750 adbc cf4c b8bd b820 c63d
00000140: aa98 b5bc 039d 063c d7a9 c73c 9b5b bc3b
00000150: ee3b 85bd 3310 f3bc b742 f5bc be42 abbd
00000160: 63d5 eebd 2d5f b33d d12c 32bc 5757 e43c
00000170: db11 333d 88d2 c93c 6fcc af3c 3c30 193c
00000180: 7362 16bd 9e0a 0b3c bfe4 47bd 5d00 d5bd
00000190: f84f 18bd 95fc acbd 8088 a23c 26a8 86bd
000001a0: f488 973d ec39 9dbc 20f1 90bd cd97 5fbd
000001b0: 6e6c 8abb ee64 80bc 0026 493d eb52 993d
000001c0: 0d07 ec3c d108 7dbd 6962 acbd 540f 73bd
000001d0: bce8 63bd 366d e63c ee54 4cbd 9e5d 163c
000001e0: 40fb 823d e592 8a3d 0fea 353d 76c9 10bd
000001f0: 9143 bd3c 4fa3 50bd 3cda 13bc f8d9 4bbd
00000200: 4b1a 52bd 3f7d 463d 2aae c23b 35ca 693d
00000210: 9a0f e03c 09c3 0cbd d39d 693d 4969 31bd
00000220: 279b a2bd 6696 a8bc 9e9d b4bc 672e 053d
00000230: 15d9 3f3d 2fbe f0bc 7197 c0bc 481e 6fbd
00000240: f457 2e3c 748f 24bd 5293 35bd f095 ce3c
00000250: c607 debb a4d0 c1bc 99af 923c ac76 2e3d
00000260: 51a5 9dbc 2716 b1bd aea3 52bd fed7 113d
00000270: 11e1 0bbe 16e9 4c3d 5dd2 66bd a884 39bd
00000280: 10f8 8cbd e866 30bc 9c9a 23bd 485e 8e3d
00000290: b866 313d 2fc6 af3d 29da 25bd bf00 193d
000002a0: ee2d 00bd 6e49 dcbc e461 b53d 53e9 99bd
000002b0: 8053 a5bd f569 84bd 71b9 a13d a9c8 873d
000002c0: b701 26bd 0740 083b b21d f7bb 1d4f af3c
000002d0: f345 b63d 8867 cebc e609 5d3c e553 783d
000002e0: d7bb 823b b64f 8bbb f233 a13c 7fdc 3fbd
000002f0: 2a40 80bc be2b 873d d5c4 eabb eb10 a13d
00000300: afc2 4cbd 4697 80bd 2a0e 87bd 78a7 1a3d
00000310: 5533 8dbc 4113 a2bd bc17 003d 4713 6bbd
00000320: 7b50 a0bd 0bfd f2bc d589 863d ea5d 143c
00000330: 63ab b4bb 524c 1c3d a59e 76bd 80b7 aabc
00000340: 1d3d f8bc b179 ad3b f4ae cc3b 0cf6 db3c
00000350: 21a1 923d 1046 47bd db68 b6bd c82c 0fbd
00000360: d00b 91ba 932a 8f3c 92ea ab3d cc66 36ba
00000370: d060 493d fcab 39bc f607 473d 55f9 fd3c
00000380: d758 9f3d 22cf f73c e0a7 45bc f5e3 77bc
00000390: 6a20 53bd b2eb c03c d6ee 9c3c 116a 24bd
000003a0: 9acb 1b3d 8c4b 44bd d458 213c bf2e 833c
000003b0: eaf1 b9bc 6a04 0dbc 5577 003e d380 823c
000003c0: a926 75bd b408 7cb9 5ecf 2a3d 9e38 8b3d
000003d0: 15f2 e23c b21e a0bd 0167 89bc 0ae5 2ebd
000003e0: 638f 84bd 21ad 5a3d c25b bbbd ed49 d1bd
000003f0: 9a3b e63b e78e bc3c 1d39 603d a8f2 2bbd

mlp_stack.Linear2.weight f4 [128, 256]
-0.033974722 0.06271649 0.01631827 0.009948329 -0.04810421 0.018614266 0.017343866 0.035664722
-0.029951848 0.109249465 0.07480091 -0.008630239 -0.04302133 0.09678639 0.08927692 0.079963826
0.15355514 0.038586043 -0.12201917 -0.022552252 0.06256713 -0.121113285 -0.010045029 -0.053185966
0.078772806 0.09384807 0.0030243944 0.10735135 0.057017248 -0.051127933 0.029576471 -0.06494423
-0.015314184 0.044693116 0.054105625 -0.016798439 0.06635806 -0.07218514 0.02402051 0.08143345
0.015794342 -0.055518363 0.03389431 -0.059965517 -0.043166492 0.047360353 -0.009059618 -0.071977764
-0.06574329 0.030054705 -0.07708754 0.023148268 0.09877834 -0.10269227 0.064458564 -0.006821331
0.014420583 -0.03815991 -0.057397705 0.05189939 0.009010877 0.08779615 0.019490074 -0.09622283
0.046982683 -0.01329311 -0.06051576 -0.061097663 -0.06334321 -0.079638354 0.03361499 -0.007796794
0.114027426 -0.073196016 0.07033429 -0.06124241 0.1012081 0.10726525 -0.028289111 0.08064684
-0.036393672 -0.052772034 0.00726996 -0.057207447 0.07670148 0.03794176 -0.063873276 0.11472166
0.057048615 -0.13263978 -0.017771231 0.08477823 0.014661814 -0.0036846038 0.049629662 0.048591316
0.118335225 0.094366014 -0.046498526 0.045077883 -0.1227084 0.08985359 -0.06986841 0.05873913
-0.09148816 0.003221774 0.005252575 -0.03709528 -0.0815283 -0.08587441 -0.098166324 0.04145861
-0.041744243 -0.029109683 0.07336741 0.06678114 0.05354872 0.08360041 0.0576075 0.08762191
-0.07144852 -0.074921615 0.0072366605 0.0073712445 -0.003873302 0.039928135 -0.008813524 -0.06317633
-0.044641126 0.02295089 -0.06738981 -0.016545381 0.02394826 -0.0016257509 0.023786006 -0.046468645
0.15376252 -0.0074432273 0.068768136 0.031589046 -0.014514877 -0.01852606 0.098191954 0.075105704
-0.06371049 -0.008320708 0.014277121 0.007331944 0.030416476 -0.067496836 0.035430495 0.017165706
-0.04685997 0.029522639 0.07129277 0.058388904 0.024946293 0.08779592 0.08591428 0.107957006
0.042551793 -0.07966026 -0.095428556 0.011649673 0.038295265 0.021980373 -0.11009457 -0.044678476
-0.049382534 0.00598087 0.0072781607 -0.051933937 -0.037921943 0.030896306 0.054241784 -0.08167364
0.17017558 -0.0095321415 -0.023543807 0.013919308 0.010971629 0.0017863852 -0.051127464 0.04831343
-0.02397756 0.010841826 -0.10739805 -0.024711858 -0.13424905 -0.043322857 -0.13496335 -0.0254236
0.09893133 0.007960915 -0.14139327 0.12321047 -0.013853593 -0.007630505 -0.12893072 -0.0010611472
-0.16800125 0.16239342 -0.08513326 -0.052587964 0.040774886 0.044330627 -0.04527196 0.08798685
-0.09387368 -0.019409798 0.013087314 0.09645238 -0.007984022 0.060563233 0.036046688 -0.13815147
-0.069412135 0.017221574 -0.09253234 0.07382492 0.0578302 -0.1806045 -0.06555931 -0.019877534
0.21979268 -0.06939221 -0.014464818 0.04443782 0.05454216 -0.055153977 0.003572862 0.025437338
0.056827955 -0.06900279 -0.008605129 -0.093011506 0.08236065 -0.18600912 0.00045867995 -0.07677233
-0.01850957 0.024577642 0.043489683 -0.002176032 -0.02961034 0.0939177 0.08684693 0.013359835
0.0607771 -0.107520744 -0.03589508 -0.0015735299 0.08691961 0.055583812 0.022179132 -0.046818983
00000000: 1429 0bbd 8171 803d e4ad 853c 51fe 223c
00000010: ec08 45bd f27c 983c b914 8e3c 2c15 123d
00000020: 945d f5bc 2fbe df3d 3831 993d d965 0dbc
00000030: 2237 30bd f137 c63d d1d6 b63d 13c4 a33d
00000040: 8f3d 1d3e 660c 1e3d 30e5 f9bd 80bf b8bc
00000050: 3223 803d 3e0a f8bd e893 24bc 87d9 59bd
00000060: a353 a13d 6b33 c03d eb34 463b 06db db3d
00000070: eb8a 693d 866b 51bd 5b4a f23c 7b01 85bd
00000080: 58e8 7abc 2110 373d dc9d 5d3d e19c 89bc
00000090: bce6 873d cdd5 93bd a9c6 c43c 95c6 a63d
000000a0: 2363 813c 3967 63bd c3d4 0a3d 679e 75bd
000000b0: 59cf 30bd eefc 413d cb6e 14bc 1469 93bd
000000c0: 6ba4 86bd 4935 f63c 12e0 9dbd 70a1 bd3c
000000d0: 4c4c ca3d 5350 d2bd da02 843d 7985 dfbb
000000e0: 4f44 6c3c 914d 1cbd db19 6bbd 7494 543d
000000f0: 5ca2 133c 78ce b33d a6a9 9f3c 7a10 c5bd
00000100: ea70 403d 58cb 59bc 60df 77bd 8b41 7abd
00000110: 16ba 81bd 6f19 a3bd dfaf 093d 407c ffbb
00000120: 3687 e93d cbe7 95bd 6d0b 903d 52d9 7abd
00000130: 3146 cf3d e2ad db3d 91be e7bc 2c2a a53d
00000140: 8811 15bd 7d27 58bd d838 ee3b 5b52 6abd
00000150: aa15 9d3d d268 1b3d fecf 82bd 31f3 ea3d
00000160: cfab 693d b9d2 07be f994 91bc 35a0 ad3d
00000170: 1b38 703c 6579 71bb 7948 4b3d b007 473d
00000180: bd59 f23d f842 c13d 3d75 3ebd 96a3 383d
00000190: 8b4e fbbd 2905 b83d 2b17 8fbd 7198 703d
000001a0: 255e bbbd 6624 533b cb1d ac3b 38f1 17bd
000001b0: 4ff8 a6bd ecde afbd 6d0b c9bd 81d0 293d
000001c0: 03fc 2abd 6e77 eebc a741 963d 8dc4 883d
000001d0: e755 5b3d b136 ab3d d8f5 6b3d 1e73 b33d
000001e0: 9a53 92bd 8170 99bd 8221 ed3b 7b8a f13b
000001f0: 39d7 7dbb af8b 233d 9966 10bc 9762 81bd
00000200: 9dd9 36bd 8103 bc3c ab03 8abd 2e8a 87bc
00000210: 242f c43c 2617 d5ba dfda c23c e855 3ebd
00000220: ec73 1d3e 51e6 f3bb 4fd6 8c3d 8463 013d
00000230: cfcf 6dbc f7c3 97bc dd18 c93d 05d1 993d
00000240: a57a 82bd 9453 08bc 96ea 693c ce40 f03b
00000250: f92b f93c c83b 8abd 911f 113d 189f 8c3c
00000260: 3df0 3fbd 76d9 f13c f201 923d 3429 6f3d
00000270: 2b5c cc3c 59ce b33d d3f3 af3d 9018 dd3d
00000280: ca4a 2e3d eb24 a3bd 0c70 c3bd 45de 3e3c
00000290: 7fdb 1c3d 2f10 b43c 4379 e1bd c700 37bd
000002a0: 5745 4abd 2dfb c33b a37d ee3b aeb8 54bd
000002b0: 0a54 1bbd 401a fd3c a22c 5e3d 8244 a7bd
000002c0: 8242 2e3e b32c 1cbc f1de c0bc cf0d 643c
000002d0: 59c2 333c 2425 ea3a 086b 51bd 4ee4 453d
000002e0: 976c c4bc eaa1 313c 82f3 dbbd 8670 cabc
000002f0: 9578 09be 4f73 31bd d533 0abe 2745 d0bc
00000300: 829c ca3d 7f6e 023c 66c9 10be c555 fc3d
00000310: 2efa 62bc 5109 fabb 6a06 04be 3116 8bba
00000320: 8508 2cbe 764a 263e 595a aebd 7a66 57bd
00000330: 9103 273d 0894 353d 176f 39bd 7332 b43d
00000340: d840 c0bd 4c01 9fbc 2c6c 563c d388 c53d
00000350: 6acf 02bc 2711 783d b1a5 133d 9477 0dbe
00000360: f327 8ebd 4214 8d3c 9881 bdbd 8531 973d
00000370: 5cdf 6c3d 63f0 38be f643 86bd 36d6 a2bc
00000380: 5511 613e 811d 8ebd d8fd 6cbc 6e04 363d
00000390: 9a67 5f3d 23e9 61bd ad26 6a3b f761 d03c
000003a0: 6ec4 683d 5651 8dbd 87fc 0cbc d17c bebd
000003b0: b3ac a83d 2d79 3ebe fb7a f039 d03a 9dbd
000003c0: 62a1 97bc 0d57 c93c 3d22 323d c29b 0ebb
000003d0: 6291 f2bc ec57 c03d cedc b13d 36e3 5a3c
000003e0: 69f1 783d d633 dcbd b806 13bd e73e ceba
000003f0: e902 b23d daab 633d 03b1 b53c 43c5 3fbd

mlp_stack.Linear2.bias f4 [128]
0.057026863 0.019244477 0.07829099 0.02156165 0.07602538 0.005323952 0.051297117 0.104185864
-0.017689161 0.10538207 -0.004128126 0.08049651 0.025578175 0.037027642 0.02311765 0.07805522
0.06531204 0.05202037 0.01090487 0.039450068 0.094648 0.08295631 0.02683832 0.08232875
0.06883146 0.022746436 0.03482298 -0.032126 0.08922411 0.10708498 0.0847986 -0.09195441
0.0078122905 0.029981969 0.029638426 0.02837926 0.10751564 0.076932766 0.101806745 0.058786772
0.045397192 0.032598257 0.03559217 -0.050498407 0.067511946 0.0664872 0.06700041 -0.019265646
-0.017395722 0.0023398083 0.045286536 0.11662187 0.023748642 0.041524548 0.039292213 0.07195359
0.08317851 0.037518434 0.032866195 0.07441964 0.025715036 0.030959448 0.07879961 0.052209478
0.028360771 0.010964744 0.017978802 0.10975581 0.07417296 -0.023312815 0.021168366 0.0112657845
0.05807862 0.01939852 0.1077776 0.060793247 0.070365146 0.029892636 0.07399347 0.077471
0.018210163 0.041627917 0.1193277 0.040412314 0.09274907 0.11668003 0.08779324 -0.026355438
0.037994012 0.0630207 0.031189991 0.03781133 0.08952878 0.025845066 0.028590798 0.026116043
0.050121687 0.017745795 0.09633451 0.07018753 0.033328295 0.049551133 0.054483145 0.008681595
0.022826541 0.08009193 0.05108526 0.068253145 0.102857165 0.08842507 0.0013815823 0.107209496
0.0774788 0.10866728 -0.0008422843 0.05524929 0.018286776 0.07110858 0.044086725 0.06842571
0.04822615 0.09547282 0.043162033 0.04157044 0.03430295 0.07345184 0.06926874 0.033535473
00000000: 0095 693d 98a6 9d3c 0757 a03d 0fa2 b03c
00000010: 32b3 9b3d 8c74 ae3b ed1c 523d 665f d53d
00000020: dce8 90bc 8ed2 d73d 3b45 87bb 5bdb a43d
00000030: 5289 d13c 4caa 173d 3a61 bd3c 6adb 9f3d
00000040: 52c2 853d 5013 553d 57aa 323c 6596 213d
00000050: d0d6 c13d ffe4 a93d 09dc db3c fa9b a83d
00000060: 82f7 8c3d bc56 ba3c 8ba2 0e3d 8d96 03bd
00000070: 21bb b63d 5f4f db3d e3aa ad3d 9852 bcbd
00000080: 3efe ff3b bf9c f53c 49cc f23c 9f7b e83c
00000090: 2931 dc3d ed8e 9d3d 0e80 d03d 66ca 703d
000000a0: 68f2 393d c085 053d 18c9 113d 6bd7 4ebd
000000b0: b443 8a3d 712a 883d 8337 893d fdd2 9dbc
000000c0: 7981 8ebc 7857 193b 607e 393d 72d7 ee3d
000000d0: 838c c23c a515 2a3d dff0 203d 675c 933d
000000e0: 7f59 aa3d eeac 193d b49e 063d 5369 983d
000000f0: 57a8 d23c ab9e fd3c b161 a13d 9bd9 553d
00000100: d954 e83c 78a5 333c 4848 933c a7c7 e03d
00000110: fee7 973d 84fa bebc 4869 ad3c 2094 383c
00000120: d9e3 6d3d a5e9 9e3c 81ba dc3d 5702 793d
00000130: 9a1b 903d 67e1 f43c e389 973d 1ea9 9e3d
00000140: 7b2d 953c 0982 2a3d 1562 f43d 6287 253d
00000150: 39f3 bd3d f1f5 ee3d f1cc b33d 5ce7 d7bc
00000160: 9c9f 1b3d ff10 813d 2782 ff3c 0ee0 1a3d
00000170: dd5a b73d 08b9 d33c 4037 ea3c 50f1 d53c
00000180: 664c 4d3d a15f 913c 074b c53d 7bbe 8f3d
00000190: 4083 083d 21f6 4a3d b829 5f3d 403d 0e3c
000001a0: bafe ba3c 3d07 a43d c73e 513d 4ec8 8b3d
000001b0: c7a6 d23d 3418 b53d 3616 b53a a790 db3d
000001c0: 35ad 9e3d f38c de3d becc 5cba 144d 623d
000001d0: 26ce 953c 60a1 913d 4894 343d c722 8c3d
000001e0: c988 453d 4187 c33d acca 303d c445 2a3d
000001f0: 4081 0c3d eb6d 963d c5dc 8d3d 7e5c 093d

mlp_stack.Linear3.weight f4 [1, 128]
0.1863307 -0.1298641 -0.1674237 -0.17699462 0.18506774 -0.17859724 0.137588 -0.14708911
0.16049056 -0.17084798 0.16100572 0.16257055 -0.17641367 -0.19581033 -0.15926607 -0.21278511
-0.17668863 -0.16833255 0.16013911 0.14363833 -0.130117 0.21746212 0.19940023 -0.19146131
-0.23826522 0.112787485 -0.21136133 -0.06190126 -0.11946583 -0.1424761 -0.16459896 -0.026765402
0.11120481 0.16631839 0.22387393 0.121573284 -0.17470787 0.13458227 -0.14096433 0.1397344
-0.15712245 -0.18180259 0.15329854 0.01888485 0.15519834 -0.14933752 0.2364712 0.14520726
-0.040219735 0.13787796 0.17511809 0.19864061 -0.1768118 -0.19952586 -0.13570783 -0.17035916
-0.20611791 0.18695226 0.21241097 -0.13398373 0.14844573 -0.19078581 0.1187002 -0.28689325
-0.23733765 0.21505255 -0.20204125 0.19645558 -0.17995384 -0.032208472 -0.13823867 0.19688363
0.16330923 0.16300786 0.1455167 0.15806176 0.17589958 0.19502833 -0.21557343 -0.123399235
-0.18794768 0.17942387 -0.18952636 -0.15108019 -0.23154517 -0.18561698 -0.16842546 0.17463994
0.15291026 -0.25825566 -0.18078303 0.18897448 0.14797151 0.13723312 -0.15930669 0.14389245
0.1384741 0.16327795 -0.11926548 0.1790976 0.17892417 0.12069591 0.18335506 0.13728252
-0.17465317 0.17730945 0.15409842 -0.17503612 0.13283105 0.18441783 0.104877464 -0.20680135
-0.2147347 -0.18214683 0.0027743995 0.15645806 -0.13751887 0.18156308 0.15007764 -0.15862066
-0.1597489 -0.2047747 -0.1642675 -0.13720542 0.14271833 -0.15698972 -0.1739594 0.18430626
00000000: 7acd 3e3e 18fb 04be 1e71 2bbe 143e 35be
00000010: 6682 3d3e 32e2 36be dee3 0c3e 879e 16be
00000020: a357 243e c6f2 2ebe afde 243e e578 263e
00000030: c9a5 34be 8182 48be a516 23be 57e4 59be
00000040: dded 34be 5e5f 2cbe 82fb 233e ed15 133e
00000050: 643d 05be 64ae 5e3e 932f 4c3e 6f0e 44be
00000060: ccfb 73be 20fd e63d 1b6f 58be 2d8c 7dbd
00000070: 80aa f4bd 41e5 11be a18c 28be 1e43 dbbc
00000080: 59bf e33d 5e4f 2a3e 353f 653e 6afb f83d
00000090: 9fe6 32be efcf 093e f458 10be 8916 0f3e
000000a0: b5e4 20be 752a 3abe 4bfa 1c3e 67b4 9a3c
000000b0: 50ec 1e3e efeb 18be 8225 723e 36b1 143e
000000c0: 73bd 24bd e12f 0d3e 2852 333e 7268 4b3e
000000d0: 270e 35be 8250 4cbe fef6 0abe a272 2ebe
000000e0: 9310 53be 6a70 3f3e 4382 593e 0833 09be
000000f0: 2802 183e 5b5d 43be 1719 f33d ace3 92be
00000100: a408 73be bc36 5c3e e7e3 4ebe a72b 493e
00000110: d245 38be 08ed 03bd 708e 0dbe dd9b 493e
00000120: 893a 273e 88eb 263e 5402 153e f1da 213e
00000130: 051f 343e 82b5 473e 48bf 5cbe bdb8 fcbd
00000140: 5b75 40be e4ba 373e 3313 42be c4b4 1abe
00000150: 2d1a 6dbe 6112 3ebe b977 2cbe d0d4 323e
00000160: 8294 1c3e 163a 84be 301f 39be 8782 413e
00000170: d885 173e d786 0c3e 4b21 23be 8b58 133e
00000180: 28cc 0d3e 5632 273e 7641 f4bd 5c65 373e
00000190: e637 373e 6b2f f73d 6ec1 3b3e ca93 0c3e
000001a0: 48d8 32be 9c90 353e facb 1d3e ab3c 33be
000001b0: dd04 083e 07d8 3c3e ffc9 d63d bcc3 53be
000001c0: 6ae3 5bbe b384 3abe b3d2 353b 8b36 203e
000001d0: bfd1 0cbe aceb 393e f4ad 193e 746d 22be
000001e0: 3795 23be 75b0 51be bd35 28be 947f 0cbe
000001f0: c124 123e eac1 20be 6a22 32be c8ba 3c3e
