Programming Assignment/model.pth (torch, 478184 bytes, 7 tensors)

mlp_stack.Linear0.weight f4 [256, 77]
000000 81 b2 22 3d b2 84 ab 3d 66 80 24 bd f8 e6 e1 bd
       0.039721016 0.08374919 -0.040161513 -0.11030382
000010 5f c3 89 bd d3 eb 04 bc 05 f8 5f 3c 00 11 bb 3d
       -0.06726717 -0.0081128655 0.013669972 0.09134102
000020 69 51 39 bc 24 a1 9a 3b 36 7a a1 bd e8 0b ff 3c
       -0.011310914 0.0047189165 -0.07884638 0.031133607
000030 a9 13 0a be b1 8d 04 be 7a 23 16 bd 8d f1 2d 3c
       -0.13484062 -0.12944676 -0.036654927 0.010616672
000040 71 ed 18 3d 52 20 4c 3d f6 d6 eb bd 01 6e 55 bd
       0.037335817 0.04983551 -0.1151561 -0.05210686
000050 9a 47 98 3d cf 3b f9 3d 97 6e e1 bb de 52 af 3d
       0.07435532 0.12169611 -0.0068796384 0.085607275
000060 22 c7 93 bc 9b c7 06 bc 62 c9 a9 3d ea 80 c6 bd
       -0.01803929 -0.008226301 0.08290364 -0.09692557
000070 30 31 65 bd a3 19 36 bd f8 a3 a2 bd 8e a4 cf 3d
       -0.055955112 -0.044458043 -0.07941431 0.10138808
000080 e9 84 d5 bd d4 a8 96 bd fa c4 f5 bd 47 5e 8a 3c
       -0.10425741 -0.0735642 -0.12000461 0.016890658
000090 d0 c9 b9 bc 60 32 de 3d ab 9f 3b 3d e5 91 60 3d
       -0.02267924 0.10849452 0.045806568 0.054826636
0000a0 56 1e 92 3d 2f ee 44 3d a3 ce 1a 3d 95 16 8c bc
       0.07134692 0.048078712 0.03779472 -0.017100612
0000b0 1c 05 bf bd e0 76 7f bc fb 5e b2 bc 0f 5b a5 3d
       -0.093271464 -0.015592307 -0.021773806 0.08074009
0000c0 55 6e 8f bd 1d ea 2e 3d 4a d5 0f 3d 8c de c1 3d
       -0.07003466 0.042703737 0.035115518 0.094662756
0000d0 80 b1 60 3d 7d 38 05 3d d4 89 44 3d 02 f0 33 bd
       0.054856777 0.032524575 0.047983006 -0.04393006
0000e0 4e 9a 64 3b ed a1 1e be 2e 1b ee bd 06 9c af bd
       0.0034882012 -0.15491457 -0.11626278 -0.08574681
0000f0 ad ae fa 3b 33 3c cf 3b 22 1c 8f bd aa 75 a1 3d
       0.0076502175 0.006324315 -0.06987788 0.07883771
000100 1f 01 3e 3d 57 99 aa 3d d2 a4 b4 bc 3b 72 7e 3d
       0.046387788 0.083300285 -0.022051249 0.062120657
000110 ae 3b 94 3d 00 6c 23 3e 61 d9 8f bd 77 13 ab bd
       0.072379455 0.15959167 -0.070238836 -0.08353322
000120 15 f2 fa 3c ac c2 3e 3e 34 f4 b4 3d 68 ec de 3d
       0.030633012 0.18628949 0.088356405 0.10884935
000130 61 1d 85 bd 57 f4 b8 bd 65 66 7d 3d 3b ef 53 bd
       -0.06499744 -0.09030979 0.06186523 -0.05174182
000140 35 1c 94 bd 77 d3 4c 3c c9 46 8a 3d 65 8c f7 bd
       -0.072319426 0.012501589 0.067517824 -0.12087325
000150 b4 c0 81 39 44 4b 23 3b fe 53 a9 bc c5 2c 69 bd
       0.00024748372 0.0024916688 -0.020669933 -0.05692746
000160 cf 11 2e 3d c3 c3 80 bd 76 c8 19 3b 47 32 7b 3d
       0.042497452 -0.062873386 0.0023465431 0.061327245
000170 f2 cf b4 3d 38 16 af 3d 36 92 ea bd 9b 2f 0d be
       0.08828725 0.0854916 -0.11453669 -0.13787691
000180 04 1b ff 3d dc 09 53 3c af 3e d6 bd b7 24 a1 bc
       0.12456325 0.012880769 -0.10461175 -0.019670827
000190 cd de 0a 3e e5 70 d7 3d a5 44 f1 bc 1d 59 0a bc
       0.13561554 0.1051958 -0.029451678 -0.008444098
0001a0 c6 e8 de bd a6 a2 a9 bc 11 a3 c3 bd d3 0c ae bd
       -0.10884242 -0.02070744 -0.09552587 -0.0849854
0001b0 0a 6b dc bc 0a 0d 03 3b 3d a6 9a bc 9a ec 9f 3d
       -0.026906509 0.0019996786 -0.018878097 0.078088
0001c0 b8 21 cb bd 5b ba 1c 3e f9 f5 9c 3d a2 9c b0 bd
       -0.09918541 0.15305464 0.07664103 -0.08623625
0001d0 1b c1 3f bc 98 4f 8b bd ab 68 9e 3d d6 1f 2e 3d
       -0.011703755 -0.06802291 0.077348076 0.04251083
0001e0 31 c4 78 3d e6 8c c6 bd 08 8d 3f bd 97 75 85 3b
       0.060733978 -0.09694843 -0.046765357 0.0040728557
0001f0 7b 73 0a be 1e 8d 9f bd 69 96 e5 bc ab 6e dd bd
       -0.13520615 -0.07790588 -0.028025823 -0.10812124
000200 00 36 ad bc 34 2d 40 be f5 33 83 bd b7 98 96 3d
       -0.021143913 -0.18767244 -0.064063944 0.07353347
000210 ce 26 04 be eb 86 d2 3c 7a ad d5 3c cf 1a d5 3d
       -0.12905428 0.0256991 0.026083697 0.10405504
000220 80 15 e9 bc dc e0 1e 3d 92 a2 1c 3b d9 f5 1a 3e
       -0.028452635 0.03878866 0.002390061 0.15132846
000230 62 b9 85 3d c7 f4 eb 3d c7 de 51 3c aa cd 65 ba
       0.065294996 0.11521297 0.012809462 -0.0008766303
000240 84 84 e4 bd 0f 87 53 3d 03 53 26 3e d6 0d 42 3c
       -0.11158088 0.051642474 0.16242604 0.011844119
000250 18 b5 12 be 33 59 b7 bd f6 41 bb bd 23 3f 4e bd
       -0.14326894 -0.0895256 -0.091434404 -0.05035318
000260 00 e1 27 3d ee db a3 3d 72 70 02 3e be a4 15 be
       0.04098606 0.08000933 0.12738207 -0.14613625
000270 c1 f0 f8 3b c7 f3 e2 bd 34 b6 fd bc 2d 99 b1 bd
       0.0075970595 -0.11081653 -0.03097067 -0.08671794
000280 2d 35 ca bc e9 d8 6a bd 4e a8 87 bd bc 4d d9 bd
       -0.02468356 -0.057335768 -0.066238984 -0.1061053
000290 1a f6 bd bd e7 60 0c 3d 48 13 c0 bd 6b 7e 0a bc
       -0.09275456 0.0342721 -0.093786776 -0.008452992
0002a0 24 78 a5 bd 2a a6 08 3a ff 32 03 3e 5b 8b 02 bd
       -0.08079556 0.00052127487 0.12812422 -0.03187118
0002b0 a7 ab cf 3d 70 53 76 3d b5 cd 7d bd e3 b1 23 3d
       0.10140162 0.060138166 -0.061963756 0.039964568
0002c0 c8 7b 97 bc fe 7f f2 bc d6 31 e6 3d 95 b3 96 bd
       -0.01849164 -0.029602047 0.11239974 -0.07358471
0002d0 8a c7 fb 3c ed 53 b2 3b 1a d0 f7 3d a6 bb 63 3d
       0.030734796 0.0054421336 0.12100239 0.055598877
0002e0 09 e3 83 3d 7e 25 da 3d e1 af 36 bc 83 35 32 3d
       0.06439788 0.10651682 -0.011150331 0.043508064
0002f0 6a 37 a6 bd cc 0a 3e 3d 71 f6 db 3d e6 0a f4 3d
       -0.08116038 0.046397015 0.10740364 0.11916141
000300 fa f4 84 bd 2a 70 8a bc ee 0e 65 bd 18 57 0b bc
       -0.06492038 -0.016899187 -0.05592244 -0.0085046515
000310 9c cc 4d bd 51 1f 90 3c 45 1a 39 bd 61 0f 98 bc
       -0.05024396 0.017593058 -0.04519107 -0.01856202
000320 1c ef 7f bc 7e b4 4a 3d 7c d4 33 bd 7f 75 60 bd
       -0.015620973 0.049488537 -0.043903813 -0.054799553
000330 4a 6d 8c bd bd 1e f1 3d d7 57 bc bd 5b 4b 4c 3e
       -0.06856783 0.11773441 -0.091964416 0.19950621
000340 c7 ab 5f 3d d4 66 ae 3b bc 88 26 3d a0 a9 08 be
       0.05460718 0.0053223167 0.040657744 -0.13345957
000350 e6 1f 9a bd 63 78 a1 bc f5 44 6e bd 0f c8 1b 3d
       -0.075256154 -0.019710725 -0.05817123 0.038032588
000360 61 57 cb bd 4a 61 98 3a d7 84 d6 3d c8 fd d8 bd
       -0.099287756 0.0011625674 0.10474556 -0.1059528
000370 f3 a2 86 3d ba 87 cb 3d 0a 6b 26 3d e6 37 ae bd
       0.06574049 0.09937997 0.040629424 -0.085067555
000380 34 3f de bd fe b4 fc 3d de e9 d8 bd 18 44 90 3c
       -0.10851899 0.12339209 -0.105914816 0.017610595
000390 dd 20 fe bd dc 48 c9 bb 96 fc a2 bc 10 84 f8 3d
       -0.12408612 -0.0061427187 -0.019895833 0.12134564
0003a0 54 66 d1 bc bc 94 9a 3d d2 88 6c 3d 6f 6d d3 bd
       -0.02556149 0.075479 0.05774767 -0.10323607
0003b0 27 0f 1b 3d f3 4b a4 bd 65 6d 80 bd e6 00 3a 3d
       0.037856247 -0.08022299 -0.06270865 0.045411013
0003c0 b7 84 b2 3c e6 3f a6 3d 9a 01 49 bd a6 d0 95 bb
       0.021791799 0.081176564 -0.049073793 -0.004571992
0003d0 52 30 16 3d 00 22 d2 bd a2 e7 7a 3d bb da c2 bd
       0.036667176 -0.10260391 0.06125606 -0.09514376
0003e0 59 93 fa 3b c7 3e f5 bc 44 69 1f bd df 04 ac bc
       0.0076469597 -0.029937161 -0.03891875 -0.020998416
0003f0 42 a7 0a 3e 12 61 8d 3c 22 0a 80 bd 63 96 17 bd
       0.13540366 0.0172582 -0.06251933 -0.037008654

mlp_stack.Linear0.bias f4 [256]
000000 33 e7 aa bd 2d 8b fa 3c 76 ac d2 bd 6e 70 8d bd
       -0.08344879 0.030583942 -0.102868006 -0.0690621
000010 b9 69 b1 bd ec b9 94 ba b5 ad 2e be a5 ad 08 be
       -0.08662743 -0.0011346913 -0.17058451 -0.1334749
000020 5e ae fd 3c f9 98 48 bd 95 18 4b be 46 33 3d bd
       0.030966934 -0.04897401 -0.19833596 -0.046191476
000030 f3 40 bc bc ac b7 22 be 57 b6 18 bd 46 d0 46 3a
       -0.022980189 -0.15890378 -0.037283268 0.0007584136
000040 7a d8 05 bd 64 dd 05 be 7f be 17 be 02 6f 88 bd
       -0.03267715 -0.13072735 -0.14818762 -0.06661798
000050 3b ff 50 bc 73 5b d9 bd a3 6c 3b bc 1f 93 99 bd
       -0.012756164 -0.10613146 -0.011439475 -0.07498764
000060 a0 ba 09 be b3 df eb bd 9d 0e b0 bc f1 51 60 bc
       -0.13450098 -0.115172766 -0.021491343 -0.013691411
000070 95 aa 3a be 07 9e da bc 06 1d 11 be 9a 7e 32 be
       -0.18229134 -0.026686681 -0.14171228 -0.17431107
000080 f4 8d 1d bd fa 25 0c 3d 42 57 66 3c 98 95 21 be
       -0.038465455 0.034215905 0.01405889 -0.15779722
000090 09 a2 51 bd 4f cd a5 bc b5 b2 ef 3c d7 9c 17 be
       -0.05117992 -0.0202395 0.029260019 -0.14805923
0000a0 b6 7e 1a be 03 13 c7 bd 43 d9 fb bd c3 19 ad bd
       -0.15087399 -0.09720423 -0.12297299 -0.08452179
0000b0 00 06 d9 3b 59 05 e0 bd 8d e3 1a bd 3c 10 80 bd
       0.0066230297 -0.1093852 -0.037814666 -0.062530965
0000c0 d9 88 3c bc 88 ec 3a be 3c a0 00 be af de 32 be
       -0.011507236 -0.18254292 -0.12561125 -0.1746776
0000d0 9d 9e 3c be fe cb 07 bd 77 f4 d9 3c fb b0 d7 bd
       -0.18419881 -0.033153526 0.026605828 -0.10531803
0000e0 a4 e8 eb bd b2 c5 a4 bd e4 b4 7b be 62 2d cd b9
       -0.11518982 -0.0804552 -0.24580723 -0.0003913446
0000f0 7a 99 9f bd 31 72 d3 bd 7d 71 4e bc ba 80 0c bd
       -0.07792945 -0.10324515 -0.0126003 -0.03430245
000100 1c 6f 99 bd 7f 80 37 be 01 05 a9 bd f3 c4 7b bc
       -0.074918956 -0.17920111 -0.082529075 -0.015366781
000110 8c a0 06 bd dc ce 25 bd d5 57 01 be e5 b8 25 be
       -0.032867953 -0.04048048 -0.12631162 -0.16183813
000120 92 84 93 bd 33 c6 e9 bd f2 f6 5d bd c3 f0 96 bc
       -0.0720302 -0.114147566 -0.054190584 -0.018425351
000130 35 6c 88 bc af 51 06 be 4e 9e 98 bd 42 87 3e bd
       -0.01665316 -0.13117097 -0.07452069 -0.04651571
000140 09 2a b7 bd e2 d8 99 bb a9 c6 87 bc 5b 19 17 be
       -0.089435644 -0.004695044 -0.01657422 -0.14755766
000150 38 da 82 bd 7c 3f d8 bb 6c ca 0f be 4f 7d 7f bd
       -0.06389278 -0.006599365 -0.14042062 -0.062375363
000160 65 80 98 bd 82 ed dd bc 5f 1b 1c be 8c 95 06 be
       -0.07446364 -0.027090792 -0.15244816 -0.13142985
000170 13 51 be bd c7 af ce 3c 39 0a ed bd 85 67 91 3b
       -0.092928074 0.025230302 -0.115742154 0.0044373893
000180 41 8e 94 bd 15 f4 33 be 64 0d e2 bd 0e 34 19 be
       -0.07253695 -0.17573579 -0.1103771 -0.14961264
000190 d5 52 91 3c 8e 62 92 bd 5e c4 2a 3c 9c 32 2f bd
       0.017739693 -0.07147704 0.010422794 -0.042772874
0001a0 b7 13 c3 bd 37 29 bc bd 74 67 24 bd 4d f4 2f bd
       -0.09525245 -0.091875486 -0.040137723 -0.042957593
0001b0 4c 57 32 be 31 68 f0 bd 07 45 df bc 19 97 3d be
       -0.17416114 -0.11738623 -0.027254594 -0.1851467
0001c0 d1 fb a2 bd c4 43 8a bc 1a 48 3e 3d 18 74 7a bd
       -0.079581864 -0.016878016 0.04645548 -0.061145872
0001d0 05 38 98 bd 0e e8 4e bd ba d4 ab bd bf 38 72 bc
       -0.0743256 -0.050514273 -0.08390184 -0.014784037
0001e0 84 20 31 be 9a cc 77 bc ea 33 cc bd f6 91 06 bd
       -0.1729756 -0.015124464 -0.09970839 -0.032854043
0001f0 cf 82 90 bd 53 d4 86 bd 62 ec 90 3c 80 7f a5 bd
       -0.070562 -0.065834664 0.017690841 -0.08080959
000200 7c f1 37 3d f5 2a 45 be 73 66 b5 bd 73 7a 25 be
       0.04490803 -0.19254668 -0.08857431 -0.16159992
000210 40 7d de bd 06 d7 a3 bb 84 ed 15 be b3 fb c4 bc
       -0.10863733 -0.004999998 -0.14641386 -0.0240458
000220 a6 bb 2f be 84 b0 17 3c 39 f4 e4 bd c2 9e c7 bd
       -0.17161426 0.009258393 -0.11179394 -0.097470775
000230 24 3a 30 3d 1d 5f de bd 14 76 1b 3d 77 4f 6f bd
       0.043024197 -0.10857985 0.037954405 -0.058425393
000240 48 2d 8c bc 99 10 3c be 69 95 06 be 83 dd fe bd
       -0.017111436 -0.18365707 -0.13142933 -0.12444594
000250 77 6e 0b be db 37 c6 bd 25 e8 88 bd a5 9a 66 3b
       -0.13616358 -0.09678622 -0.06684903 0.003518739
000260 48 05 84 bd ae a8 17 bd da 58 e6 bd bb 1d d6 bd
       -0.0644632 -0.0370261 -0.11247416 -0.104548894
000270 0c 17 17 bb b8 2a 06 be 99 53 87 bd b9 c8 43 be
       -0.0023054508 -0.13102233 -0.06607742 -0.19119538
000280 fb 7d d0 bd 51 4e 46 3b 4d 51 47 bd be 89 bc bd
       -0.10180279 0.0030259083 -0.04866152 -0.0920596
000290 ce 07 e5 bb 76 80 34 3d 46 b7 07 be b5 4e 7a bd
       -0.006989456 0.044067822 -0.13253507 -0.061110217
0002a0 46 1d 4e be 45 cc da bd 0b 18 21 bd bd 7f 3a bd
       -0.20128354 -0.106834926 -0.03932957 -0.045531977
0002b0 22 43 b2 bd b7 c2 03 be 46 7a e4 bd c3 ef 24 be
       -0.08704211 -0.12867247 -0.11156134 -0.16107087
0002c0 c2 2a 6c be 52 c3 1c bd 0a af 28 bd 46 fb ba bd
       -0.23063186 -0.03827221 -0.041182555 -0.09129958
0002d0 29 ee 68 bd 49 ed 22 be 80 cb e2 bd 0a 03 6c bd
       -0.056867752 -0.1591083 -0.11073971 -0.057620086
0002e0 be b0 19 be 6b 76 18 3d 72 d4 a9 bd 1a eb 17 bd
       -0.15008828 0.037222307 -0.08292474 -0.037089445
0002f0 28 db 9f 3c 29 4f fc bd d1 30 4c bd 32 ef 32 be
       0.019513682 -0.12319786 -0.049851242 -0.17474058
000300 b5 dd 3a be 79 88 56 bd ee 10 10 be 06 42 1c 3c
       -0.18248637 -0.052376244 -0.14068958 0.009537226
000310 e2 20 83 bc 7c 8f 93 bd 14 1f 57 bd ce 54 11 be
       -0.01600689 -0.07205102 -0.052519873 -0.14192507
000320 ef 29 73 bd f9 ee 5f bd 8e 36 fa bd a2 d5 1e be
       -0.059366163 -0.05467126 -0.12217437 -0.15511182
000330 25 3a c9 bd 43 ce e8 bd b4 1f 2c be 9b 92 13 be
       -0.09825543 -0.11367466 -0.16808969 -0.14411394
000340 31 8b 40 be e5 13 ac 3c 1f ca 8a bd e5 43 2a be
       -0.18803097 0.02100558 -0.06776833 -0.16627462
000350 b3 0b 49 3b ec b2 07 be 46 fb 7c bd 08 44 38 3d
       0.003067714 -0.13251847 -0.06176307 0.044986755
000360 9d 9a 3e bd 86 ec d0 bd b5 75 47 bd e7 89 da bd
       -0.04653417 -0.10201363 -0.04869624 -0.10670834
000370 49 ae 7b 3a d8 fa 0c be 67 26 dc bc d8 cd 72 bd
       0.00096008606 -0.13767564 -0.02687378 -0.05927834
000380 ec 2d 07 be 06 37 e6 bd cf ec 67 be 77 ef 0f 3d
       -0.13201112 -0.11240964 -0.22648929 0.03514048
000390 d8 ca 4f 3c 9f 36 0c bd 3f 08 28 3d 50 29 9f 3c
       0.012682639 -0.03423178 0.04102349 0.019428879
0003a0 f1 da 8f 3d 34 b3 0c 3d 12 ac 84 bc 73 15 ff bd
       0.07024182 0.03435059 -0.01619533 -0.12455263
0003b0 3a 35 d0 bd 82 a2 de bd ba b8 af bd a3 9e 28 bd
       -0.10166402 -0.1087084 -0.08580156 -0.041166913
0003c0 55 88 26 be e3 2e 0f 3d 56 f6 f1 bd 84 25 3a be
       -0.16262944 0.034956824 -0.11814563 -0.18178374
0003d0 6f 02 8d bd 37 25 81 3c d9 2c 36 be fe da b3 bd
       -0.0688523 0.015764816 -0.17790546 -0.08782004
0003e0 8a 7e f0 bd e4 e2 1e be 97 2a 83 bd 0a cc 40 be
       -0.117428854 -0.1551624 -0.06404608 -0.18827835
0003f0 82 5a 1d be 14 eb 82 bd 9a db 86 bc a6 05 27 be
       -0.15366557 -0.06392494 -0.016462136 -0.16310748

mlp_stack.Linear1.weight f4 [256, 256]
000000 3f ef 55 bd 7b 1e e5 39 1e 7e 10 3d 19 1d 68 bc
       -0.052230116 0.00043700993 0.035276525 -0.014167094
000010 a3 d8 8e bd ad 67 17 3d e5 69 9c 3d fb 5a fd bc
       -0.06974914 0.036964107 0.07637385 -0.030927172
000020 c5 55 b0 3c 97 d2 f3 bc 04 7f b2 3c 96 d3 78 bc
       0.021525273 -0.029763503 0.021789081 -0.015187165
000030 46 84 5c 3c 5b 8d 8e 3d ad 7b 7f ba 7f 51 18 3d
       0.013459271 0.06960555 -0.0009745907 0.037187096
000040 55 0e 03 bd 87 a7 b1 3d c5 5a 1a bd 1c 52 f2 39
       -0.03199609 0.086745314 -0.03768422 0.00046219013
000050 f0 95 59 bd 86 30 24 3d 3a 51 44 3d 94 f4 73 bd
       -0.053121507 0.040085338 0.047929026 -0.05955942
000060 a1 eb e4 bc f2 99 ae 3d 9e 2d 8e bd 60 1a 54 3b
       -0.027944388 0.085254565 -0.069422945 0.0032364354
000070 92 bb 8f bd bd 67 cb bd d7 72 2a bc e1 40 8d 3d
       -0.07018198 -0.09931896 -0.0104033565 0.0689714
000080 07 e7 9c ba a2 13 8b bc 97 8c 14 bd 90 26 8a bc
       -0.0011970707 -0.016977135 -0.03626689 -0.016864091
000090 41 98 41 bd 47 e1 10 bd dc 34 78 bb 92 15 9e bd
       -0.04726434 -0.03537109 -0.0037873304 -0.07718958
0000a0 f6 8a 63 bd 2d fc 82 bd 63 4f 7b bd 7b e9 0c 3d
       -0.055552445 -0.06395755 -0.061355006 0.03440235
0000b0 e3 b5 94 3d 53 e2 bc 3d fb 15 68 bd b1 6c 52 3d
       0.07261255 0.092228554 -0.056661587 0.051373187
0000c0 d6 1f 9b bd 2c 19 6c bc 4b b6 34 bb 06 3a 72 3d
       -0.075744316 -0.014410298 -0.0027574475 0.059137367
0000d0 1c 45 8e 3d d3 94 06 3b c5 29 07 3d e4 3d 0b 3d
       0.06946775 0.0020535483 0.03299882 0.03399457
0000e0 07 ec 94 bc e1 a2 b1 bd 11 a3 c1 3b a5 f6 68 3d
       -0.018178953 -0.08673645 0.0059093316 0.056875844
0000f0 5d ff 25 3d ed 4c 47 bd a5 c3 87 bd 0b 25 31 bd
       0.040526737 -0.048657347 -0.06629113 -0.043248218
000100 87 94 86 3c 6d a6 a0 bd 0e 75 95 bc c2 fe 95 3d
       0.016428245 -0.07844243 -0.018244293 0.07323982
000110 a1 98 ed bd d8 cc 87 bd d9 a0 90 3c b6 e1 b2 3a
       -0.11601377 -0.06630868 0.017654823 0.0013647589
000120 e2 c2 37 3c c5 8b 83 3d b8 f9 8d bd a7 ef 14 bd
       0.011215897 0.06423143 -0.06932396 -0.036361363
000130 bc 87 9d 3d 6c 9b 1b bc a9 98 f6 bd 37 34 5b bd
       0.07691905 -0.009497505 -0.12040836 -0.053516593
000140 f7 5c f6 bc 0c d6 9b bd 00 c8 6a 3c 8b ad ad bd
       -0.030073626 -0.076091856 0.01432991 -0.08480366
000150 25 e9 cc 3b bc 9b 49 bd 5a 5c 55 bc ff 9a 89 3c
       0.006253379 -0.049220785 -0.013022507 0.01679754
000160 ae 6e c5 3c 65 96 82 3d 37 dd 68 3d e1 82 0c bd
       0.024100628 0.06376342 0.056851592 -0.034304503
000170 2f b1 db 3c 39 63 92 bd 9a 38 41 bd cd 8e 52 bb
       0.026817886 -0.071478315 -0.04717312 -0.0032128573
000180 5c d0 b1 3d a9 59 42 3d f2 5e 54 3d bf 43 68 bc
       0.086823195 0.047448788 0.05184836 -0.014176308
000190 39 f6 8a 3c c3 07 84 3d a5 f8 3a bd 24 5e 6a bc
       0.016963111 0.06446793 -0.045647282 -0.014304671
0001a0 4c 0f 21 bd bd 46 88 bd ed 3d e2 ba 60 a1 39 3a
       -0.03932123 -0.06654117 -0.0017260887 0.00070812367
0001b0 39 59 a1 3d db 61 ef 3c b8 b7 56 3d 90 40 58 3d
       0.07878346 0.029221466 0.0524213 0.052795947
0001c0 6e 68 29 3c 44 7e 52 bd 43 78 44 bd 1f 03 8b bd
       0.010339839 -0.051389948 -0.047966253 -0.06787705
0001d0 b6 0d 6e 3d e2 ea 6d 3c 9f e8 ed bd 26 70 66 bd
       0.058118545 0.014521332 -0.116166346 -0.056259297
0001e0 4a b1 d0 3c 5d 2a a5 3a 81 ec e5 3c a0 8d 6a 3d
       0.025475163 0.0012601126 0.028066875 0.05726397
0001f0 78 93 d5 3d e6 a0 9c bc da 95 0c bc ec 89 07 3d
       0.10428518 -0.019119691 -0.008580649 0.033090517
000200 ea ef 02 bb 65 43 25 3d 07 a9 2c bd e2 18 6e 3d
       -0.0019979426 0.040347476 -0.042153385 0.0581292
000210 28 a4 24 bd 42 c7 77 bc 6e da f6 3c df 89 33 bd
       -0.040195614 -0.01512319 0.030133452 -0.043832656
000220 24 55 86 ba 1f f8 25 3c ca 57 e7 bc 0f b3 1c bd
       -0.0010248763 0.010129957 -0.028240103 -0.0382567
000230 86 b9 53 bc 33 3d 0c 3b 29 58 3a bd 6c 7d b3 bc
       -0.01292265 0.0021398782 -0.045494232 -0.021910392
000240 be 25 18 3d b5 53 90 3d 2e 68 94 bd dc 34 65 3c
       0.03714537 0.07047216 -0.07246433 0.013989653
000250 95 7b 33 3d 49 da 86 bb 72 86 18 bd 47 37 e9 bb
       0.04381903 -0.004115377 -0.037237592 -0.0071171853
000260 2f 6d e0 bc b3 6c 24 3d 53 54 9a 3d fc 78 7f 3d
       -0.027395813 0.040142726 0.07535615 0.06237124
000270 a3 f5 37 bd 8c 5c 5d 3c c2 ba 50 3d aa b8 8c 3d
       -0.04491199 0.013510834 0.050959356 0.068711594
000280 2d 1f 16 3c 1a 69 d7 bd 54 96 bf bb 2a ab 68 3d
       0.009162706 -0.105180934 -0.005846778 0.05680386
000290 cb dc d5 3b 49 bb 06 3d 1f cd 85 bc d9 60 26 bd
       0.0065265647 0.032893453 -0.01633316 -0.040619705
0002a0 2c 99 1a bd ac 20 82 3c 97 f5 7c 3c d7 02 41 3d
       -0.037743732 0.01588472 0.015439413 0.04712185
0002b0 49 10 76 3a ed 96 69 3d d6 04 9c 39 46 b6 89 3d
       0.0009386582 0.0570287 0.00029758242 0.06724219
0002c0 ff b5 0e 3c 2a 94 83 bd 70 c7 9d bd 23 34 a8 3c
       0.008710383 -0.064247444 -0.07704055 0.020532673
0002d0 77 c2 a8 bd 29 77 b6 bc b0 98 45 bd 0b 7f 4c 3d
       -0.08240216 -0.022273617 -0.048241317 0.049925845
0002e0 8a 04 f6 bd 9e 4e dd bb 88 b5 6c bd ed 2f 8f bc
       -0.120125845 -0.0067537567 -0.05779031 -0.017478907
0002f0 54 ba 15 bd bf ef 3f bb 19 dc 32 bd 36 48 96 bd
       -0.03655465 -0.0029287187 -0.043666933 -0.07337992
000300 6b 99 fa bd df 6f a9 bd ef e8 ae 3c 24 60 4d 3d
       -0.122362934 -0.08273291 0.021351306 0.050140515
000310 02 8b 9c 3b e4 9b 1c bd 44 80 6b bd 84 11 00 bc
       0.004777313 -0.038234606 -0.05749537 -0.007816676
000320 29 d3 f7 bc 86 e7 2d 3d fa 00 53 3c 8b 9e d4 bd
       -0.030252056 0.042457126 0.012878651 -0.10381802
000330 3b ae 3d 3c 99 ce 4f 3b 18 be d1 bd 75 24 8c bd
       0.011577184 0.0031708835 -0.10241336 -0.06842891
000340 e3 51 c9 bd c7 61 29 bd 74 fc 50 3d 82 6d 11 bb
       -0.09830072 -0.041353013 0.051022008 -0.0022190516
000350 c7 da 1e bd b8 fd a0 ba 0a 16 2a bd d6 82 77 3d
       -0.03878286 -0.0012282645 -0.041524924 0.06042751
000360 f1 8e ec bc 6e ee 62 3d 8d 70 99 bd d2 a4 75 3b
       -0.028876754 0.055403166 -0.074921705 0.0037482274
000370 91 9e 1d 3c ea 15 e0 bd 42 04 3e 3d fe 6c 36 3d
       0.009620325 -0.1094168 0.04639078 0.044537537
000380 5a 30 b2 3c 35 b4 51 3c 9d 31 73 bd 3c 0b ee 3c
       0.021751571 0.012799312 -0.059373487 0.029058091
000390 96 88 28 bc 00 e9 1e 3d 38 6a 04 be 5a 35 fa 3b
       -0.010286471 0.038796425 -0.12931144 0.0076357545
0003a0 97 f1 91 3d 66 1d ed bc bf 02 82 bd 7e 41 8a 3d
       0.07126158 -0.028944682 -0.0634818 0.06750773
0003b0 7e 44 ba 3c 43 5e 13 bd bb 43 91 bd 87 51 21 bc
       0.022737738 -0.035978567 -0.07092997 -0.009846098
0003c0 d8 4e 3f bd 4c c3 59 bc b1 9a 67 bd 88 2e 2e 3d
       -0.04670605 -0.013291191 -0.05654401 0.042524844
0003d0 78 3a e0 3d f9 6b 36 3c b6 b3 bb bd 0c 8d ed 3c
       0.10948652 0.011134141 -0.091651365 0.02899792
0003e0 c9 0c 11 bc b9 3d 4d bd c7 ff 4e 3c 92 c6 a1 bd
       -0.008853146 -0.05010769 0.012634224 -0.078992024
0003f0 04 6d ea bc 91 5d 0b bd 71 42 7c 3d 40 df b2 3b
       -0.028616436 -0.03402478 0.0615868 0.0054587424

mlp_stack.Linear1.bias f4 [256]
000000 72 38 85 3d ef 90 76 3d 74 28 97 3d dd f2 29 bc
       0.06504907 0.060196813 0.07380763 -0.0103728445
000010 c9 3d 23 3d e3 c2 b6 3c 38 0e 17 b9 4c 4a 44 3d
       0.039853845 0.022309726 -0.00014405779 0.047922418
000020 b0 94 02 3d 07 3e a5 bd 8c eb 80 bd 4f a3 77 3c
       0.03188008 -0.080684714 -0.06294927 0.015114619
000030 a6 a0 98 bd e0 7a 3b bd e1 d4 ba 3b e3 d0 ab 3d
       -0.07452516 -0.04577148 0.0057016467 0.08389451
000040 29 47 86 bd 49 94 d0 bd 31 a0 f8 bc 62 25 62 3d
       -0.065565415 -0.10184533 -0.030349823 0.055211432
000050 b7 6d 41 bd 5b 7b c1 3c 33 a1 7f bd d6 71 36 bd
       -0.047223773 0.02361839 -0.06240959 -0.044542156
000060 75 6a 19 3a 28 70 4b 3b 3f c2 3b bd b9 d3 bf 3c
       0.000585235 0.0031042192 -0.045839544 0.023416387
000070 8e c4 8a bd 70 f3 0d 3d 8e a5 98 3b 85 9d 07 3b
       -0.06775771 0.03465599 0.0046584075 0.0020693254
000080 17 cb 87 3d e2 1f f9 bc ad c9 bf 3c 68 d3 24 3d
       0.06630533 -0.03041071 0.023411596 0.040240675
000090 9d 01 3c bc 76 d8 13 3d bd b2 c0 3c a8 ff 6e 3d
       -0.011474994 0.036095105 0.023522729 0.05834928
0000a0 b9 14 56 3d 30 18 0b 3c 7b 89 a1 bc 9e f8 64 bd
       0.052265856 0.0084896535 -0.019718876 -0.055901162
0000b0 06 84 18 3e bb 5c 11 bc 58 f1 ba b7 e5 3e 5c bc
       0.14894113 -0.008872206 -2.2285312e-05 -0.01344273
0000c0 0e a0 92 b9 71 ac 1d 3d 22 ea d8 bc 65 a9 92 bb
       -0.0002796654 0.03849453 -0.02647883 -0.00447576
0000d0 b3 c9 2a 3d dc f0 b8 bd 1c 66 4c 3d 6e ea f6 bb
       0.04169626 -0.09030315 0.049902067 -0.0075352704
0000e0 c0 4a c4 3c a6 71 a9 ba 8c 69 3a 3d 6e 14 ab bc
       0.023961425 -0.0012927547 0.045510814 -0.020883765
0000f0 ef 15 4a bd 77 ed 81 3d 17 67 29 ba 67 12 af bc
       -0.049337324 0.06344121 -0.00064622 -0.02137108
000100 4e 8d 8f 3c b1 4f af bd 45 0d 4e bd ac 98 aa 3b
       0.017523434 -0.08560122 -0.050305624 0.005206188
000110 e3 52 3c 3d 97 a5 18 bd 3c 7a af bd 18 49 da bc
       0.045977484 -0.037267294 -0.08568236 -0.026646182
000120 35 80 06 3d 10 a8 42 bd 8d d8 ea 3c 1a de 84 3d
       0.03283711 -0.04752356 0.028667713 0.06487675
000130 4c a8 da 3c c9 32 8d bc 48 ca 2f 3c e3 38 aa bd
       0.026691578 -0.01723613 0.01072938 -0.083116315
000140 65 9e 89 bd f8 71 cf 3c 6e 5b de 3c 71 b9 84 b9
       -0.067196645 0.0253229 0.027143206 -0.00025315167
000150 b6 e1 03 bd ef dc 46 3d bf 75 9b ba 79 fa 4c 3d
       -0.032197677 0.048550542 -0.0011860653 0.050043557
000160 de be a4 3c 15 36 85 bd be 2c 47 3d 70 2a d7 bc
       0.020110544 -0.06504456 0.048626654 -0.026265353
000170 ec 00 3e 3d 96 e8 5b bd 18 94 00 3c 9c 23 9d 3d
       0.046387598 -0.053688608 0.007847808 0.076728076
000180 93 be 95 3b 0e 3c 1f bd f8 8f 50 3d b7 53 3f bd
       0.0045698374 -0.038875632 0.05091855 -0.046710696
000190 17 1e 60 bd 36 ac 98 bc 19 13 a3 3c fd fa 5d 3c
       -0.054716196 -0.018636804 0.019906567 0.01354861
0001a0 e4 8a 61 bd d8 90 99 bb 6d d0 af 3d 48 ba 17 3d
       -0.055064097 -0.004686456 0.08584676 0.037042886
0001b0 66 22 3b bd 5a da 29 bd 01 09 87 bd 67 c8 7f 3d
       -0.0456871 -0.041468002 -0.06593514 0.062446978
0001c0 74 f7 73 3c be 27 80 3c f2 74 40 3d 8d 82 13 bd
       0.01489054 0.01564395 0.046986528 -0.036013175
0001d0 71 08 b0 bd f7 62 20 bd 45 1f 13 bc 80 a7 7b bc
       -0.0859536 -0.03915688 -0.008979623 -0.015359759
0001e0 e8 88 d2 38 7c 69 7e bc a2 54 73 bc 9e 83 b1 3d
       0.00010039081 -0.015528079 -0.014851721 0.08667682
0001f0 1f c2 0d 3d f2 ec 90 bd f4 47 dd bc 0f 0c d3 3c
       0.034608956 -0.07076444 -0.027011849 0.025762586
000200 a3 bf 4f bb 10 f5 9a 3d 63 77 85 bd 8c f9 0d 3d
       -0.0031699918 0.07566273 -0.06516912 0.034661815
000210 ea 1a 55 3d b4 9d 7a 3c 87 d9 90 bc 77 a1 b7 3d
       0.05202762 0.015296388 -0.01768185 0.08966344
000220 25 73 de 3d a0 b0 6e 3d b9 dd c6 bd 12 d2 a1 3c
       0.10861806 0.05827391 -0.09710259 0.01975349
000230 a5 02 a2 bd c8 f9 76 bd cb db 80 bd 47 dc ce 3a
       -0.07910661 -0.060296804 -0.06291922 0.00157822
000240 63 1c 83 bc 92 b4 a9 bd e5 4c 06 3d 50 3b c7 3c
       -0.016004747 -0.08286394 0.032788176 0.024320275
000250 02 5d be 3b 21 29 94 3c c8 ea 80 bc 78 96 3f 3d
       0.0058094272 0.018086018 -0.015736952 0.046774358
000260 79 cc 58 bd 3f 27 bd 3c fa f5 9c 3c 6a d3 0b bd
       -0.052929375 0.023090003 0.01916026 -0.034137167
000270 b1 ce 67 3c ed 61 83 bd d4 e3 01 bd 6a ed e7 3c
       0.0141484 -0.06415162 -0.031711414 0.02831145
000280 c1 2d 41 bd b1 12 ee bc cc 38 8d bc fa b8 17 bd
       -0.047162775 -0.029061647 -0.017238997 -0.03704164
000290 3f 1d ed 3c 31 de cb ba c5 c2 34 3d 17 f8 9e 3d
       0.02894461 -0.0015553889 0.04413106 0.07762163
0002a0 5a 72 8f 3d 7c 31 4b bc ce d8 9c 3d 09 05 21 bd
       0.07004233 -0.012401935 0.0765854 -0.039311443
0002b0 98 6c 16 bd 5d 74 86 3c 83 26 9f bd 6d 66 69 bd
       -0.036724657 0.016412908 -0.077710174 -0.056982446
0002c0 3d 9f c4 3d 90 b0 06 3d 33 5d 55 3d 94 a5 96 bd
       0.09600685 0.032883227 0.052090835 -0.073558
0002d0 5c 4c 9e 3c 95 cc 5a 3c 79 23 d0 3b 59 73 48 bc
       0.01932352 0.01335444 0.006351885 -0.012234532
0002e0 97 b2 7e 3d e1 6e a4 bd c8 ea 4b 3d de 18 ad 3b
       0.062182035 -0.08028961 0.04978445 0.0052825054
0002f0 b4 f6 f1 3d c9 6c 8d bd c0 5c 3d 3d 82 0b ee 3b
       0.11814633 -0.06905515 0.04623103 0.0072645554
000300 c4 96 89 bb 04 a3 43 3a 7d 87 ca 3c a5 87 68 3d
       -0.004198881 0.0007462951 0.024722809 0.056769986
000310 82 69 62 3c 8f d1 5f bd 83 82 92 3d 45 b0 5e 3c
       0.0138191 -0.05464321 0.071537994 0.013591831
000320 3c 16 63 bd fc ad 2d bd 23 46 d9 3c ab b5 82 3d
       -0.055441126 -0.042402253 0.026522702 0.06382307
000330 45 95 8f bd 97 d5 91 3c 18 15 24 3d 96 f6 95 3b
       -0.07010893 0.017802043 0.04005918 0.0045765145
000340 04 ad 3e bb d6 f2 6d 3d 63 3e 83 3d a8 0e 04 3d
       -0.0029094825 0.058092915 0.06408384 0.03224054
000350 51 31 1b 3d 3c 85 2a 3d 71 7a 2b bd 8c 9b 59 3c
       0.03788883 0.04163097 -0.041864816 0.013281714
000360 f6 29 e8 3c de d1 e7 bd 9d 89 3c bd b0 81 e2 bc
       0.028340321 -0.11319326 -0.046029676 -0.02764973
000370 28 0b a9 bc 78 ef 93 bd c4 c3 03 3b c2 71 83 3d
       -0.020635203 -0.072234094 0.00201057 0.06418182
000380 f1 d7 34 3c fe c9 c8 bb 47 76 90 bc e6 92 ed bc
       0.011037813 -0.006127595 -0.017634524 -0.02900071
000390 7d b0 d4 bb 9e b7 b6 3b 0e 76 02 3d 12 8c a7 bc
       -0.0064907656 0.005576088 0.031850867 -0.020452533
0003a0 84 6c 6f bc 45 72 76 bc 63 c3 d0 3b 33 de 8e 3c
       -0.0146132745 -0.015041892 0.006370948 0.017439937
0003b0 aa a9 9a 3c c8 72 42 bd 57 58 0c bc f6 f7 ad 3c
       0.01887973 -0.047472745 -0.008565984 0.021236401
0003c0 50 61 32 3d f1 b1 7d 3d df 34 2b bd cc 76 49 bb
       0.043549836 0.061937276 -0.04179847 -0.0030740974
0003d0 0d 15 8b ba db 6b 08 3d d8 47 06 bd a0 9c e6 3c
       -0.0010611132 0.033305984 -0.03278336 0.028150856
0003e0 2d 2a a0 bc e8 d9 b6 3d 81 e1 48 bd 25 4a 0c 3d
       -0.019551361 0.08928281 -0.049043182 0.034250397
0003f0 36 14 97 3c 78 de 8c 3d 24 3c 8f bd ae a1 7e bc
       0.018442255 0.0687837 -0.06993893 -0.015541477

mlp_stack.Linear2.weight f4 [128, 256]
000000 c3 2e 31 3c 68 24 24 bd 2d 97 34 bd 47 99 03 bd
       0.0108143715 -0.040073782 -0.044089485 -0.0321286
000010 22 5d 72 bc 60 e6 06 b9 b9 bb 42 bd 65 04 85 3d
       -0.014792712 -0.00012865057 -0.047542308 0.06494979
000020 90 83 9d bc a9 af fe 3d 5c c5 98 3c 01 af 2d 3d
       -0.019227773 0.12435848 0.018648796 0.042403225
000030 8e ac 74 bc 8d 25 f9 bc de d4 1c bd 98 d9 86 3d
       -0.014933718 -0.030413413 -0.038288943 0.065844715
000040 87 75 b7 3d ad 84 69 bc 91 d8 c7 3d c1 f6 09 3d
       0.089579634 -0.014252824 0.09758104 0.03368259
000050 b5 9d fc bc 42 f2 68 3c 61 be b3 3c 8d 45 84 3d
       -0.03083692 0.014217915 0.021941366 0.06458578
000060 0d 3a 73 3d 09 d9 9c 3d 17 55 df 3d f0 42 3e 3d
       0.059381533 0.07658584 0.109049015 0.046450555
000070 a1 f6 3c bd fd 57 ba 3c be 18 be bc 1d 4c 0f 3d
       -0.04613364 0.022747034 -0.023205157 0.034984697
000080 e1 d5 8b bc 7d 26 8c bc 08 9a 91 bc 62 7e 70 bc
       -0.017069759 -0.017108196 -0.017773643 -0.0146785695
000090 98 e0 01 3c 56 9e f8 3d 4a 5d 63 bd c6 59 71 bd
       0.0079270825 0.12139575 -0.05550889 -0.058923505
0000a0 d6 c5 81 bd 37 9e 02 3d 68 28 94 3c c5 db cf 3c
       -0.06336562 0.031889167 0.018085673 0.025373349
0000b0 2e ac b5 3c 3b 53 94 bc a2 2d b9 bd 9f 67 78 bd
       0.022176828 -0.018106094 -0.09041907 -0.060645696
0000c0 60 43 77 bd d1 1c 3d 3c 20 5f 53 3c cb 38 47 bd
       -0.06036699 0.011542515 0.012901098 -0.048638146
0000d0 9e 58 92 3c 68 e4 cc 3d 80 31 8c 3d 4e a5 ab bc
       0.017864522 0.100045025 0.06845379 -0.020952847
0000e0 ab ca 48 bd 1f 5f ae 3d 4d 17 74 3c 92 ac 8f 3b
       -0.049021404 0.08514237 0.014898133 0.0043845857
0000f0 96 45 d4 3d de ca ea 3c 82 78 a4 bd d5 3e e4 3d
       0.10364835 0.028661188 -0.080307975 0.11144797
000100 77 e6 d7 3c 19 d3 9e 3d a2 89 52 3d 41 5d 1c 3e
       0.026355011 0.077551074 0.051400788 0.15269949
000110 38 5e 89 3d 34 bd 3d 3d 83 35 58 3c dd 53 e5 bd
       0.06707424 0.046323016 0.013196352 -0.11197636
000120 bb 8b 90 3d 45 ed 87 bc 00 23 fd bc af c6 5a bd
       0.070579015 -0.016592631 -0.030900478 -0.053412136
000130 65 20 9a bd e7 de 9c 3d 56 a5 ca 3d 88 55 a3 bd
       -0.0752571 0.07659703 0.098948166 -0.07975298
000140 da 38 fa 3d 9b 74 3a bd 57 78 b3 bd 51 f9 03 bd
       0.12217875 -0.04552136 -0.087631874 -0.03222019
000150 c7 a2 8f 3c 64 85 5b bd 35 c9 ec 3c a6 c2 54 3d
       0.017533673 -0.053594008 0.028904537 0.051943444
000160 3c ae f6 3c 70 7f 64 bc f8 05 16 3d ec 28 3f bd
       0.030112378 -0.013946399 0.036626786 -0.046669886
000170 20 de 52 3c fe 9c 51 3d 6b 76 ec 3d 10 de 9e bd
       0.012870342 0.05117511 0.11546024 -0.07757199
000180 19 f1 15 bc 13 18 e0 3d a7 a5 8d 3d 09 25 d7 3d
       -0.00915172 0.10942092 0.06916361 0.10505111
000190 c7 56 13 3d 1b 7b 60 3d 27 7b 84 3d 5b 83 99 bd
       0.03597143 0.054804903 0.06468802 -0.07495757
0001a0 51 7b f7 3b 20 0a bc 3c ab 74 a2 bd 5d 8d 85 3c
       0.0075525423 0.022954047 -0.07932409 0.016302759
0001b0 98 fe 2f 3d ad bb 83 3d fe 13 41 bc e2 38 f8 3d
       0.04296741 0.06432281 -0.011784552 0.121202245
0001c0 c9 4f 4e bd d9 5c d3 bd 08 b0 78 bd c4 c1 07 3e
       -0.050369058 -0.10320444 -0.06071475 0.1325751
0001d0 ca ac 01 3e 8a 15 3b 3d fe e5 7a 3d c7 b1 61 3d
       0.1266357 0.045674838 0.061254494 0.055101182
0001e0 80 a2 01 3e 40 21 76 3c 95 32 22 3c fc 0e d8 bc
       0.12659645 0.015022576 0.009899755 -0.026374333
0001f0 d8 36 7d bc 54 6c ae 3a ee 0a ac bd f3 2d 64 3c
       -0.01545497 0.0013307431 -0.08400522 0.013926971
000200 7f 73 8c 3d da 62 a4 bc c4 b8 f1 bc a1 f8 81 3d
       0.06857967 -0.020066667 -0.029507048 0.0634625
000210 5b 4d 73 3d b0 93 f5 bc 52 0d df bc d6 6a fc bc
       0.059399944 -0.02997765 -0.027228031 -0.030812662
000220 1a 3c 0b bd b9 7c bd bc 9d 31 22 3b 1d 0d 51 3d
       -0.033992864 -0.023130761 0.002474881 0.051037896
000230 5b 41 7c 3d 0d 8f e9 3c 53 4e ae bd 2d 3b 85 bd
       0.061585765 0.028510595 -0.08511033 -0.065054275
000240 a6 20 93 3d 60 b3 13 bd a7 9c 58 3d 07 40 fc bc
       0.071839616 -0.036059737 0.05288377 -0.03079225
000250 54 ff 41 bd 5e 67 9d bd 92 9d 59 bc c6 a2 97 bb
       -0.04736264 -0.07685731 -0.013282197 -0.0046275584
000260 10 ee 83 3d b6 9f a7 bd c8 e2 41 bc f6 b4 ce 3d
       0.06441891 -0.08184759 -0.011833854 0.10093109
000270 53 b0 bf bd a2 2c 5d bd e6 4d 52 bd 6c 8b a0 3d
       -0.09359803 -0.053997643 -0.05134382 0.078390926
000280 d1 66 57 bc c8 31 e9 3b f6 2d 2f 3d a3 b6 33 bd
       -0.013147072 0.00711653 0.04276844 -0.043875348
000290 2a 3c 6b bc e1 e7 b0 3d c6 68 68 bd 32 83 f1 bd
       -0.014357606 0.086379774 -0.056740545 -0.11792602
0002a0 e0 6e e8 3a 67 21 8e 3c ec b1 ac 3c a2 86 d5 3d
       0.0017733239 0.017349912 0.021080934 0.1042607
0002b0 dd 54 12 3e 5b 6a 7d 3d 5c 9f 7c 3d a6 c1 35 3e
       0.14290185 0.061869007 0.061675414 0.17749652
0002c0 78 60 49 3d 12 b8 71 3d d0 f4 6f 3d 78 91 0b 3d
       0.049164265 0.059013434 0.05858308 0.034074277
0002d0 c8 e3 57 3d 29 0a a3 3d 04 13 dc 3d 65 d0 6d 3d
       0.052707464 0.07960922 0.107458144 0.05806007
0002e0 82 c7 1b bb 24 a5 4c bc 62 d8 78 3d 2a 3b 39 bd
       -0.002377004 -0.0124905445 0.060753234 -0.04522244
0002f0 ef 63 46 39 22 6c c3 bc d1 a5 90 bd ef 43 76 3d
       0.0001891998 -0.023855273 -0.07062877 0.06012338
000300 6e cd 3b 3d 28 db 63 3d e8 89 a5 3c a0 97 75 b9
       0.04585021 0.055628926 0.02020736 -0.00023421505
000310 66 68 0d bd d2 e0 2d 3d ae 0f 85 bd 5d 56 3f bd
       -0.03452339 0.042450733 -0.06497131 -0.04671322
000320 f8 be 8f bd 4a 9e 88 3d e7 01 13 3d e7 63 1a 3d
       -0.07018846 0.06670816 0.035890486 0.03769293
000330 a5 5b 08 3d 2f 68 ea 3c 74 04 d9 3b 40 67 20 3d
       0.033290524 0.028614132 0.0066228453 0.039160967
000340 94 00 13 3d c9 79 9a bd 90 16 06 bd 6d a2 dc 3d
       0.035889223 -0.0754276 -0.03273636 0.10773168
000350 24 98 28 3d 08 89 7a bd 19 f9 63 bd 7d b4 06 3d
       0.041160718 -0.06116584 -0.05565748 0.03288697
000360 da 10 a8 3d f5 b8 db 3d 41 18 33 3e ac e5 64 3c
       0.08206339 0.10728637 0.17489721 0.013970774
000370 35 00 1b bb 53 3e 0b 3e 02 43 d5 3b 59 8c 89 bd
       -0.0023651246 0.13597994 0.006508232 -0.06716222
000380 50 d8 88 3d 79 e1 fb bb 9b 4b 95 3d 4b a9 e9 3c
       0.06681883 -0.0076867905 0.07289811 0.028523108
000390 7e e7 c2 3d 1e ca 83 bd 31 a1 20 3d 42 a3 3e bd
       0.0951681 -0.06435035 0.039216224 -0.046542414
0003a0 e3 56 77 3d 46 82 c2 3c 8a ca e2 bd 1f 94 13 3d
       0.060385596 0.02374376 -0.110737875 0.03602993
0003b0 8b 0a 9b bc 28 13 cf 3d 6e 38 e2 bc 53 24 1d 3d
       -0.018925926 0.10111076 -0.027614798 0.03836472
0003c0 ad 06 0e bc 49 02 9f bd 2d 8d 44 3d f1 e8 36 3c
       -0.008668584 -0.07764108 0.0479862 0.011163936
0003d0 4f 10 e2 3d 6a 16 a7 3b 75 e8 09 bd 97 23 ba bd
       0.11038267 0.0050991075 -0.033668954 -0.090888195
0003e0 eb 6b 0c 3d 5d 9d 7e bd 40 08 be 3d e1 8c b0 3d
       0.034282606 -0.062161792 0.09278917 0.086206205
0003f0 cd ab a2 bd 80 dd f3 bc c5 a5 8e 3d d6 3b da 3c
       -0.07942925 -0.029768705 0.06965212 0.02663986

mlp_stack.Linear2.bias f4 [128]
000000 70 d4 14 bd 9a 82 b9 3d 25 62 d4 3d e2 c4 8f 3c
       -0.03633541 0.090581134 0.10370282 0.017549936
000010 dd a1 3c 3c 5d db 74 3d 72 f1 88 3d a7 bd ee bc
       0.011513201 0.059779514 0.06686677 -0.029143168
000020 2f 7f e3 3d 8c cc c0 3c 73 2f 7f 3d 1f 40 2a 3d
       0.11108243 0.023535036 0.06230111 0.041565057
000030 aa f4 de bc 08 18 3a 3c 9d 89 99 3c 42 71 89 3d
       -0.027216274 0.011358269 0.018742377 0.06711055
000040 7a a3 4e 3c c6 d6 ea bc 7c 30 cd 3c 5e 2c 85 3b
       0.012612218 -0.028666865 0.025047533 0.004064127
000050 1c f2 01 3c 51 89 4d 3c 0f bf 80 3b b6 4a f4 3c
       0.0079312585 0.012544946 0.003929026 0.029820781
000060 cc 7c 45 ba 9f 64 2f bc 71 c9 5c 3d d4 7d ea bb
       -0.000753355 -0.010705142 0.053903047 -0.007156113
000070 a4 c2 45 3d 8f 79 a1 bb 1a ea dc 3d ac e7 ff bc
       0.048281327 -0.004927821 0.10786839 -0.0312384
000080 1c 7f 92 3d f6 14 4d 3d 65 f6 51 3c f2 b5 03 bb
       0.071531504 0.050068818 0.012815093 -0.0020097462
000090 8f 6e 00 bd 96 4d 32 3d a8 bd cf bb aa 8f a2 3b
       -0.031355437 0.043531023 -0.0063397475 0.0049609737
0000a0 1c 73 11 3d 8a 4d dc 3d 21 8b da bc de 03 9e bc
       0.035510167 0.10756977 -0.02667767 -0.019288953
0000b0 d1 4b 87 3d 9c c3 a6 3c 86 61 8b 3d 55 2a a1 3d
       0.06606258 0.020356946 0.068057105 0.07869402
0000c0 e8 1f a5 3b 93 77 b4 3d bd be 84 3d ed f8 80 bc
       0.005039204 0.088118695 0.06481693 -0.015743697
0000d0 07 b7 17 bb c4 7b 29 3d d2 41 0f 3d 1a 26 5f 3c
       -0.0023149864 0.041377798 0.03497488 0.013619924
0000e0 25 c4 04 ba 78 0d 9b 3d 99 30 53 3d a5 e4 b9 3d
       -0.0005064628 0.07570928 0.05156002 0.090768136
0000f0 19 fe 1f 3c 76 89 06 3d 76 bf a2 3d cd 94 a9 3d
       0.009765171 0.032845937 0.079466745 0.082803346
000100 dc 34 eb 3d bc 90 bc bc 0f ee 53 3b 6d 83 bd bc
       0.114846915 -0.023018233 0.003233794 -0.023133958
000110 85 a8 16 3d b3 46 61 bc ee 9f 4a 3d a9 ba 80 bd
       0.036781806 -0.013749766 0.049468927 -0.062856026
000120 f7 0a 03 3d bc ce bf 3c 5e 1e 8d 3d c0 4b b2 bc
       0.03199288 0.023414008 0.06890558 -0.021764636
000130 49 40 8d 3d 6c 77 48 3d 28 f5 f0 bc a2 fe 73 3d
       0.06897027 0.048942015 -0.029413775 0.05956901
000140 b6 03 d3 3c 05 11 c8 bc 0c 6a d9 3c 34 b2 a3 3d
       0.025758605 -0.024422178 0.026539825 0.07992974
000150 82 af b1 3d 6d 36 dc 3d d3 ee 68 3d 82 f4 7a 3d
       0.086760536 0.107525684 0.056868386 0.061268337
000160 97 31 48 3d 2c 50 78 3c 41 ec 71 3b bb 1e 2f 3d
       0.048875418 0.015155833 0.00369145 0.042753916
000170 c9 92 cd bb bc e7 42 3d df 09 72 3d 05 92 38 3d
       -0.0062736017 0.04758428 0.059091445 0.04506113
000180 cd 04 c6 3d 86 e9 57 3d 7a 2a 09 3d a8 d5 9f 3d
       0.096688844 0.05271294 0.033487774 0.078044236
000190 1c c3 02 3d ce a4 8e 3c 60 12 d8 3d ba db 2b 3d
       0.031924352 0.01741257 0.1055038 0.041957594
0001a0 5f b8 8c 3d d7 2e a9 3d c1 04 15 3d 67 20 08 bd
       0.068711035 0.08260887 0.036381487 -0.033234026
0001b0 ea 1a 09 bc 48 67 fe 3b 7a 57 75 3d 12 83 fb 3d
       -0.008368233 0.007763777 0.059897877 0.12280859
0001c0 6f e5 db 3d 9b 74 ce 3d 91 0c 00 3d 3e f2 4f bd
       0.1073712 0.100808345 0.031261984 -0.05076813
0001d0 81 4b 1a 3d 8a e1 84 bd be 4c 2e 3d c7 c2 83 bc
       0.037669662 -0.06488331 0.042553656 -0.016084088
0001e0 b3 d9 ae 3c a1 6a 10 3d 61 a9 00 3d 6f 6b 12 3d
       0.021344041 0.03525794 0.031411532 0.035746988
0001f0 c4 72 b1 3d 4a 9c a7 3d 9c 9e c8 3d 2c f1 68 bb
       0.08664468 0.08184107 0.09795877 -0.003554414

mlp_stack.Linear3.weight f4 [1, 128]
000000 3f a1 19 3e 31 88 2e be 6c c7 f8 bd 1c fc cf 3d
       0.15002917 -0.1704414 -0.12147412 0.10155508
000010 ff b0 e6 bd 62 17 f6 bd 61 6c 16 3e 39 66 e0 3d
       -0.11264228 -0.12016179 0.14689781 0.109569974
000020 f8 cc 0b be a3 4d 03 3e e9 ad 14 be ce 1e f6 3d
       -0.13652408 0.12822585 -0.14519466 0.12017594
000030 f7 ee c2 bd 18 e6 38 bd 93 2e 14 3e a9 e8 17 be
       -0.09518235 -0.04514131 0.14470892 -0.14834847
000040 72 38 d1 3d c9 b9 e1 3d 51 85 e1 bd 76 d7 d6 3d
       0.10215844 0.11021764 -0.11011756 0.10490315
000050 c6 d7 ea 3d 2c 26 76 3e 98 0d 1c 3e 4b c7 fa 3d
       0.11466937 0.24037999 0.1523956 0.12245043
000060 02 0c 2a be b1 0f 2b 3e 64 7d ec 3d 4d b6 93 bc
       -0.16606143 0.16705205 0.11547354 -0.018031264
000070 fe 9b f2 bd 64 80 24 3e 88 7d 13 be 6c ba 0f 3e
       -0.118461594 0.16064602 -0.14403355 0.14035958
000080 40 48 49 be 31 99 da bd ca 5a 2e be 17 a8 3b be
       -0.19656467 -0.1067375 -0.17026821 -0.1832584
000090 61 27 11 3e 8b cd 01 3e ce 04 02 3e 33 c2 e6 bd
       0.14175178 0.12676065 0.12697145 -0.11267509
0000a0 4c 07 d0 3d 01 37 01 be 89 5c fc 3d 2a 64 0d 3e
       0.10157642 -0.12618639 0.12322337 0.13807741
0000b0 28 92 da 3d 3a e6 09 3e 47 20 39 3e f0 5e 47 be
       0.10672408 0.1346673 0.18078719 -0.1946981
0000c0 ba 1f 0c 3e ad fb e8 bd a2 db 0f 3e 35 1a e4 3d
       0.13683978 -0.11376128 0.14048627 0.11137811
0000d0 5f 56 85 bd 3e b6 ea 3d b5 a3 24 3e fe 62 29 be
       -0.065106146 0.11460541 0.16078074 -0.16541669
0000e0 d1 3f 17 be 7c 5f 33 3e 96 d7 14 3e 01 5b 2c be
       -0.14770438 0.17516893 0.14535365 -0.1683159
0000f0 1f 07 18 3e a7 cf 0d 3e 65 d2 d9 bd 14 1c 0b be
       0.14846466 0.13848744 -0.10635833 -0.1358493
000100 dc 44 23 be 07 96 ed 3d 3f 12 c3 3d fb 78 18 3e
       -0.15944237 0.11600881 0.095249645 0.148899
000110 ff 16 ec 3d 6b 04 31 3e dd 56 dc bd 84 4d 7e bb
       0.11527824 0.17286842 -0.10758755 -0.0038803527
000120 20 5b f7 bd 30 f2 cb bd 8a 74 19 be a5 83 0f 3c
       -0.120779276 -0.09958303 -0.14985862 0.008759414
000130 3d 26 0a be eb 4a da 3d 24 b8 04 3e ac e3 11 3e
       -0.13491149 0.10658821 0.12960869 0.14247006
000140 b6 b4 1f 3e 26 f0 02 3e a9 6d 1b be b6 3d 09 be
       0.1559628 0.12786922 -0.15178551 -0.13402447
000150 38 e0 1b be 5d c3 ef bd 2c c3 e0 bd e1 51 8b bd
       -0.15222251 -0.117071845 -0.10974726 -0.068027265
000160 45 a5 09 3e b0 55 ab 3d 29 15 da bd 02 48 26 be
       0.13441952 0.08365953 -0.10648567 -0.16238406
000170 c9 14 2f 3e 65 b2 04 be 34 55 c9 bd db 66 d6 3d
       0.17097773 -0.12958677 -0.09830704 0.10468837
000180 24 9b 2f be 18 66 c7 3d 05 f6 0e 3e 2c 10 41 3e
       -0.17149025 0.0973627 0.13961037 0.18853825
000190 8b e2 30 be 2e 7f f5 bd 38 82 e0 bd a2 b9 20 be
       -0.1727392 -0.11987148 -0.10962337 -0.15695813
0001a0 91 05 d7 bd 1d bc ea bd a7 c7 1f be 70 f7 a7 3d
       -0.104991086 -0.11461661 -0.15603505 0.08201492
0001b0 5d 41 1e be d4 ff ff 3d d6 b8 3a 3e 63 03 1b be
       -0.15454622 0.12499967 0.18234572 -0.1513801
0001c0 3d f1 0a be 69 92 f8 bd b8 cf 1d 3e 34 76 70 bd
       -0.13568588 -0.121373005 0.1541127 -0.058706477
0001d0 66 dd 1f be 8a f6 42 3c af 64 2d 3e f8 82 e7 3d
       -0.156118 0.0118996 0.16932939 0.11304277
0001e0 0f 02 58 be 57 fb 33 3e 8b e4 ed 3d 78 8e 38 be
       -0.21094535 0.17576347 0.11615857 -0.18023098
0001f0 40 d6 24 be b9 08 23 be 5d bb 08 be 12 ae bb 3d
       -0.16097355 -0.15921296 -0.13352723 0.09164061
