Programming Assignment/saved_models/regression-12_epoch=33-valid_loss=2982662400.00.ckpt (torch, 90383 bytes, 29 tensors)

_backbone.linear_layers.0.weight f4 [50, 58]
000000 75 b9 83 bf 12 54 ec 41 aa 94 92 c2 09 d6 4f c1
       -1.0290972 29.54105 -73.29036 -12.989755
000010 6c 26 ff 40 1f 1f dd c2 79 da 07 c1 4e 9c 6e 41
       7.97344 -110.56078 -8.490838 14.91316
000020 a5 c6 9a c1 6c 7f 9c c1 73 b5 09 42 3e cc 93 c1
       -19.346994 -19.562218 34.427197 -18.474728
000030 ed 0b b5 41 7e 27 9c 41 f5 89 b7 c1 68 99 ab 41
       22.630823 19.519283 -22.942362 21.449905
000040 a9 60 71 c2 a8 2a 0c 40 b3 34 7e 41 0f c2 81 c1
       -60.344395 2.1901035 15.887866 -16.219755
000050 7d 4b 69 c0 77 58 20 c1 96 cd 8d 41 1d 60 69 42
       -3.6452324 -10.021598 17.725384 58.34386
000060 8c 8d 82 40 b6 c7 3f 42 a1 ad 6f 42 8f fa 93 c1
       4.0797787 47.94503 59.91956 -18.497343
000070 9d 45 35 42 1d 86 cb 41 8c 3f 80 c2 7b 0c 14 42
       45.31798 25.440485 -64.124115 37.012188
000080 d9 76 0d c2 f7 58 95 42 09 42 61 3e 02 c9 23 c2
       -35.366062 74.67376 0.21997847 -40.946297
000090 1b f8 65 c2 c7 6a 26 c2 68 c2 8a 40 cb cc ab 42
       -57.49229 -41.604275 4.336231 85.89999
0000a0 33 37 7f c2 bd a4 0c c1 e6 16 53 c0 f5 3c e2 41
       -63.803905 -8.790219 -3.2982726 28.279764
0000b0 ec c8 f2 c0 dc 01 17 42 6c d2 5b 42 07 8c 52 42
       -7.5870266 37.751816 54.95549 52.636745
0000c0 40 3f 35 42 11 35 f4 41 a2 d8 3e c1 d7 cc c7 41
       45.311768 30.525911 -11.927889 24.97502
0000d0 cc 36 84 40 3f 7e 0f 42 57 eb ec c1 a1 a9 06 c2
       4.131689 35.873287 -29.614912 -33.665653
0000e0 f6 7c 60 c1 69 5a 48 42 06 33 26 bf 9e 14 e8 41
       -14.030508 50.08829 -0.64921606 29.010067
0000f0 c3 80 06 41 91 48 30 41 93 db fa 41 d1 f6 82 bf
       8.406436 11.017716 31.357214 -1.0231572
000100 bf 5f b6 c0 a3 cf 45 c0 9c a7 d1 40 18 78 b8 be
       -5.6991878 -3.0907981 6.55171 -0.36029124
000110 e7 75 70 c0 4b a9 d7 3f cb 3d 75 c0 14 59 1e 3f
       -3.7571962 1.6848539 -3.8318965 0.6185467
000120 7f 5b cf c0 7e ce 1a c1 c6 7b ea 40 8a 48 fd c0
       -6.479919 -9.675413 7.327609 -7.915105
000130 af bf c5 3f cd 4d db 40 71 77 13 c0 1a 60 df 3f
       1.5449122 6.853247 -2.3041651 1.7451203
000140 c6 41 86 41 3e aa 09 c0 e6 7e 81 c0 63 62 ce 41
       16.782116 -2.1510158 -4.0467405 25.79804
000150 e7 a0 ba c0 dc c1 88 c0 91 46 78 bf 74 1d 71 40
       -5.8321414 -4.2736645 -0.96982676 3.7674227
000160 24 7a 8f 3d 09 13 9a 40 9d 15 1b 40 fc 67 db bf
       0.07005718 4.8148236 2.4231942 -1.7141109
000170 62 32 1d c1 b5 fb f4 3f 07 5b 88 3f 08 26 88 3f
       -9.8248005 1.9139315 1.0652779 1.0636606
000180 e3 64 51 40 0b dd 94 c0 ac 67 6b 3f a8 13 84 c1
       3.2717826 -4.651983 0.91955066 -16.509598
000190 63 50 bc c1 ce 94 e9 be 26 3a 8e 40 ec 45 05 c0
       -23.539251 -0.4562134 4.444598 -2.0823927
0001a0 93 f1 ec bf b2 c8 f3 bf ef d4 9a bf f5 5e 5d c0
       -1.8511223 -1.9045622 -1.2096232 -3.4589207
0001b0 e5 d0 94 bf 7f 98 02 c1 6a e9 2a c1 c0 8a a1 c0
       -1.162625 -8.1622305 -10.681986 -5.0481873
0001c0 e9 aa 5f 40 5f 68 c6 40 fe c9 bb 40 2c 51 1e c1
       3.4948065 6.2002406 5.8684072 -9.894817
0001d0 c0 ed 86 c0 87 01 bb 40 f8 e9 02 40 52 10 ce 40
       -4.216522 5.8439364 2.0455303 6.439492
0001e0 68 95 71 c0 8f d5 38 c1 dd a9 94 40 97 f3 01 c1
       -3.774744 -11.552138 4.6457353 -8.12197
0001f0 f4 e7 1d 41 dc 69 df 40 da c9 09 c1 be 8d 01 41
       9.869129 6.9816723 -8.61178 8.097105
000200 2f 6c 05 c1 11 bd ed 40 3d 75 0b 40 be 2c 59 c0
       -8.338912 7.4293294 2.1790307 -3.3933558
000210 25 bc cf 40 f5 b9 cd c0 1c e0 98 40 0e 6f af 40
       6.491717 -6.42895 4.777357 5.4823065
000220 9a 8f 81 c0 8f 1a 05 41 44 02 de 40 ad b5 bd c0
       -4.0487795 8.318984 6.9377766 -5.928427
000230 7b ed c5 3f 67 28 a2 c0 50 d1 fc c0 3a 18 d5 40
       1.5463098 -5.067432 -7.900551 6.6592073
000240 fe 58 d5 c0 a0 da 71 c0 e6 6b dc 40 3a 4f 54 c0
       -6.6671133 -3.7789688 6.888171 -3.3173356
000250 e4 f5 d8 40 d8 c0 e5 c0 ad e4 3f 3f bb 19 c9 40
       6.780016 -7.1797905 0.74958307 6.284391
000260 f8 f3 1e 41 b4 60 dd 40 1b 45 c7 c0 24 31 dc c0
       9.934563 6.9180546 -6.2271857 -6.8809986
000270 ec c1 f3 40 75 a5 10 c1 9d 34 ea 40 3d 71 c6 c0
       7.617422 -9.040395 7.3189225 -6.201323
000280 1c 36 a9 40 43 bc b6 c0 cb 8b fa c0 13 b3 ed c0
       5.287855 -5.710481 -7.8295646 -7.4281096
000290 38 de de c0 60 06 e6 c0 96 be e1 40 b0 7c 3b 3e
       -6.9646263 -7.188278 7.054515 0.18309283
0002a0 d4 43 00 c0 a7 ab cc c0 ae 52 ed 40 21 1b eb 40
       -2.00414 -6.3959537 7.4163427 7.3470616
0002b0 c5 28 2d 40 7c 08 d5 c0 9c 2a 93 40 d0 dd 23 c1
       2.7056134 -6.6572857 4.5989513 -10.241653
0002c0 be 53 29 c0 90 15 16 c1 ca dd 32 41 a7 13 0e c1
       -2.6457362 -9.380264 11.179148 -8.879798
0002d0 68 2f 4d c1 16 13 55 41 ee 39 61 c1 24 0c 20 c1
       -12.824074 13.31716 -14.076643 -10.002964
0002e0 04 98 56 41 39 bf 43 c1 1d 3c 5a 41 7f ae 37 c0
       13.412113 -12.234185 13.639676 -2.8700254
0002f0 ad a2 cc c0 b2 ec 6a c1 39 c6 96 c0 37 51 d1 40
       -6.394858 -14.682787 -4.711697 6.541164
000300 0d a0 0e c1 75 33 84 c0 f6 f8 9a 40 5a 37 fe 3c
       -8.914075 -4.1312814 4.8428907 0.031032253
000310 ba 50 a7 c0 51 26 e4 40 5e 4d 97 c1 9e 91 01 41
       -5.2286043 7.1296773 -18.912777 8.098051
000320 ba c8 bc 40 0f d9 02 c1 0b 15 45 bf c7 17 1a 41
       5.8995028 -8.177993 -0.76985234 9.630805
000330 b6 8c 3d c1 12 b7 29 41 e7 7b 05 c1 4a 34 22 41
       -11.846853 10.607195 -8.34275 10.137766
000340 57 bb ac 40 70 e3 e5 c0 fa f6 b7 3e 3c 9b bf c0
       5.3978686 -7.1840134 0.35930616 -5.9876995
000350 ac d8 22 41 c6 7b 23 41 1a ff 28 be 6c 65 2c c0
       10.177898 10.217718 -0.16503564 -2.6936903
000360 32 33 a7 40 ea 65 18 41 cd b9 3e c0 74 f4 07 41
       5.2249994 9.524881 -2.9800904 8.497181
000370 dd aa c4 bd ba e6 ff 40 0b 73 d3 40 30 16 4c 41
       -0.09602902 7.996915 6.6077933 12.755417
000380 ae 38 50 c1 3e 81 04 41 ed 63 35 41 9d 07 cf 40
       -13.013838 8.281553 11.336896 6.4696794
000390 95 b2 45 c1 e8 49 80 c1 6b 1b 3b c1 a3 de 64 41
       -12.356099 -16.036087 -11.694194 14.304355
0003a0 22 33 3e c0 7d 88 be 40 bf 0f 60 40 b8 34 0f 41
       -2.971871 5.954161 3.500961 8.950371
0003b0 b8 98 c2 c0 3d bc 02 c1 b7 8a b8 40 15 a0 16 c1
       -6.0811424 -8.170957 5.766933 -9.414083
0003c0 51 b3 35 41 64 a3 02 41 02 fc 21 c1 f1 2f 17 41
       11.356278 8.16489 -10.124025 9.449204
0003d0 1b 01 1b c1 b8 62 0b 41 52 47 7a 40 81 de c5 3f
       -9.68777 8.711601 3.910603 1.5458528
0003e0 a0 ab a9 40 2f a1 ef c0 5d 87 d4 40 5f de 02 41
       5.3022003 -7.4884257 6.641524 8.17929
0003f0 09 26 76 c0 7a 63 02 41 b5 64 03 41 f6 6e cb c0
       -3.8460715 8.149286 8.212087 -6.357295

_backbone.linear_layers.0.bias f4 [50]
000000 63 41 e1 c0 54 24 31 41 bb 9d 8e 41 4d 8a 41 c1
       -7.039232 11.071369 17.827017 -12.096265
000010 90 09 96 41 50 c3 9c c0 49 9c 3b 41 75 41 de c1
       18.75467 -4.898842 11.725656 -27.781961
000020 5e b0 93 41 b2 3d 1a c1 7a aa 85 41 3a e1 a6 40
       18.461117 -9.640062 16.70824 5.2149935
000030 65 69 2a c2 11 a3 94 41 1a 88 d2 c0 48 f0 96 41
       -42.602924 18.579622 -6.579114 18.867325
000040 65 f0 85 41 a5 c5 10 c1 6f 17 97 41 4b ce 82 41
       16.74238 -9.048253 18.886442 16.350729
000050 fa 8f 96 41 df 97 ee 40 dc 5e 42 41 93 4d 49 c1
       18.820301 7.456039 12.148159 -12.581439
000060 b5 78 87 41 f5 4c 94 41 55 46 48 41 e6 15 93 41
       16.933939 18.537577 12.517171 18.385693
000070 dd ff 96 41 a8 f7 98 41 d3 2b 98 41 f3 4b 74 41
       18.874933 19.120926 19.021399 15.268542
000080 5f 00 99 41 a6 d7 82 41 c5 0b ae c0 7b ee a7 40
       19.125181 16.355297 -5.4389367 5.2478614
000090 82 3c 5c 42 45 45 95 41 aa 57 93 41 33 5a 14 c2
       55.05909 18.658823 18.417805 -37.088085
0000a0 73 05 95 41 51 78 95 41 9a 64 e0 c1 83 81 4b c1
       18.62766 18.683748 -28.049122 -12.719119
0000b0 c4 bb 33 41 8d 31 8d 41 a5 1f b7 c0 14 8f af 3f
       11.233341 17.649195 -5.722613 1.3715539
0000c0 57 17 8c 41 2f 66 c4 c1
       17.511396 -24.549894

_embedding_layer.cat_embedding_layers.0.weight f4 [13, 7]
000000 3e 8a f9 bc ad 66 2f bf ad d1 53 3f 01 34 d1 3f
       -0.030461427 -0.68516046 0.82741815 1.6343995
000010 dd a3 f4 be 15 1d 66 bc e4 44 7c bf a6 29 36 41
       -0.47781268 -0.01404502 -0.9854262 11.385168
000020 9a a3 52 c1 82 3d 74 41 1b 9e 2a 41 eb 20 23 c1
       -13.164942 15.265017 10.6636 -10.195537
000030 04 84 3e 41 a9 56 47 c1 8b 23 42 41 9a b4 2a c1
       11.90723 -12.458657 12.1336775 -10.669092
000040 a7 cf 4e 41 1f d5 2d 41 b2 de 33 c1 17 41 63 41
       12.925696 10.8645315 -11.241869 14.203391
000050 2f 0b 52 c1 6e 3d 97 41 d9 2f 4d c1 10 36 e0 40
       -13.12773 18.904995 -12.824182 7.0065994
000060 b5 41 2d 41 53 02 24 c1 54 b0 0f 41 b4 ef 17 c1
       10.828542 -10.250567 8.980549 -9.496021
000070 b7 1d 95 41 2c 38 26 c1 91 ca bb 40 16 55 7a 41
       18.63951 -10.388714 5.8684773 15.645773
000080 8d e3 ff c0 f2 fc 2b 41 a6 ac db c0 da 25 5a 40
       -7.996527 10.749254 -6.8648252 3.4085603
000090 de 21 37 c1 03 28 a0 41 87 61 6a 41 0a e8 90 c1
       -11.445768 20.019537 14.64881 -18.1133
0000a0 44 44 57 41 6d 2f 59 c1 22 f2 55 41 8f 7d 59 c1
       13.454166 -13.574079 13.371614 -13.593154
0000b0 ce c5 2b 41 53 74 40 41 25 67 58 c1 e3 55 29 41
       10.735792 12.028399 -13.525182 10.583468
0000c0 08 73 1c c1 80 03 66 41 9c 4c 52 c1 52 c5 20 41
       -9.778084 14.3758545 -13.143703 10.048174
0000d0 02 68 27 41 66 b0 45 c1 ee 63 1a 41 e4 a2 4d c1
       10.462893 -12.355566 9.649397 -12.852268
0000e0 35 19 72 41 8d 4d 1b c1 53 60 08 41 cb 3c 39 41
       15.131154 -9.706433 8.523517 11.577342
0000f0 90 45 28 c1 39 dd 58 41 a8 ff 5e c1 23 6f a0 40
       -10.516983 13.554009 -13.937416 5.0135665
000100 bb 38 5b c1 07 f9 6a 41 21 2b 44 41 22 14 2b c1
       -13.70135 14.685798 12.2605295 -10.692415
000110 a6 60 5a 41 f3 01 44 c1 c4 58 04 41 ed b8 38 c1
       13.648596 -12.250476 8.271671 -11.545148
000120 2c 00 53 41 92 79 3c 41 b9 3d 5d c1 f9 20 55 41
       13.187542 11.77968 -13.827569 13.32055
000130 8a 89 56 c1 62 bb c0 40 4a d9 73 c1 4b 1b 77 41
       -13.408579 6.022874 -15.240549 15.444163
000140 e2 f6 2a 41 e0 80 70 c1 71 ab 49 41 b7 f8 3b c1
       10.685274 -15.031464 12.604356 -11.748221
000150 a1 01 8b 41 50 fc 05 c1 f5 bc b0 40 1b ed 99 41
       17.375795 -8.3741 5.523066 19.240774
000160 5a 34 1b c1 20 dd 43 41 41 13 98 c0
       -9.700281 12.241486 -4.7523503

_embedding_layer.cat_embedding_layers.1.weight f4 [27, 14]
000000 a4 9b 19 3e 3c 94 f3 3f 9a cc 63 3f f4 b1 e3 be
       0.15000778 1.9029613 0.8898407 -0.44471705
000010 aa a7 a1 bd 73 1a 88 3f 37 57 e6 3f 29 50 f3 3e
       -0.078933075 1.0633072 1.7995366 0.47522095
000020 12 9d b5 be 05 be 90 bf 32 72 e2 3f 66 1e c6 3e
       -0.35471398 -1.1307989 1.76911 0.38695067
000030 65 4c 95 bf 2b 5b 70 3f 20 00 3c 41 38 b2 db bf
       -1.1663939 0.9388911 11.7500305 -1.7163763
000040 6a 1e fd 3d ad 84 b7 40 d8 fd 75 c0 da df d1 3f
       0.12359317 5.734946 -3.8436184 1.6396439
000050 61 b2 39 40 0a 2c 93 40 44 51 a6 40 a1 98 99 c1
       2.9015124 4.599126 5.19742 -19.199526
000060 91 f9 96 3f f1 94 2a c0 0f 08 09 42 75 ee 68 c0
       1.1794912 -2.6653407 34.25787 -3.6395543
000070 3e d8 36 40 2d 69 b6 40 a3 10 94 41 87 dc 98 c0
       2.8569484 5.700339 18.508123 -4.77692
000080 f3 99 fc c0 16 d9 8a 41 c4 98 6f 40 94 63 8f c1
       -7.8937926 17.355999 3.743699 -17.923622
000090 99 0d 57 41 f3 13 54 40 ad 8b bb 3f 41 f7 8d 40
       13.44082 3.3137176 1.4652001 4.4364324
0000a0 bd 8c b3 41 5b b2 b5 40 f1 18 f4 40 72 93 9d c1
       22.44372 5.678022 7.6280446 -19.696995
0000b0 48 8e 1c c1 34 d1 1f c1 66 e2 31 c1 00 a5 55 41
       -9.784737 -9.988575 -11.117773 13.352783
0000c0 3c 9f 19 41 26 cc 2f c1 d7 01 0e c1 95 f8 a5 41
       9.601376 -10.987341 -8.875449 20.746378
0000d0 86 98 39 40 ba 5e aa 41 d6 61 22 41 9d 70 7e c0
       2.8999343 21.296253 10.148886 -3.9756234
0000e0 15 cd f7 41 f5 3f eb 41 a8 3c 41 be 3b fd 6b 42
       30.975138 29.406229 -0.18870795 58.997295
0000f0 64 8e f9 c1 22 d2 5d 41 a8 18 fb 41 ff b0 b3 c1
       -31.194527 13.863802 31.38704 -22.461424
000100 77 78 94 41 97 b9 33 42 29 d9 f0 c1 65 38 55 41
       18.55882 44.93124 -30.106035 13.326268
000110 95 98 c0 c1 83 50 fa c1 b9 9e fc 3f 1a 3d 0f 3f
       -24.074503 -31.289312 1.9735938 0.5595261
000120 3a b7 a0 bf 52 fd 64 3f c2 9f c2 c0 84 95 da 40
       -1.2555916 0.89449036 -6.0820017 6.8307514
000130 30 5b a7 40 79 2e 07 c1 83 c7 4d 41 73 e4 7e 40
       5.2298813 -8.448846 12.861209 3.9826934
000140 a2 5e de c0 84 49 56 c0 87 55 a2 c1 70 24 05 c1
       -6.949052 -3.348237 -20.291761 -8.321396
000150 b5 74 82 40 75 23 14 41 c2 34 17 40 04 ac 32 41
       4.0767465 9.2586565 2.362595 11.166996
000160 83 ca 9f c1 03 c5 dd 40 5a 34 9d 41 05 c5 51 c1
       -19.973883 6.9302993 19.650562 -13.1106
000170 f8 11 7e 41 f6 84 fd 41 fb f6 e8 c1 80 22 b1 41
       15.879387 31.689922 -29.120596 22.141846
000180 1f aa e6 41 80 38 01 c2 50 d5 79 c1 fa 8e bb c0
       28.833067 -32.305176 -15.614578 -5.861203
000190 dd 52 04 41 c7 43 71 c0 34 e7 98 c0 a5 68 67 41
       8.27023 -3.7697618 -4.778223 14.463048
0001a0 0b 95 a5 40 d9 2c ec c1 37 e4 e8 41 da 23 e9 bf
       5.1744437 -29.521898 29.111433 -1.8214066
0001b0 3d ad cc c1 76 e1 8d c0 71 98 11 40 b5 4a 67 c1
       -25.584589 -4.433772 2.2749293 -14.455739
0001c0 03 92 3c 40 1b 96 4f c1 8b 1d e9 c0 1a 1c 25 c1
       2.9464118 -12.974147 -7.2848563 -10.319361
0001d0 cb 39 c1 3f 92 99 8c 40 13 03 83 40 46 46 b2 3f
       1.5095762 4.3937464 4.0941253 1.3927696
0001e0 48 ed 86 3f 71 4f 81 c0 e5 a2 e3 3f 76 e3 2e 3f
       1.0541162 -4.0409474 1.7784086 0.6831583
0001f0 82 75 55 c1 fe cd 1e 3f 05 df 13 41 db b9 69 c0
       -13.341188 0.6203307 9.241948 -3.6519687
000200 af ff 44 c1 5c a7 00 40 9a 3b 1f c1 5d 5e 99 40
       -12.312423 2.0102148 -9.952051 4.792769
000210 fa f6 f5 40 20 30 23 c1 fe f2 37 41 b5 ad 6e 41
       7.6863985 -10.199249 11.496824 14.917409
000220 60 13 22 c0 79 48 1e c1 37 16 3d 41 72 4a f2 c0
       -2.5324326 -9.8926935 11.817924 -7.5715876
000230 31 89 fb c0 cb 47 35 41 46 dd e0 41 c6 ea 85 c1
       -7.860497 11.330028 28.108044 -16.739635
000240 23 5f 24 41 c4 f2 6e 3f 63 60 79 c1 7c 66 a1 c0
       10.273227 0.9333918 -15.586032 -5.0437603
000250 66 0d a9 c0 7b 2f ee c1 2d 28 9c 40 2e e6 cb 41
       -5.2828856 -29.773184 4.8799043 25.487392
000260 66 d4 25 40 24 91 52 41 5d 5d b6 3f 6c d5 b0 c1
       2.5910888 13.160435 1.4247242 -22.10421
000270 b5 cf 62 bf dd 68 aa c1 e7 3b 33 3f 10 4e 70 41
       -0.88598186 -21.301203 0.7001328 15.019058
000280 19 b8 50 bf 42 11 87 c1 2a 6d 28 3f 50 8b 20 c1
       -0.8153091 -16.883427 0.6579157 -10.034012
000290 18 c0 f3 40 48 cc d0 c0 db 9b d0 c1 20 28 ba 40
       7.617199 -6.5249367 -26.076101 5.817398
0002a0 42 a5 ed c0 83 40 d7 c0 3d dd 18 c1 96 69 9c c0
       -7.426423 -6.726625 -9.554013 -4.887889
0002b0 a7 95 4f 40 35 84 4b c0 00 7c 3c c0 9c 74 db 3f
       3.243509 -3.1799443 -2.9450684 1.7144961
0002c0 4d d7 80 3f e3 a1 af 40 30 22 00 c1 81 1f 2e 40
       1.0065705 5.4885116 -8.008347 2.7206728
0002d0 fc 11 7a c1 9b 50 e8 c0 ea 94 0e 41 12 10 6a c1
       -15.629391 -7.2598395 8.911356 -14.628923
0002e0 d7 63 c4 c1 86 b7 2e c1 3f 00 f4 c0 fa 08 be c0
       -24.54875 -10.919806 -7.62503 -5.938596
0002f0 d3 bf d0 40 fe b0 96 40 c5 06 37 40 55 bc a0 41
       6.523416 4.7091055 2.8597882 20.091959
000300 77 00 09 c1 73 89 8d 41 56 10 e3 41 72 89 6f c1
       -8.5626135 17.692114 28.382977 -14.971056
000310 d4 7a a7 41 77 da 69 41 79 85 d5 41 0d c9 03 41
       20.934975 14.615836 26.690172 8.236585
000320 ba bc 95 c1 89 af b1 41 61 96 95 41 ef 11 a9 c1
       -18.717152 22.21071 18.698427 -21.133757
000330 78 75 8b 41 4b df 6d be 51 07 84 c0 e7 70 5f 41
       17.432358 -0.23229711 -4.125893 13.965064
000340 38 06 bd 41 db 24 b3 c0 f9 94 9a 41 f1 55 97 be
       23.628036 -5.598249 19.32274 -0.29557756
000350 08 44 6d c1 a7 61 90 40 c1 35 a0 c0 b7 83 37 3f
       -14.829109 4.5119205 -5.0065618 0.71685356
000360 8d 10 fe 40 fe 42 3b 41 ae 3e 82 40 7b 1d cd 40
       7.9395204 11.7038555 4.0701513 6.4098487
000370 15 92 9c 3f dd 5f 6f 40 5f a6 68 bf a4 f9 f2 c0
       1.2232081 3.740226 -0.9087886 -7.5929737
000380 17 76 ee 41 ca 78 df 3f b5 b2 20 41 97 ec 01 41
       29.807661 1.7458737 10.04363 8.120261
000390 1e 6c 44 c1 48 76 b3 41 69 2d 86 41 28 21 74 40
       -12.276396 22.432755 16.772173 3.8145237
0003a0 cb 42 68 40 5e ba c4 be 03 07 40 40 53 76 ac 41
       3.6290767 -0.38423437 3.000428 21.557775
0003b0 e9 00 f1 c0 7f d8 5b c0 17 dd e6 41 70 51 c9 40
       -7.531361 -3.4350889 28.857954 6.291191
0003c0 56 4a 86 c0 d1 a0 b7 40 3d f4 55 c1 46 d4 ae 41
       -4.196574 5.738381 -13.3721285 21.85365
0003d0 ef 2c 8a 41 c9 51 d2 c0 34 8f c2 41 a1 ad dc c0
       17.27194 -6.5724835 24.319923 -6.896195
0003e0 4f 61 3f c1 a0 de b4 bf 2b ed 83 c2 8b 11 b5 c1
       -11.961257 -1.413044 -65.96322 -22.633566
0003f0 a0 bd 8e 41 fe b0 05 42 35 d1 0a 41 cb 8d f8 41
       17.84259 33.422844 8.676076 31.069235

_embedding_layer.cat_embedding_layers.2.weight f4 [44, 22]
000000 2e c9 9e 3f 42 7f 4c 3f 08 f7 cf 3e 6a b3 e4 be
       1.2405145 0.7988168 0.40618157 -0.44668132
000010 9c 10 90 be 55 02 79 3e ae 7b 70 3e 28 51 a9 3f
       -0.28137672 0.24317296 0.2348468 1.3227892
000020 47 1b 0d c0 04 81 e3 3f d7 39 0f bf 9e 91 2c 3f
       -2.2047899 1.7773747 -0.5594763 0.67409694
000030 03 2a c4 be 3b 5b 0b be eb 45 4c be dd d9 7a 3f
       -0.38313302 -0.1360902 -0.19948547 0.97988683
000040 fd 49 9d 3d 52 88 37 3f 8e d5 b4 3e 7f 06 eb 3e
       0.07680128 0.71692383 0.3531918 0.45903394
000050 79 cc 3e 3d a7 70 a9 3f f7 e1 85 40 4c 3f 21 c1
       0.04658172 1.3237504 4.1838336 -10.077953
000060 0d a2 d4 c0 8d 88 95 40 78 b3 33 c0 4e fd 0d 41
       -6.6447816 4.672919 -2.807829 8.874342
000070 24 97 f6 c0 ab ae 03 3f 78 23 2a 41 f0 aa 2f bf
       -7.70595 0.514384 10.633659 -0.68620205
000080 94 1c ed 40 8f 13 90 c0 55 b6 ea c0 96 ed 0e 41
       7.4097385 -4.5023875 -7.3347573 8.933004
000090 c1 97 c7 c0 36 b1 77 40 b2 19 00 c1 2b 13 01 41
       -6.2372746 3.870191 -8.006273 8.06718
0000a0 fe 95 09 c1 36 97 36 c1 62 39 24 c1 c2 3f 1c c1
       -8.599119 -11.411917 -10.264009 -9.765566
0000b0 1f 32 fb bf 64 22 b7 c0 c4 ec ae c0 9f a7 fd c0
       -1.9624671 -5.722948 -5.466402 -7.9267116
0000c0 64 87 70 40 12 c1 6e 40 34 0f 00 40 27 6e 13 41
       3.7582636 3.730534 2.000928 9.214393
0000d0 5a 54 5f 40 fb 80 16 c1 1c 9d 4f 40 8e c8 4c 40
       3.4895234 -9.406489 3.2439642 3.199741
0000e0 26 32 35 40 8f 88 0f be 5e 08 90 41 3c 5e 84 bf
       2.8311858 -0.14016937 18.004086 -1.0341258
0000f0 75 fa 99 bf 03 43 dd c0 6f 10 8e 3f 74 33 de 3f
       -1.2029558 -6.91443 1.1098765 1.7359452
000100 33 d5 62 c0 f2 4f ab c0 27 7b ea 40 a2 76 bd c1
       -3.5442626 -5.353509 7.3275332 -23.682926
000110 d0 bd 74 c1 4c 5f 46 40 88 67 49 c1 46 1c a2 41
       -15.296341 3.0995665 -12.587776 20.263805
000120 5a 72 95 c1 54 88 0e 41 f9 5a a7 41 c4 9b 73 bf
       -18.680836 8.908283 20.91942 -0.95159554
000130 bc 16 84 41 1e 00 01 c0 58 bf 9b c1 2d 06 90 41
       16.5111 -2.0156322 -19.46843 18.003016
000140 01 66 94 40 e2 df 11 40 c4 10 57 c1 3f 76 2f 41
       4.6374516 2.2792897 -13.441593 10.966369
000150 0f 94 b5 c1 a7 cd 94 c1 c7 5b 8c c1 14 0e b4 c1
       -22.697294 -18.600416 -17.544813 -22.506874
000160 8a fe aa 40 72 e3 9d c1 3f ad 41 c1 f3 40 78 41
       5.3435717 -19.736057 -12.104796 15.515857
000170 ad 2b 7c c1 2d 3e 8d 41 d4 5f c2 c1 19 41 60 c0
       -15.760663 17.65536 -24.296791 -3.5039732
000180 93 f7 a0 41 be 9e 32 41 5b 83 84 41 fa ce 19 3f
       20.120886 11.163755 16.564138 0.60081446
000190 8a 20 d0 c1 9c 24 8f 41 ed 3a 3a c1 ca f6 c1 c0
       -26.015888 17.892876 -11.639386 -6.0613756
0001a0 10 05 77 c1 44 3e 08 41 02 52 9f c1 a3 f9 a5 c1
       -15.438736 8.515202 -19.915043 -20.746893
0001b0 ba 2b ad c1 84 c6 8a c1 1a 57 cf 40 75 c4 0b c1
       -21.64635 -17.346931 6.4793825 -8.735463
0001c0 6c 67 d6 c0 01 d3 af 40 ea f8 13 c1 2d c6 54 41
       -6.7001247 5.4945073 -9.24827 13.298383
0001d0 b4 d4 5c c1 4c bd 00 40 2d 19 5b 41 9a e3 71 40
       -13.801929 2.0115538 13.693646 3.7795167
0001e0 b2 22 d5 40 36 ea c0 c0 cb 95 83 c1 d2 6f 74 41
       6.6604853 -6.02859 -16.448141 15.2773
0001f0 84 05 21 c1 66 c3 de c0 f0 58 1e c1 9b 23 72 3e
       -10.063847 -6.9613523 -9.896713 0.23646395
000200 81 c1 6b c1 ea 27 46 c1 99 1b 4e c1 9a 8d 61 c1
       -14.734742 -12.384745 -12.881738 -14.097071
000210 1e fa 48 41 d2 17 f7 c0 c9 7b e9 c0 e8 1d 45 41
       12.561064 -7.7216578 -7.2963605 12.319801
000220 8c e8 85 c0 c9 9c 50 41 7b 86 19 c1 f6 40 4d 41
       -4.184637 13.038278 -9.595332 12.82836
000230 38 5b 1f 41 ea 99 6d 41 6d 54 4b 41 68 fb 7d c1
       9.95977 14.850077 12.708112 -15.8738785
000240 86 5f 1d c1 2b 9c 3d 41 49 12 eb c0 5a 93 1c 41
       -9.835821 11.850627 -7.345982 9.7859745
000250 0d 88 44 c1 05 6b a3 40 54 e2 d0 c0 89 0a 17 c1
       -12.2832155 5.106814 -6.527628 -9.440072
000260 16 fd 5c c1 66 06 30 c1 54 e4 5a 41 85 c5 dd c0
       -13.811789 -11.001562 13.680744 -6.9303613
000270 e4 a5 71 c1 11 39 3e 41 6e 0a ac c1 13 26 6f 41
       -15.103001 11.888932 -21.505093 14.946795
000280 b9 bc 3d c1 87 a5 8a 41 88 b9 94 41 93 d4 8b c0
       -11.858575 17.330824 18.590591 -4.369699
000290 d0 37 12 41 33 61 92 c1 85 bc 7b c1 8b 06 91 41
       9.138626 -18.29746 -15.733525 18.128195
0002a0 e2 ea a9 bf 40 0d 9c 41 c0 ad 79 c1 1d 8c ec bf
       -1.3274806 19.50647 -15.604919 -1.8480259
0002b0 e5 7d 81 c1 11 05 1b c1 0b f7 3c c1 ed f0 7f c1
       -16.186472 -9.688737 -11.810313 -15.99632
0002c0 1c e7 9e 41 9c b6 4d 40 f6 d4 11 c1 27 8b da 41
       19.862846 3.2142706 -9.114492 27.317945
0002d0 7d 61 ad c1 b8 a7 1b 40 d4 f6 bb c0 5f 02 6d c1
       -21.672602 2.4321117 -5.8738804 -14.813079
0002e0 83 d3 15 3f df d5 b8 40 50 8a 9e 40 5d f8 bb c1
       0.58525866 5.7761073 4.954384 -23.496271
0002f0 c6 30 90 c0 f4 52 bc 40 d4 6f 84 c1 32 38 ec 41
       -4.505954 5.885126 -16.554604 29.52744
000300 20 9a cc c0 fe 2d 01 41 66 c7 dd c0 cb 14 a6 c0
       -6.393814 8.073729 -6.9305906 -5.190038
000310 91 89 04 c0 66 43 cb bf b8 e2 df 40 c4 df f3 bf
       -2.0708964 -1.5879943 6.9964256 -1.9052663
000320 71 1f f5 c0 1d 7d 2b 40 37 29 3b c0 9e 98 8b 3f
       -7.660088 2.6795113 -2.9243906 1.090595
000330 10 dc 52 40 71 d9 a7 c0 64 f8 9f 3f d0 d4 38 c1
       3.2946815 -5.245293 1.2497678 -11.551956
000340 5d 9a f6 40 62 77 db bf 95 ad 7e 40 20 44 36 c0
       7.706343 -1.7145808 3.9793446 -2.847908
000350 9a 85 00 42 07 af 43 41 01 d0 28 c0 b5 d9 71 c0
       32.13047 12.230231 -2.6376956 -3.7789128
000360 7b 9f 77 40 4f 03 01 40 7f e5 7b bf 9c 7b 8f c0
       3.869109 2.015827 -0.9839706 -4.483839
000370 30 46 3c 40 f2 74 e4 c0 25 8d 47 c1 33 15 9f 40
       2.941784 -7.1392756 -12.471959 4.971338
000380 b5 c4 44 c1 0f ae 97 40 f1 e2 0f c0 09 ab 9a c1
       -12.298024 4.7399974 -2.2482264 -19.333513
000390 d2 0e e5 40 f6 c6 95 c1 ff 3f 00 41 2a 33 ca 3f
       7.158059 -18.722149 8.015624 1.5796864
0003a0 47 13 eb 3f b5 7e 5b c0 71 fe f3 41 4c 75 04 41
       1.8365258 -3.4296086 30.499239 8.278637
0003b0 88 03 82 c0 50 06 d4 c0 e8 87 d4 bf 14 5e 0b bf
       -4.062931 -6.6257706 -1.6603975 -0.54440427
0003c0 26 46 c8 c0 2b ac fa c0 57 94 8c 3f ae ca d5 c0
       -6.258563 -7.8335166 1.098277 -6.680991
0003d0 b1 a7 5e c0 15 8c 9e bf 73 f8 8e 40 c3 04 92 40
       -3.478985 -1.23865 4.4678283 4.5630813
0003e0 be cc af c0 d2 74 57 41 1d ba fa 40 ec bb 43 40
       -5.493743 13.466021 7.835219 3.0583448
0003f0 af 64 db 40 99 a0 40 3f 4c 7f b0 c0 11 e4 bf 40
       6.8560405 0.7524505 -5.515539 5.99659

_embedding_layer.cat_embedding_layers.3.weight f4 [18, 9]
000000 1e eb ee 3f df 80 c4 be 1b a7 d8 bf c5 1a 66 be
       1.8665502 -0.3837957 -1.6925997 -0.2247115
000010 c4 9e 72 bf 74 0e a7 be 6f 61 22 bf a1 a2 a5 3f
       -0.9477351 -0.32628214 -0.6342992 1.2940255
000020 23 af dd be 75 1f 06 c1 47 96 17 41 a6 ab ad 40
       -0.4329768 -8.38268 9.474189 5.427203
000030 4f 42 c7 bd a8 7d b1 c0 ce fd 01 41 9d 70 1c 41
       -0.09729444 -5.546589 8.124464 9.7774935
000040 b1 87 a6 bf f2 a3 6c c0 ad 45 20 c1 ee 0f a4 40
       -1.301016 -3.6975064 -10.017011 5.1269445
000050 23 ad 53 40 ed 3c bf bf c4 cc 0b c1 08 b3 29 41
       3.3074424 -1.4940468 -8.737492 10.606209
000060 2a f0 49 41 c6 0f 93 40 72 3b 4a c1 40 ae 1f c1
       12.621134 4.5956755 -12.639513 -9.9800415
000070 4e 79 f0 40 14 c1 53 40 e1 60 6d c0 6d 51 f3 c0
       7.5148077 3.3086596 -3.709038 -7.6036897
000080 58 b7 09 41 5e f7 3c 41 f9 8a 0f 40 2a 74 0f c1
       8.607262 11.810392 2.2428572 -8.96586
000090 22 6b d1 c0 45 64 35 41 be 16 42 40 39 a9 31 41
       -6.5443277 11.33698 3.032638 11.103814
0000a0 c4 b2 0c c0 24 5e 01 41 91 bb 85 40 8a e3 a9 c0
       -2.198411 8.085484 4.1791463 -5.309026
0000b0 b0 18 b3 3f f9 cf 13 c1 ba 74 f7 40 cd e1 bb bf
       1.3991909 -9.238275 7.732999 -1.4678284
0000c0 37 12 18 c1 b9 22 0f c1 f3 c9 3c 41 76 4b 5a 41
       -9.504447 -8.945977 11.799304 13.643423
0000d0 68 20 2d 40 de 5b 34 c1 6f 37 80 c1 aa 83 7a 41
       2.705103 -11.2724285 -16.027067 15.657145
0000e0 e0 a3 17 c2 50 29 84 c1 34 cb 9c c1 42 e9 6b 41
       -37.910034 -16.520172 -19.59922 14.744448
0000f0 c7 aa 6c 41 8e 58 88 41 07 7a 83 c1 6d df 4f c1
       14.791694 17.04324 -16.434584 -12.992047
000100 e5 d5 06 41 30 80 0c c1 b8 b1 53 c1 18 96 31 c1
       8.42722 -8.781296 -13.230888 -11.099144
000110 f1 af 2a 41 95 e2 2f 41 ed 30 81 40 43 51 69 c1
       10.667954 10.992818 4.0372224 -14.582339
000120 ff 0b 54 c1 88 11 5b 41 17 dc 57 c1 af 5d 78 c1
       -13.252929 13.69178 -13.491233 -15.522872
000130 06 47 2c c1 8a 1b 61 41 b3 9a 7b 41 01 3e 0f 41
       -10.76734 14.069223 15.725268 8.952638
000140 41 4b 6f c1 2e 40 93 c1 9f f1 9e 41 7e fd 25 c2
       -14.955873 -18.406338 19.86798 -41.49755
000150 09 30 d3 c1 7a 08 d0 c1 26 7a 8d 41 f0 88 4d 41
       -26.398455 -26.004139 17.684643 12.845932
000160 15 db b2 41 f9 7f 90 c1 10 d8 50 c1 35 a6 a0 40
       22.356974 -18.062487 -13.05275 5.020289
000170 42 35 c5 c0 a5 30 6f c1 fa 54 43 c1 f3 65 4a 41
       -6.162751 -14.949376 -12.208246 12.64989
000180 79 ce 52 41 06 db 60 41 5e e9 90 c1 c5 a5 73 c1
       13.175408 14.0534725 -18.113949 -15.227971
000190 73 10 53 40 27 ff 8d c1 39 05 73 c1 2d af 9d c1
       3.297879 -17.749586 -15.188775 -19.710535
0001a0 1b 64 55 41 24 a4 99 41 ce 87 36 40 b9 ce b4 c1
       13.33694 19.205147 2.8520389 -22.600939
0001b0 4a b0 ab c1 25 25 15 42 01 eb 16 c2 a4 df 1f c1
       -21.461079 37.286274 -37.729496 -9.9921
0001c0 04 7a 99 c1 01 9f b7 41 43 bb 6f 41 ce d6 60 41
       -19.184578 22.952639 14.983218 14.052443
0001d0 dc 7f ea c0 6e 38 aa c1 1a 7e ef 41 5f e3 48 c2
       -7.328108 -21.277554 29.936573 -50.222042
0001e0 64 b4 92 c1 34 40 d9 c1 9b dc 95 41 0b b2 51 41
       -18.338081 -27.15635 18.732718 13.1059675
0001f0 48 cb 23 41 d7 4a 61 c1 0f 39 d1 c1 24 66 99 41
       10.237129 -14.080771 -26.15286 19.174873
000200 ec 10 3d c2 4a 2a 02 c2 30 14 b2 c1 4a 0a c1 41
       -47.266525 -32.541298 -22.259857 24.130024
000210 49 26 04 42 32 eb 04 42 ae 11 07 c2 9b e4 bf c1
       33.037388 33.229683 -33.767265 -23.986624
000220 13 65 23 42 2f f1 5b c2 e5 7b a5 c1 51 db a2 c1
       40.848705 -54.98553 -20.685495 -20.357088
000230 d7 ae d9 41 03 1d 5a 41 d6 2f b3 41 2e 70 7c c1
       27.210371 13.632083 22.398357 -15.777388
000240 99 4b 00 c2 87 fb 7b 42 2e da f9 c1 1d 8b 51 40
       -32.073826 62.995632 -31.231533 3.2741158
000250 96 ef 7e c1 48 ca 1f 42 2c ae 92 41 f4 f6 a2 41
       -15.933493 39.94754 18.335045 20.370583
000260 25 78 35 c1 be 85 f9 c1 29 c5 fd 41 a7 b4 8b c1
       -11.341832 -31.190304 31.72127 -17.46321
000270 eb 6b ed c1 f7 01 fa c1 1d 72 ea 41 60 48 02 42
       -29.677694 -31.25096 29.30572 32.57068
000280 8c 7f e7 41 8a 79 f5 c1
       28.937279 -30.684345

_embedding_layer.normalizing_batch_norm.bn.weight f4 [6]
000000 2b dd d9 41 b8 a8 f0 c1 08 2c 40 41 51 57 32 41
       27.232992 -30.082382 12.01075 11.1463175
000010 44 9a 4e 42 1a d5 f4 c1
       51.65065 -30.604053

_embedding_layer.normalizing_batch_norm.bn.bias f4 [6]
000000 5f b4 1e c1 ff 9b 9f 40 21 e2 76 40 42 ca c5 40
       -9.919036 4.9877925 3.8575518 6.1809397
000010 50 0b 7a 40 2e a7 d5 c0
       3.9069405 -6.6766577

_embedding_layer.normalizing_batch_norm.bn.running_mean f4 [6]
000000 50 f9 f6 3b 9d c8 03 bb 08 00 6c 3b 78 fd 29 bb
       0.0075370446 -0.0020108589 0.003601076 -0.0025938433
000010 52 49 06 3c 42 ae b8 bb
       0.008196192 -0.0056360075

_embedding_layer.normalizing_batch_norm.bn.running_var f4 [6]
000000 a1 b3 81 3f 24 ae 7e 3f 64 17 80 3f ff 0e 78 3f
       1.0132943 0.9948447 1.0007138 0.9689788
000010 3c a6 80 3f 47 ba 7b 3f
       1.0050731 0.9833111

head.layers.0.weight f4 [1, 50]
000000 ce 2c 81 42 34 3c e4 40 8e 39 aa 40 18 92 4f 41
       64.58751 7.132349 5.3195257 12.973167
000010 e2 87 b7 40 c2 94 89 c0 f5 9b c4 40 29 7c 8f c1
       5.7353373 -4.299409 6.1440377 -17.935625
000020 82 9b b0 40 44 df 19 41 ef 00 bb 40 38 f7 49 42
       5.518983 9.617008 5.843864 50.491425
000030 bc da 40 c2 cb 4e ac 40 d4 af 0d 41 9b 86 ba 40
       -48.213608 5.3846183 8.855427 5.8289313
000040 a3 8b bc 40 0a 4a 00 c1 e0 2b b5 40 42 ab a3 41
       5.8920455 -8.018076 5.661606 20.458622
000050 2a 91 b4 40 47 94 1c 41 3b 78 87 40 bb b6 65 c1
       5.64272 9.786201 4.2334266 -14.357112
000060 ff 2c ae 40 eb 84 b5 40 ed e6 4b 40 be 3b ab 40
       5.4429927 5.6724753 3.1859696 5.3510427
000070 a2 54 b7 40 b9 5a bb 40 d4 b0 b7 40 1b 46 b6 40
       5.729081 5.8548245 5.7403355 5.696058
000080 83 c4 b7 40 4d 64 bc 40 ea 5c c3 be e2 63 3a 41
       5.7427382 5.8872437 -0.38156825 11.649385
000090 2f b4 d6 41 e6 a8 ae 40 9a a5 b0 40 9d 8d 0e c2
       26.83798 5.4581175 5.520215 -35.638294
0000a0 d3 90 ab 40 bc 16 b4 40 a5 46 9f c1 49 3b 12 c1
       5.3614287 5.627775 -19.909494 -9.139474
0000b0 4d 87 99 40 ee 2f a7 40 d8 8d 36 c0 75 17 90 41
       4.797766 5.224601 -2.8524075 18.011454
0000c0 46 c4 b3 40 13 d7 f8 c1
       5.617709 -31.105017

exp_avg f4 [50, 58]
000000 9a d4 14 47 9e eb df c7 03 18 f7 c4 56 57 d9 c6
       38100.6 -114647.234 -1976.7504 -27819.668
000010 c1 8d 20 47 d1 2a 02 48 7d 80 75 c6 ac 9f c8 46
       41101.754 133291.27 -15712.122 25679.836
000020 b9 60 e0 c6 bc 4e 8b c4 67 0a 41 46 a6 30 5b c6
       -28720.361 -1114.4604 12354.601 -14028.162
000030 2d af cb 46 26 71 da c5 90 7d ac c5 7f 04 ab c6
       26071.588 -6990.1436 -5519.6953 -21890.248
000040 99 6a 08 46 56 26 71 45 c2 b6 48 c6 17 30 46 c4
       8730.649 3858.396 -12845.689 -792.7514
000050 80 7a 98 46 8a a0 a4 c4 9c 71 be 45 d1 ec 6d c6
       19517.25 -1317.0168 6094.201 -15227.204
000060 e8 08 ac 45 55 73 25 c6 4d e6 a0 c6 8d 62 15 c5
       5505.1133 -10588.833 -20595.15 -2390.1594
000070 4f 9e 80 46 f8 eb be 44 46 06 97 c6 66 df 37 45
       16463.154 1527.374 -19331.137 2941.9624
000080 d5 1a af c5 06 67 a8 46 74 5c f4 c4 53 f0 03 c6
       -5603.354 21555.512 -1954.8892 -8444.081
000090 c1 07 cd c6 2a e9 55 c6 41 9a 80 c6 1a 31 9e 46
       -26243.877 -13690.291 -16461.127 20248.55
0000a0 f1 61 9f c6 68 c3 85 46 da 08 26 46 12 f8 53 45
       -20400.97 17121.703 10626.213 3391.5044
0000b0 d1 ba be c5 77 e0 bb 45 07 e9 91 46 e0 79 64 46
       -6103.352 6012.058 18676.514 14622.469
0000c0 92 e7 04 46 c8 5d 47 46 c2 f3 2d c6 10 ad f0 c5
       8505.893 12759.445 -11132.939 -7701.633
0000d0 68 c8 bc 45 b0 ec 18 46 67 b0 32 c6 ea c0 81 c6
       6041.051 9787.172 -11436.101 -16608.457
0000e0 1b 04 9d c4 49 b9 13 46 e3 7a 77 c6 04 b9 1c c6
       -1256.1283 9454.321 -15838.722 -10030.254
0000f0 86 4c 1e 48 49 b8 0a c7 b0 a4 e3 47 02 2b 9a c7
       162098.1 -35512.285 116553.375 -78934.016
000100 65 54 e0 44 4f 51 7a 46 b3 f9 d9 c6 d9 ac ea c5
       1794.6373 16020.327 -27900.85 -7509.606
000110 c9 80 6c 46 3c 94 74 c6 0a 14 a0 46 af b1 09 47
       15136.196 -15653.059 20490.02 35249.684
000120 25 5c b1 47 cd 5f 5a 44 81 84 5c 47 b9 fc bf c6
       90808.29 873.4969 56452.504 -24574.361
000130 0f 7c f4 c6 82 da 0a 47 4f 4d ea 46 d5 d2 0d 47
       -31294.03 35546.508 29990.654 36306.832
000140 a2 d5 28 47 81 58 19 c7 1c 40 7b c6 b9 43 3f c7
       43221.633 -39256.504 -16080.027 -48963.723
000150 02 36 61 c7 36 23 e6 c6 e9 e7 7d 45 24 68 d4 c6
       -57654.008 -29457.605 4062.4944 -27188.07
000160 7a 16 08 c7 75 e0 24 c7 0f bc a8 45 65 1f 85 46
       -34838.477 -42208.457 5399.5073 17039.697
000170 f5 6c 06 47 40 86 f8 46 e5 09 f2 c7 6e 26 12 c7
       34412.957 31811.125 -123923.79 -37414.43
000180 b3 c8 82 46 f1 da a7 45 3c 89 66 c6 a3 33 ea c6
       16740.35 5371.3677 -14754.309 -29977.818
000190 d0 88 5b 47 49 44 65 45 6f ce ff 45 b0 9d ee c6
       56200.812 3668.2678 8185.804 -30542.844
0001a0 0e 86 2b 44 19 11 50 46 00 86 31 42 93 5b 8b 45
       686.0946 13316.274 44.38086 4459.447
0001b0 6f ca cd c6 ea 0b b4 44 a0 6c 07 c6 1c 31 30 46
       -26341.217 1440.3723 -8667.156 11276.277
0001c0 2c bc 6f c6 7f f8 45 c6 05 85 b0 46 05 d4 23 c6
       -15343.043 -12670.124 22594.51 -10485.005
0001d0 20 a7 75 c6 3e f1 58 c7 f4 2a c0 47 61 bf 24 c6
       -15721.781 -55537.242 98389.91 -10543.845
0001e0 55 26 f8 47 78 5f 03 c7 a4 15 71 46 fc 84 c7 c5
       127052.664 -33631.47 15429.41 -6384.623
0001f0 2e c9 95 c5 69 e4 41 c5 a1 dc a0 c4 a6 f6 3a c5
       -4793.1475 -3102.2756 -1286.8947 -2991.4155
000200 47 39 7f c5 df b8 1b 46 26 ec b0 45 d9 a5 20 c7
       -4083.5798 9966.218 5661.5186 -41125.848
000210 67 d5 c8 46 27 f0 3f c7 fa 12 5f c3 4b 34 28 47
       25706.701 -49136.152 -223.07413 43060.293
000220 2c ac 3d c7 b9 61 4b 47 b1 34 9e 47 03 45 12 c7
       -48556.17 52065.723 81001.38 -37445.01
000230 01 1b 72 c7 fe 4f 10 47 bc d1 5e c7 77 14 75 c6
       -61979.004 36943.992 -57041.734 -15685.116
000240 f8 f3 d9 c6 ae 5b c1 c6 24 8b 1b c7 53 96 77 45
       -27897.984 -24749.84 -39819.14 3961.3953
000250 b2 12 8a 46 09 97 2e 46 de 41 86 47 07 c3 d4 46
       17673.348 11173.759 68739.734 27233.514
000260 59 6c 66 c7 9e 7e b3 44 85 cc 67 46 e3 ea 14 46
       -58988.348 1435.9568 14835.13 9530.722
000270 08 4e 08 c5 e7 19 37 45 af a7 3c 47 47 2e da c5
       -2180.877 2929.619 48295.684 -6981.7847
000280 8b 36 b2 46 08 1c 6e c6 83 8c 2c c6 5e 69 fa c5
       22811.271 -15239.008 -11043.128 -8013.171
000290 ff d9 86 c6 15 07 09 45 73 82 89 c4 00 02 03 46
       -17260.998 2192.4426 -1100.0765 8384.5
0002a0 31 98 bb 46 48 f0 64 46 a0 64 ec c5 54 e8 84 c6
       24012.096 14652.07 -7564.578 -17012.164
0002b0 b9 70 b9 c5 34 63 63 46 c4 9a b7 2d 32 b2 1a 2c
       -5934.0903 14552.801 2.0873421e-11 2.1983635e-12
0002c0 63 36 62 2b 95 3f 99 2b e7 ec 8c 2d 88 5a 19 2d
       8.0366806e-13 1.0888951e-12 1.6021363e-11 8.717145e-12
0002d0 98 f2 c5 2b 7a 12 7a ac 90 87 85 2c e9 6a 4f 2c
       1.4065025e-12 -3.5537393e-12 3.795138e-12 2.9475816e-12
0002e0 1c 74 56 ac e5 8e 66 2c 88 10 64 ac 81 95 c6 ab
       -3.0475683e-12 3.2764288e-12 -3.2409925e-12 -1.4110242e-12
0002f0 2b 76 1c ac 54 96 1d ac 1d 8e ba ab 50 d4 6d 2a
       -2.223453e-12 -2.239449e-12 -1.3255539e-12 2.1123489e-13
000300 7a f8 d2 aa e8 27 2e aa 2d 63 0e aa 67 ec 03 29
       -3.747591e-13 -1.546815e-13 -1.2646542e-13 2.929289e-14
000310 70 54 f9 2b 78 d4 dc ab 2a 85 56 2b 51 08 1e ac
       1.771595e-12 -1.5690912e-12 7.6212875e-13 -2.2457767e-12
000320 08 ba e6 ab 60 22 44 ac f4 4a b8 29 dd 77 92 aa
       -1.6394117e-12 -2.7872357e-12 8.184244e-14 -2.6017982e-13
000330 ac a7 05 ac 70 22 b9 ab 4a ff 8c 2b 9c 49 b2 aa
       -1.8993513e-12 -1.3154599e-12 1.0018455e-12 -3.1670229e-13
000340 a3 0a 49 ac 66 12 02 2c f4 df ce ac 64 2e a9 ab
       -2.8569723e-12 1.8484324e-12 -5.879736e-12 -1.2021048e-12
000350 4b 02 26 2c e0 e9 b3 ab b4 35 79 ab 7f 93 a9 2c
       2.3591292e-12 -1.2783628e-12 -8.85371e-13 4.8196442e-12
000360 0d b0 b7 ac e3 15 5e 28 da cd f2 ab 07 67 0e ac
       -5.2207184e-12 1.23282215e-14 -1.725227e-12 -2.0236605e-12
000370 8c 8c 02 2b 46 66 55 aa 8b ea 39 ab ae e9 e7 ab
       4.6380326e-13 -1.8953684e-13 -6.6050697e-13 -1.6478396e-12
000380 ea ca 3d 2c 13 68 80 2b 1f 84 2d 2c e2 36 32 ab
       2.6971155e-12 9.123833e-13 2.465812e-12 -6.331447e-13
000390 26 69 0c 2c 38 6d a7 2b b5 0d b1 ab 62 d0 78 2a
       1.9953566e-12 1.1896378e-12 -1.2580411e-12 2.2099122e-13
0003a0 54 9b 34 46 8d 31 98 c7 19 f6 d0 47 e5 a2 68 c6
       11558.832 -77923.1 106988.195 -14888.724
0003b0 37 91 6d 48 2b 53 bd c6 87 43 a9 46 5d ef 51 c6
       243268.86 -24233.584 21665.764 -13435.841
0003c0 6b 20 22 45 2a 62 43 45 68 f9 17 c6 e5 24 74 45
       2594.0261 3126.1353 -9726.352 3906.306
0003d0 12 c6 3d c6 9a 38 c3 45 8c 24 1b c4 4f ec 72 c7
       -12145.518 6247.075 -620.57104 -62188.31
0003e0 39 de e7 46 e8 d2 47 c7 d9 96 f3 c5 9e ac 46 47
       29679.111 -51154.906 -7794.856 50860.617
0003f0 05 fb 23 c7 54 76 81 47 41 12 ab 47 8a 7c 50 c7
       -41979.02 66284.66 87588.51 -53372.54

exp_avg_sq f4 [50, 58]
000000 8c 3c b7 52 3b b4 a0 53 2c cb 0e 50 03 7f f0 51
       3.934974e+11 1.3804371e+12 9.582719e+09 1.2911538e+11
000010 a1 e2 c1 53 af 24 08 53 57 0d 39 51 a4 af 2a 51
       1.6654618e+12 5.84731e+11 4.9674547e+10 4.58182e+10
000020 bd 73 28 51 ad 21 3b 51 2e 03 24 51 fa 5a 23 51
       4.5218517e+10 5.023274e+10 4.402675e+10 4.3850375e+10
000030 dc 3c 0f 51 0f 8b 97 50 2f 8a 82 50 8a 9b 81 51
       3.8450086e+10 2.0339784e+10 1.7520753e+10 6.958254e+10
000040 4b 4e 0d 50 29 88 ff 50 78 8c 6a 51 dd 2a 93 50
       9.482874e+09 3.4296908e+10 6.296119e+10 1.9752479e+10
000050 20 8a 5f 51 23 30 52 51 1c 09 c4 50 bb c5 0a 50
       6.000594e+10 5.642192e+10 2.631145e+10 9.312857e+09
000060 3b 04 cf 50 a5 1c 5d 52 5f 46 20 50 67 1e 28 50
       2.7785288e+10 2.3741709e+11 1.0755866e+10 1.1282259e+10
000070 be 98 b5 4f e6 85 8a 4f f8 07 94 50 45 51 80 4f
       6.0933724e+09 4.648062e+09 1.9868402e+10 4.3056195e+09
000080 48 dc 95 4f 87 d9 02 50 bb f0 44 50 49 f9 b5 4f
       5.028483e+09 8.781176e+09 1.3216443e+10 6.1060265e+09
000090 b8 2d 00 51 b4 3c df 4f 39 ac 1d 50 76 06 1a 50
       3.440768e+10 7.490595e+09 1.0581239e+10 1.0336459e+10
0000a0 72 86 18 50 ba 1b d2 50 36 f8 cc 50 49 02 9a 4f
       1.0235791e+10 2.820026e+10 2.751055e+10 5.167682e+09
0000b0 52 73 ef 4f d9 0a 94 4f 88 68 00 50 b9 d4 c5 4f
       8.0346245e+09 4.967478e+09 8.617337e+09 6.638105e+09
0000c0 f2 7b 89 4f 76 ba 87 50 1b 40 ee 50 9b 00 f7 4f
       4.613203e+09 1.8217153e+10 3.197743e+10 8.288024e+09
0000d0 25 a7 68 50 df 11 f6 4f b1 b7 a4 50 d9 c9 79 50
       1.5613072e+10 8.2567327e+09 2.2108015e+10 1.676302e+10
0000e0 ad 52 8f 4f 38 8f 95 4f 95 f9 ce 53 95 4d a9 53
       4.8091203e+09 5.0183823e+09 1.7779011e+12 1.4543022e+12
0000f0 32 68 26 53 be 9b 45 53 9e 3c 98 54 60 01 0c 54
       7.147127e+11 8.487215e+11 5.230816e+12 2.405274e+12
000100 f6 fa 78 53 dd 74 8e 53 e3 f0 8e 53 a7 53 93 53
       1.0693623e+12 1.223692e+12 1.2278535e+12 1.2655273e+12
000110 66 71 8f 53 21 92 8c 53 1d 7a 7a 53 c6 4f fe 52
       1.2321657e+12 1.2074941e+12 1.07579054e+12 5.4613003e+11
000120 05 84 89 52 7e 80 8b 52 85 04 86 52 d0 ca 1f 53
       2.9531272e+11 2.995781e+11 2.8780072e+11 6.863024e+11
000130 0f 29 2e 53 e3 40 28 53 5a 78 1b 53 dd 65 4b 53
       7.4801316e+11 7.226431e+11 6.677391e+11 8.7358734e+11
000140 6b 59 f4 52 99 c4 20 53 72 d0 f6 52 d0 50 94 52
       5.247361e+11 6.904931e+11 5.3002954e+11 3.185055e+11
000150 de 9f 37 53 52 25 08 53 1b 97 79 53 b8 ac 2e 53
       7.8866114e+11 5.847417e+11 1.071982e+12 7.5022205e+11
000160 8a 06 24 53 24 41 2f 53 5c 94 8c 53 37 77 8d 53
       7.0448434e+11 7.5271216e+11 1.207569e+12 1.215181e+12
000170 67 4c 13 52 97 2c 9d 53 99 ca 9d 52 2f 5e 55 53
       1.581605e+11 1.3501159e+12 3.3885445e+11 9.164082e+11
000180 24 17 ec 52 64 31 9c 53 5a 33 8b 53 d2 0b 13 52
       5.0700026e+11 1.3416871e+12 1.195724e+12 1.5788963e+11
000190 88 95 0a 52 84 31 5a 53 8f cf 98 52 97 b6 88 53
       1.4880355e+11 9.371336e+11 3.2815864e+11 1.1743578e+12
0001a0 45 6e 88 53 65 8d 9c 53 75 0c 9e 53 f7 51 6e 53
       1.1719311e+12 1.3447742e+12 1.3576277e+12 1.02357736e+12
0001b0 89 13 4d 53 2c 4d 4e 52 8c 81 bc 52 53 77 37 53
       8.8079604e+11 2.215145e+11 4.0481364e+11 7.8798094e+11
0001c0 42 15 77 53 a5 2b 85 53 64 5b a2 52 00 e8 46 53
       1.0612136e+12 1.1439258e+12 3.48659e+11 8.5429584e+11
0001d0 6f 46 ff 53 9b 51 b2 53 a3 6b 4e 53 14 5a 6a 53
       2.1927967e+12 1.5317466e+12 8.865691e+11 1.0065336e+12
0001e0 39 69 83 54 96 6a 13 54 12 83 9b 53 94 a6 b1 53
       4.5152485e+12 2.5325936e+12 1.3358379e+12 1.5260079e+12
0001f0 0d 08 b2 53 ea d0 b7 53 22 07 b3 53 12 39 af 53
       1.5292785e+12 1.578968e+12 1.5378376e+12 1.5051535e+12
000200 8e 13 9c 53 c1 75 28 53 d7 ce b7 52 58 56 cc 52
       1.340686e+12 7.235301e+11 3.947246e+11 4.3881097e+11
000210 fa 78 a8 52 38 96 49 53 cb 2c 6a 53 20 98 56 53
       3.6179208e+11 8.658087e+11 1.00577385e+12 9.2167524e+11
000220 05 59 43 53 24 93 7b 53 0a 6d 0e 53 e6 db 44 53
       8.390121e+11 1.0805054e+12 6.117147e+11 8.455029e+11
000230 48 f8 2e 53 ec 7a ae 52 4f 54 5d 53 ae d1 1c 53
       7.514898e+11 3.746933e+11 9.5060224e+11 6.7353274e+11
000240 c0 76 94 53 89 cd 51 53 d5 71 38 53 48 64 48 53
       1.2752949e+12 9.010965e+11 7.9218377e+11 8.606759e+11
000250 13 74 a3 53 50 58 a1 53 26 61 35 52 96 bf b7 53
       1.4040541e+12 1.3859427e+12 1.9475474e+11 1.5783866e+12
000260 19 4a b0 52 c5 b1 7b 53 67 34 06 53 db 3e b0 53
       3.785787e+11 1.0810193e+12 5.764048e+11 1.5139376e+12
000270 2e 63 9d 53 a1 c1 32 52 b4 4b 2e 52 c5 99 7c 53
       1.3519476e+12 1.9193818e+11 1.871486e+11 1.0849116e+12
000280 ff 32 b1 52 f6 1f 9c 53 81 1f 9b 53 06 2e b6 53
       3.805324e+11 1.3411022e+12 1.332497e+12 1.5649124e+12
000290 70 da b9 53 9c 10 92 53 37 fe 7f 53 8b 4d 7e 52
       1.5964674e+12 1.2546878e+12 1.0994817e+12 2.7305566e+11
0002a0 20 db df 52 1f 2b 5e 53 ef aa 97 53 08 46 a2 53
       4.80727e+11 9.542062e+11 1.3028157e+12 1.3939193e+12
0002b0 fa f4 c6 52 5e 88 6c 53 10 e3 10 4d da de ec 4c
       4.2725677e+11 1.01590014e+12 1.51925e+08 1.2418837e+08
0002c0 1e ce a7 4c e1 9f 92 4c 63 5c c0 4d 50 d0 97 4c
       8.797822e+07 7.687348e+07 4.0341002e+08 7.959411e+07
0002d0 49 1f 96 4b b4 38 cc 4b 01 87 e2 4b 65 6d c0 4b
       1.9676818e+07 2.676772e+07 2.9691394e+07 2.5221834e+07
0002e0 e4 ad cb 4b 40 e2 c3 4b aa ed b4 4b 06 fc a8 4b
       2.6696648e+07 2.567488e+07 2.3714644e+07 2.2149132e+07
0002f0 7a f4 45 4b 2f f9 93 4b ba 1f 20 4b e4 2d b3 4b
       1.2973178e+07 1.9395166e+07 1.0493882e+07 2.3485384e+07
000300 9d 00 bc 4b 87 c2 ad 4b 1f f7 9d 4b c7 57 bd 4b
       2.464185e+07 2.2775054e+07 2.070483e+07 2.481755e+07
000310 ad 5a d3 4b bf 5b 91 4b e7 f2 83 4b ac de c2 4b
       2.7702618e+07 1.9052414e+07 1.7294798e+07 2.5541976e+07
000320 45 50 b4 4b dc 94 c2 4b 56 f1 11 4c 2b 66 e6 4b
       2.3634058e+07 2.5504184e+07 3.825801e+07 3.019887e+07
000330 9b 71 c0 4b c2 23 c7 4b 53 5f 09 4c 1a 73 fb 4b
       2.522399e+07 2.6101636e+07 3.601134e+07 3.2958004e+07
000340 07 c9 85 4b c2 c2 1f 4c bf 4f 65 4b 6a 2f ee 4b
       1.7535502e+07 4.188033e+07 1.5028159e+07 3.1219412e+07
000350 07 a4 b3 4b b7 1c f9 4b c6 40 10 4c 05 57 df 4a
       2.354587e+07 3.265163e+07 3.7815064e+07 7.3184025e+06
000360 4e e9 69 4b cb 15 03 4c 80 ee 88 4b 95 36 05 4c
       1.5329614e+07 3.436318e+07 1.7947904e+07 3.4921044e+07
000370 43 ae 16 4c c9 fb 14 4c c4 b7 17 4c ae c6 9d 4b
       3.9500044e+07 3.905514e+07 3.977192e+07 2.0680028e+07
000380 e6 f1 ab 4b d7 00 a5 4a 59 b7 12 4b b3 d4 6b 4b
       2.2537164e+07 5.4068275e+06 9.615193e+06 1.5455411e+07
000390 b1 32 aa 4b 34 e6 9d 4b 28 2d 05 4b 69 33 62 4b
       2.2308194e+07 2.0696168e+07 8.727848e+06 1.4824297e+07
0003a0 12 81 0c 54 33 fd c4 53 ad 2d 5d 53 fe 88 7d 53
       2.4138434e+12 1.6921231e+12 9.499541e+11 1.0889251e+12
0003b0 80 31 92 54 34 ad 22 54 d7 86 ab 53 fd 44 c3 53
       5.0231656e+12 2.7947623e+12 1.4734033e+12 1.6773521e+12
0003c0 22 83 c3 53 3d 6d ca 53 5c c1 c4 53 26 c0 c0 53
       1.6794373e+12 1.7388322e+12 1.6901152e+12 1.6557149e+12
0003d0 06 83 ab 53 e3 30 34 53 a5 95 c3 52 c6 ba dd 52
       1.4732752e+12 7.739143e+11 4.2001462e+11 4.7616066e+11
0003e0 b8 25 b2 52 f7 b7 57 53 37 52 7d 53 30 ff 65 53
       3.825685e+11 9.265044e+11 1.08800606e+12 9.8782885e+11
0003f0 11 55 52 53 99 48 87 53 0c 55 17 53 f0 2f 53 53
       9.033703e+11 1.1620771e+12 6.499669e+11 9.0704236e+11

exp_avg f4 [50]
000000 0b a7 ae c4 13 4d eb c4 ac eb 0d c4 5d c2 92 2a
       -1397.2201 -1882.4086 -567.6824 2.6069676e-13
000010 7d 8f a4 c2 5f 83 f2 3c fb d6 40 c3 92 2f 31 c5
       -82.28025 0.029603658 -192.83977 -2834.9731
000020 91 0a c6 43 93 17 3a 40 41 3a 96 44 4e f1 a1 46
       396.08255 2.9076889 1201.8204 20728.652
000030 f0 2f 36 c6 1d 03 c7 c2 d7 31 18 3c d9 4b 75 43
       -11659.984 -99.50608 0.0092892265 245.29628
000040 4b 6f 73 c3 50 f6 76 44 07 a9 75 42 bd 8b a7 45
       -243.43474 987.84863 61.415066 5361.4673
000050 2d 2f a2 42 99 a5 87 45 59 38 3d c4 62 58 b5 45
       81.09214 4340.6997 -756.88043 5803.048
000060 4a bd a5 c4 b8 8a 5c c4 5e af fe c3 2c 6f a9 42
       -1325.9153 -882.1675 -509.37006 84.71713
000070 b9 fa 83 43 a0 b7 9d c2 72 d6 82 42 a5 d3 96 c4
       263.95877 -78.85864 65.41884 -1206.6139
000080 37 7c 32 43 2e 4b 2c 43 04 00 00 00 01 ae 32 c5
       178.48521 172.29367 6e-45 -2858.8752
000090 4c c0 a8 c5 89 cf cc c2 65 82 34 c4 1d a5 48 46
       -5400.037 -102.40534 -722.0374 12841.278
0000a0 70 d0 81 c2 b1 9a 92 c3 94 96 ad 45 99 11 c0 14
       -64.907104 -293.20853 5554.8223 1.9393987e-26
0000b0 86 02 35 c3 bf cb 59 c4 06 2e bb c3 74 60 d1 c5
       -181.00986 -871.18353 -374.35956 -6700.0566
0000c0 05 66 7b c4 fb 8f ad c6
       -1005.59406 -22215.99

exp_avg_sq f4 [50]
000000 57 a2 d2 4d 70 36 82 50 aa eb a5 50 56 78 06 49
       4.417318e+08 1.7476846e+10 2.226948e+10 550789.4
000010 2a fc b2 50 e6 c3 c0 48 2b 48 87 50 25 a5 05 4c
       2.4022962e+10 394783.2 1.815723e+10 3.503426e+07
000020 cd 9b ae 50 fb c1 c1 48 99 22 ad 50 26 57 fe 51
       2.343557e+10 396815.84 2.3237806e+10 1.36547975e+11
000030 9f 4c 06 50 d0 d5 a4 50 d4 70 b1 49 dc 22 b7 50
       9.012674e+09 2.2123807e+10 1.4535945e+06 2.458012e+10
000040 51 b2 b1 50 d0 f7 09 4f f4 90 b1 50 e0 82 0b 51
       2.3850027e+10 2.3147192e+09 2.3832535e+10 3.744976e+10
000050 0d 0a af 50 60 ad 6d 50 c4 1f 5b 50 71 66 e7 4f
       2.3493372e+10 1.595025e+10 1.4705168e+10 7.764501e+09
000060 fa d5 a6 50 79 c9 af 50 cf 5c 55 50 4e c5 a6 50
       2.2392328e+10 2.3593732e+10 1.4318517e+10 2.2383587e+10
000070 46 90 b3 50 2f 68 b7 50 47 67 b2 50 c6 8b a3 50
       2.4100614e+10 2.4616466e+10 2.3944903e+10 2.1950771e+10
000080 8c 07 b2 50 90 72 ab 50 3e 8c 48 48 5d bc 62 50
       2.3894712e+10 2.3011295e+10 205360.97 1.5215982e+10
000090 6e d8 89 51 3f 0b a9 50 42 4d ab 50 d5 9c dc 4d
       7.40052e+10 2.2688692e+10 2.2991737e+10 4.626582e+08
0000a0 10 82 a7 50 e3 50 b0 50 63 26 00 4f 7b 2c e0 48
       2.248255e+10 2.3664728e+10 2.1499994e+09 459107.84
0000b0 5d f5 6b 50 09 20 a3 50 b9 9d c5 4e 5e 8e 95 50
       1.5834904e+10 2.1894285e+10 1.657724e+09 2.0073083e+10
0000c0 96 da b0 50 5b 72 97 50
       2.3736922e+10 2.0326832e+10

exp_avg f4 [13, 7]
000000 00 00 00 00 00 00 00 00 00 00 00 00 00 00 00 00
       0.0 0.0 0.0 0.0
000010 00 00 00 00 00 00 00 00 00 00 00 00 d1 34 2c c8
       0.0 0.0 0.0 -176339.27
000020 ca fa 4c 48 4a 04 03 c8 c5 81 b6 c7 29 54 89 47
       209899.16 -134161.16 -93443.54 70312.32
000030 78 99 d8 c7 e0 57 da 47 4d 9b ee 47 3d 25 76 c7
       -110898.94 111791.75 122166.6 -63013.24
000040 36 c2 3b 47 c5 f4 bb 47 88 d9 c0 c7 36 75 aa 47
       48066.21 96233.54 -98739.06 87274.42
000050 b5 ce 97 c7 22 8e 40 48 ea 64 57 c8 84 f8 52 48
       -77725.414 197176.53 -220563.66 216034.06
000060 2a 50 8c 48 4b ca 4f c8 a6 4b 7a 48 d8 46 28 c8
       287361.3 -212777.17 256302.6 -172315.38
000070 7c 63 4c 48 8a ea a5 c7 66 9b ab 47 7c b9 20 48
       209293.94 -84949.08 87862.8 164581.94
000080 f7 05 fa c7 03 f6 1d 48 10 62 0c c8 eb 75 a5 c8
       -128011.93 161752.05 -143752.25 -338863.34
000090 c2 be 50 48 44 74 ea c7 10 f0 6b c8 bc eb 42 48
       213755.03 -120040.53 -241600.25 199598.94
0000a0 62 46 46 c8 89 b5 3c 48 b6 c9 18 c7 47 71 6c c7
       -203033.53 193238.14 -39113.71 -60529.277
0000b0 9d 9c 27 48 34 25 00 48 82 63 02 c8 56 6f 19 48
       171634.45 131220.81 -133518.03 157117.34
0000c0 04 d4 f3 c7 c6 6d 24 49 dd 7f 11 c9 94 51 ee 48
       -124840.03 673500.4 -595965.8 488076.62
0000d0 2a 65 14 49 b8 26 fc c8 dc 2a 0f 49 6d 26 04 c9
       607826.6 -516405.75 586413.75 -541286.8
0000e0 13 b0 26 48 29 fe 78 c8 a3 bd 79 48 45 61 39 48
       170688.3 -254968.64 255734.55 189829.08
0000f0 76 ed 61 c8 09 0c 56 48 60 fc 65 c8 27 e6 ec c5
       -231349.84 219184.14 -235505.5 -7580.769
000100 31 e5 1f 47 7c 17 a6 c7 c1 19 e0 c7 3e cd 35 47
       40933.19 -85038.97 -114739.51 46541.242
000110 9c 82 d7 c7 0c 25 56 47 0d 1f ad c8 7e 3c 03 49
       -110341.22 54821.047 -354552.4 537543.9
000120 15 9c f5 c8 d1 60 cc c8 5d 12 f5 48 b8 30 d3 c8
       -503008.66 -418566.53 501906.9 -432517.75
000130 18 fb e0 48 4f 2a 4f 48 00 4e a3 c7 43 d0 f7 46
       460760.75 212137.23 -83612.0 31720.13
000140 5b 61 31 48 be 10 58 c7 72 a6 d5 47 30 54 c6 c6
       181637.42 -55312.742 109388.89 -25386.094
000150 63 03 46 c7 5a 47 4a 48 1c 5e 60 c8 b2 f2 ee c7
       -50691.387 207133.4 -229752.44 -122341.39
000160 fa 1a 48 48 bc 60 f0 c7 41 a6 18 48
       204907.9 -123073.47 156313.02
