Programming Assignment/saved_models/regression-4_epoch=1-valid_loss=2758692864.00.ckpt (torch, 88847 bytes, 29 tensors)

_backbone.linear_layers.0.weight f4 [50, 57]
00000000: c889 a640 bcc0 11c1 2563 8b40 b75e eebf
00000010: 872c 0141 712d 1541 8576 7a40 78fb 8fc0
00000020: a5a0 a940 c46b 9f40 6ee2 adc0 089c cac0
00000030: 92cb 29c0 01ef a1c0 5b0b 99c0 7da0 a340
00000040: 62aa a3c0 98d4 ccc0 34a9 9d40 d924 a540
00000050: 9352 bac0 2276 bebf fd0b ab40 b3c7 9dc0
00000060: 74e0 bdc0 384b b740 d842 5940 f103 a2c0
00000070: 37e5 93c0 25d0 70c0 02ae 9940 ee23 9640
00000080: 9927 79c0 eaad 81bf 16ab 9640 8226 e4bf
00000090: 835e 98c0 48eb a9c0 5415 bd40 e861 4ec0
000000a0: 700c 7f40 b693 93c0 4628 79c0 ecfe b9c0
000000b0: 26bd 9640 045b b9c0 e1aa 8fc0 87ec 94c0
000000c0: 580a ac40 43ec 99c0 e717 b740 fab2 4740
000000d0: effa 8840 9e67 ac40 7221 0040 b1bf 19c0
000000e0: 1406 bac0 8e48 9940 756f f7c0 2ec0 8740
000000f0: 7d59 37c0 149b f740 2887 1141 0a91 ad40
00000100: 20f4 bbc0 7013 a340 1f3c 9240 348a a7c0
00000110: a787 c8c0 94c1 f3bf 5101 cac0 3f2d 9bc0
00000120: 789c 9f40 66f5 a9c0 5926 a5c0 d959 9440
00000130: 3d26 9c40 e863 75c0 f5e5 63bf a4ac ac40
00000140: bd26 94c0 faf0 b9c0 ab4c b640 11ac a140
00000150: ad82 a2c0 3d6d bbc0 b703 31c0 19a5 8b40
00000160: 9a69 8f40 49b1 a5c0 7a3d 2fbf cdfd 7240
00000170: 07a1 64bf 7c40 95c0 93e8 a9c0 dbe8 9840
00000180: 8b1c 4ac0 2a9c 3240 d78a 93c0 3c18 2ec0
00000190: d4b5 8ec0 3d5a 9740 f302 b8c0 e215 93c0
000001a0: 1b57 8dc0 122a ab40 058f 9ac0 f8fa b140
000001b0: d35a 9440 85fa a640 092d ab40 0a90 893e
000001c0: 9933 91c0 619b b5c0 886b a040 04e9 f6c0
000001d0: a8a4 ab40 a154 4cc0 c6a1 1241 f01b 0d41
000001e0: ea04 7e40 5f6d 91c0 6171 a140 c992 9640
000001f0: c693 a2c0 8bc3 c8c0 bfe2 15c0 74d6 c4c0
00000200: 2e3b 8ec0 1680 9b40 b8e7 a2c0 a746 a4c0
00000210: f524 9640 914e 9540 761a 68c0 0d51 88c0
00000220: c1a0 ad40 2504 90c0 3e2f b9c0 544c b740
00000230: 930a a040 45ca a0c0 5faf 8dc0 1b97 21c0
00000240: 8a3f 5f40 fa94 8e40 8db1 5ec0 12a6 5fbe
00000250: 4199 6440 8a9d 3ebf 621a 86c0 8694 86c0
00000260: f763 ba40 0efe 30c0 d60a 3740 8cf0 69c0
00000270: e357 1dc0 1505 b9c0 fec2 9440 5a4b b9c0
00000280: 5c33 8ec0 d2cf 41c0 d464 ab40 88b5 9bc0
00000290: 8d42 8640 4305 d140 b3e6 a440 8f73 a240
000002a0: b501 fcbe a097 a5c0 757f b4c0 6782 bb40
000002b0: 9284 18c1 60a0 ba40 b745 26c0 8fa2 2941
000002c0: 6ea1 3041 b14e b640 1862 9dc0 e9d4 df40
000002d0: ddae ac40 e139 e4c0 72ef acc0 f2b3 9cc0
000002e0: f339 dac0 9141 d2c0 c8a8 dc40 046c 16c0
000002f0: 5ecb dcc0 c469 d940 2373 e040 6492 cac0
00000300: 8732 18c0 8243 4240 a56d dfc0 19d2 93c0
00000310: 66ff c140 339a 8240 ea3f 83c0 397f 9ec0
00000320: ede9 cbc0 dc35 d840 81d6 cf40 9af0 8ac0
00000330: fef0 94c0 ccc3 d040 1563 8dc0 6e00 a9c0
00000340: 2b24 b9c0 227b cf40 4236 b2c0 160b b740
00000350: 6449 d4c0 d370 a8c0 5794 cec0 f48a 6640
00000360: a1d0 ccc0 df21 c1bf 663d abc0 4d00 8d40
00000370: 962e f5be d362 9240 0efb e240 5137 e740
00000380: c1e5 0040 9b1e 3340 236b bac0 51d9 91c0
00000390: 8082 e840 484d 03c1 a612 8d40 84ef 77c0
000003a0: 0dff 1141 cb75 1a41 4b00 8840 f9c7 b7c0
000003b0: b0c9 a940 f4e5 9e40 8a2b aac0 e864 84c0
000003c0: d71b 02c0 1831 a5c0 ff12 9bc0 ca4b a440
000003d0: a453 8ec0 219c afc0 d6ed a540 59bc aa40
000003e0: 5633 b9c0 848c 90c0 726e a440 ba2e a4c0
000003f0: dc80 b6c0 22ea b440 5af1 a140 6895 a3c0
5.204319 -9.109554 4.3558526 -1.8622655 8.073371 9.323594 3.9134839 -4.499447
5.30086 4.981905 -5.4338903 -6.331547 -2.65305 -5.0604253 -4.782636 5.113341
-5.1145487 -6.4009514 4.9269047 5.160748 -5.82258 -1.4879801 5.3452134 -4.9306273
-5.933649 5.727932 3.3947048 -5.062981 -4.6217303 -3.7627041 4.802491 4.691886
-3.8930418 -1.0131199 4.7083845 -1.7824252 -4.761537 -5.309971 5.9088535 -3.2247257
3.9851341 -4.611781 -3.893083 -5.8123684 4.7105894 -5.7923603 -4.4896092 -4.653873
5.3762627 -4.8100905 5.721668 3.1202989 4.2806315 5.3876486 2.0020413 -2.402325
-5.813242 4.790107 -7.7323556 4.2422094 -2.864837 7.7376804 9.095497 5.423955
-5.8735504 5.0961227 4.569839 -5.2356205 -6.266559 -1.904345 -6.3126607 -4.849273
4.98785 -5.311206 -5.160931 4.6359677 4.8796678 -3.8342228 -0.8902276 5.3960743
-4.629729 -5.810666 5.696859 5.052254 -5.0784516 -5.8570848 -2.7658517 4.3639035
4.481641 -5.1778913 -0.6845318 3.7967408 -0.8930821 -4.6641216 -5.3096404 4.7784247
-3.1579921 2.7907815 -4.610698 -2.7202291 -4.459696 4.7297654 -5.75036 -4.5964212
-4.416883 5.3488855 -4.8299584 5.561886 4.636087 5.218081 5.3492475 0.26867706
-4.5375485 -5.675217 5.0131264 -7.7159443 5.3638496 -3.1926653 9.164495 8.819321
3.96905 -4.544601 5.04509 4.705418 -5.0805387 -6.27387 -2.3419645 -6.1511784
-4.444724 4.8593855 -5.090786 -5.1336246 4.6920114 4.6658406 -3.626615 -4.259894
5.4258733 -4.500506 -5.787017 5.7280674 5.001291 -5.024691 -4.4276576 -2.5248477
3.488253 4.4556856 -3.4795868 -0.21840695 3.5718539 -0.74459136 -4.1907206 -4.2056303
5.8247027 -2.7655063 2.8600364 -3.6553068 -2.4584892 -5.7818704 4.6488028 -5.790448
-4.4437695 -3.0283093 5.356058 -4.8659096 4.195624 6.5318923 5.1531615 5.0766063
-0.49220052 -5.174759 -5.6405587 5.8596683 -9.532366 5.832077 -2.598005 10.602187
11.039412 5.697106 -4.9182243 6.99474 5.3963456 -7.1320653 -5.404229 -4.896966
-6.819574 -6.5705037 6.895603 -2.3503428 -6.899825 6.794161 7.014055 -6.33037
-2.378084 3.0353703 -6.9821343 -4.6193967 6.0624266 4.081323 -4.101552 -4.95303
-6.3723054 6.7565746 6.4949346 -4.3418703 -4.654418 6.523901 -4.418345 -5.2813025
-5.785665 6.483781 -5.5691233 5.7201033 -6.633959 -5.2637725 -6.455608 3.602231
-6.4004674 -1.5088462 -5.351245 4.4062867 -0.47887105 4.5745635 7.0931463 7.2255025
2.014023 2.798743 -5.825578 -4.557778 7.26593 -8.2063675 4.4085264 -3.8739939
9.124768 9.653758 4.250036 -5.7431607 5.30587 4.9655704 -5.317815 -4.1373177
-2.0329492 -5.162243 -4.846069 5.1342516 -4.44771 -5.4878087 5.1852827 5.3354917
-5.7875166 -4.517153 5.138482 -5.130704 -5.70323 5.6535807 5.060712 -5.111988

_backbone.linear_layers.0.bias f4 [50]
00000000: cad1 f940 2ecd ee40 a0ec e040 5920 1b41
00000010: 1d70 fc40 646c 1a41 6100 fa40 a0f8 f740
00000020: 3309 eb40 2513 e740 fb3d 0041 69a9 f840
00000030: bd4c 1c41 9ac3 f540 2e94 1e41 28b9 f140
00000040: e601 f940 2e1e 1c41 ec59 e040 98a2 1c41
00000050: f5f6 f940 2e7b fe40 9f4f 1b41 90c0 ef40
00000060: 6e1d 1e41 6a4c fe40 c391 1d41 7363 f340
00000070: 4430 fc40 343c fe40 cf6f fc40 c355 ed40
00000080: 30f7 d140 3123 f240 cc9a fd40 a92b fb40
00000090: 51e2 f640 1053 1b41 f386 0041 d6f2 d540
000000a0: f611 fd40 5adb 1941 96e4 1d41 3d43 1a41
000000b0: 22f2 1941 fb7b 1b41 3808 eb40 c185 e140
000000c0: cfe5 fb40 f0ee 1a41
7.806859 7.4625463 7.028885 9.695397 7.8886857 9.651463 7.8125463 7.7490997
7.344873 7.221087 8.015132 7.77068 9.768735 7.680127 9.911177 7.553852
7.7814817 9.757368 7.010977 9.789696 7.811396 7.9525366 9.706939 7.492256
9.882185 7.946828 9.848086 7.60589 7.880892 7.944849 7.8886485 7.416719
6.5614243 7.566796 7.925146 7.8490796 7.7151265 9.707779 8.032947 6.685893
7.9084425 9.616053 9.868307 9.641416 9.621614 9.717769 7.3447533 7.0475774
7.871803 9.683334

_embedding_layer.cat_embedding_layers.0.weight f4 [13, 7]
00000000: dd06 29bf bd1d 093f 8c26 133f 14e8 b1bf
00000010: 4ca8 4ebe a939 233f de73 8dbe 4b6d 9940
00000020: f81c a2c0 3ea5 c140 16ef b340 dc81 c3c0
00000030: 96b5 b3c0 cb91 e7bf 03cb b640 c31e a7c0
00000040: f4fb c440 1794 ae40 c967 b9c0 2154 adc0
00000050: 187d 6ec0 cf7a 8c40 68ef b3c0 5510 d340
00000060: 7809 b940 30e2 d0c0 ab0b bec0 6719 34c0
00000070: ce18 8740 8eda e2c0 15e3 ad40 fa3c d340
00000080: de78 d2c0 f5fd 8ac0 262e 2ac0 277e 4d40
00000090: 2e17 60c0 34b6 b740 9a9d e040 f3b5 adc0
000000a0: 5c6c f2c0 9367 cdc0 230b b040 18c3 97c0
000000b0: 05d1 a340 8ecc ba40 ecd3 cac0 0269 dec0
000000c0: fcfc 04c0 1ada 6140 9bee 16c0 7db6 da40
000000d0: 028a c240 ad32 d2c0 6535 d9c0 817d b2c0
000000e0: e8cc 8840 9dd4 b6c0 5f11 d340 a981 b040
000000f0: d9eb ddc0 82fb a6c0 a505 16c0 f90f b140
00000100: 8f12 b0c0 6dd6 eb40 7f34 a140 263c d0c0
00000110: b5b3 a1c0 ee39 1dc0 ab4e be40 4adf 8ac0
00000120: e1a2 ed40 de9a 9640 14aa cec0 7ac7 a5c0
00000130: fd5f 0ec0 a8d1 9340 43e6 d4c0 059e c440
00000140: c52a b740 cfe4 cac0 40d2 d5c0 cb64 24c0
00000150: fb0c 9e40 1f0d b0c0 0ca0 ba40 a4de bb40
00000160: d8c7 ccc0 c95e ccc0 1c72 14c0
-0.660261 0.53561 0.5748069 -1.389895 -0.20181388 0.6375986 -0.27627462 4.7945914
-5.066036 6.051421 5.6229353 -6.109602 -5.6159163 -1.8091367 5.7122817 -5.222505
6.155756 5.4555774 -5.793919 -5.4165196 -3.726385 4.3899913 -5.6229744 6.5957437
5.782406 -6.527611 -5.9389243 -2.8140504 4.221778 -7.089179 5.43397 6.6011934
-6.5772543 -4.3435006 -2.6590667 3.2108247 -3.5014148 5.7409916 7.0192385 -5.4284606
-7.5757275 -6.4188933 5.5013595 -4.742565 5.119265 5.83747 -6.3383694 -6.9503183
-2.077941 3.5289369 -2.3583133 6.8347764 6.0793467 -6.568686 -6.787768 -5.5778203
4.275013 -5.713454 6.5958705 5.5158277 -6.93504 -5.2182016 -2.3440945 5.5332
-5.5022655 7.369925 5.037658 -6.5073423 -5.053187 -2.4566607 5.947103 -4.339757
7.4261327 4.7064047 -6.4582615 -5.1806 -2.2246087 4.619343 -6.653108 6.1442895
5.723971 -6.3404307 -6.6819153 -2.568652 4.9390845 -5.5016017 5.832037 5.870928
-6.399395 -6.3865705 -2.3194647

_embedding_layer.cat_embedding_layers.1.weight f4 [27, 14]
00000000: 96b1 4fbf 3011 6a3f 77c2 b13f e709 363f
00000010: 7659 df3f 23f8 773f abc9 b1bf 70b5 2a3f
00000020: 75ec af3e b00d 78bf 8a17 0c3e ca4c a83f
00000030: 78a9 4a3f f481 10bf 7548 e6c0 09b2 d2c0
00000040: 6a4a e240 94f7 a5c0 87d0 13c1 e8e2 ef40
00000050: 7079 f740 5659 d5c0 9a12 bdc0 bae0 c340
00000060: c440 fec0 147d e5c0 65a9 ce40 2361 cd40
00000070: 8240 e9c0 2e30 dac0 0e48 e040 1f7b b8c0
00000080: d0ff 04c1 8a7a f540 fab3 f840 d8fb eac0
00000090: 53e5 9ac0 eb84 c440 7efe e9c0 5dd1 e1c0
000000a0: 0334 c740 10a6 af40 10e3 36c1 f958 2ec1
000000b0: 8571 4841 3651 18c1 d04e 31c1 83ab 4741
000000c0: 1ba3 3741 0aef 2ac1 caff 14c1 c979 2041
000000d0: d972 3dc1 5520 0ec1 5030 1c41 e0bd 3d41
000000e0: ba68 c0c0 567e 9ac0 3797 b140 03d6 71c0
000000f0: 96c8 b2c0 3cbd 6a40 57c7 a840 f63f 9cc0
00000100: 76e6 a6bf f03b 4d40 8946 a9c0 d5eb 9ac0
00000110: 9bde 6040 bccf 9940 afa3 21c1 7f9d 18c1
00000120: 4d20 3641 5df8 0ec1 ce79 33c1 9a12 2e41
00000130: 9481 1641 c4e3 08c1 ac75 92c0 4cd2 ec40
00000140: e21e 31c1 12f8 29c1 1e72 0b41 0357 ea40
00000150: a3c7 5cc0 27fd 6cc0 5199 8240 a11e 70c0
00000160: 346d b7c0 3bad 6740 35fc 7840 cf00 17c0
00000170: c539 e9be 692c 5540 1768 55c0 6142 71c0
00000180: b3e5 a340 13b3 4a40 eadc 8cc1 b0b7 80c1
00000190: 14f2 9241 6a63 56c1 ccae 73c1 25ce 7a41
000001a0: 32ab 8f41 04cb 85c1 eff5 73c1 b88a 6341
000001b0: f7ef 93c1 0609 66c1 7b4b 6d41 b7df 7841
000001c0: 9b29 d6c0 05b1 ecc0 11a9 f540 5347 c5c0
000001d0: 038e fec0 9db3 a940 9fbf 0741 0a44 86c0
000001e0: 7489 b0c0 ece7 1241 8882 c2c0 35d0 01c1
000001f0: 9555 e640 e486 cc40 52ea 8fbf 2c35 23c0
00000200: 7da8 1340 73a9 383e 584c 9bbf ba6f 3140
00000210: 2536 7640 69aa 15c0 43a9 a73f a981 ba3f
00000220: 3bf5 2ec0 d737 bcbe d269 b63e 7b43 943f
00000230: c9dc 24c1 ddc8 23c1 0b59 2541 4c82 0ec1
00000240: 4462 45c1 e5d3 1b41 12db 4241 3ede 1ac1
00000250: 9857 c5c0 bd25 1841 aead 12c1 6d45 24c1
00000260: db0c ee40 7725 0641 2d8a c5c0 098e f8c0
00000270: af3d d940 32f9 d9c0 7fb3 0ec1 0d03 d340
00000280: a79d aa40 4338 ccc0 ad16 7dc0 74a8 0641
00000290: 3b40 cbc0 ff84 0dc1 02d7 fa40 8d09 c140
000002a0: 3df2 c3c0 0572 c2c0 14ec 9f40 bfb5 35c0
000002b0: 88fa 90c0 f2f1 8340 4ebd 9840 f576 82c0
000002c0: 5705 d1bf 26c1 4b40 8bf5 6ec0 9f07 79c0
000002d0: e392 3b40 28e9 8c40 17d4 b1c0 9662 cbc0
000002e0: 2779 a740 45ef a3c0 c6e5 f4c0 7e81 0041
000002f0: 36f8 0b41 8ad1 e2c0 3cd0 20c0 5bb0 a440
00000300: 2e79 acc0 fd9e cdc0 4cc4 ce40 3130 b840
00000310: 0564 c5c0 a094 c6c0 872b d940 cfaf 0ac0
00000320: 406e b1c0 76e1 d140 ee88 e840 6f43 75c0
00000330: e130 0ac0 69cd 6b40 bd11 91c0 e87f b9bf
00000340: e62e 7640 a738 2540 bf36 dbc0 796a d4c0
00000350: 03ad da40 f01a eec0 2d11 a9c0 61f8 e640
00000360: 0697 c340 ae11 bac0 1b06 02c0 99a6 a340
00000370: e263 c2c0 ac6c d8c0 d596 8240 bdb4 bd40
00000380: 5d41 abc1 d0c4 a6c1 f695 a841 a613 87c1
00000390: 11db 97c1 a239 8f41 b74c 9941 3f6f 8fc1
000003a0: f9bc 82c1 e662 8741 6333 9ac1 2e9f 91c1
000003b0: ff14 9641 0859 8e41 3afe f3c0 b12e 02c1
000003c0: b4e7 fa40 bbfa 94c0 4c67 06c1 77f1 cf40
000003d0: af23 0a41 6a96 c1c0 e8f3 bbc0 fc06 cd40
000003e0: 4207 e9c0 54cf c3c0 d739 af40 c5dd bb40
000003f0: 42e9 86c0 a198 4ec0 bc71 4d40 a30f 1dc0
-0.8113035 0.91432476 1.3887471 0.7110886 1.7449176 0.96863 -1.3889669 0.666831
0.3436009 -0.96895885 0.13680854 1.3148434 0.7916484 -0.5644829 -7.196345 -6.584233
7.0715837 -5.186472 -9.23841 7.4964485 7.733574 -6.6671553 -5.9085207 6.1211824
-7.945406 -7.1715183 6.458178 6.4181075 -7.2891245 -6.8183813 7.0087957 -5.7650294
-8.312454 7.6712084 7.77197 -7.3432426 -4.8404937 6.1412253 -7.312316 -7.056807
6.225099 5.4890213 -11.430435 -10.896722 12.527715 -9.519827 -11.081741 12.479373
11.477321 -10.683359 -9.3124485 10.029733 -11.840539 -8.882894 9.761795 11.858856
-6.012784 -4.827922 5.549709 -3.7786872 -5.5869856 3.6678 5.2743335 -4.8828077
-1.3039081 3.2067833 -5.2898602 -4.841288 3.5135868 4.806608 -10.102462 -9.538451
11.382886 -8.935636 -11.217237 10.879541 9.406635 -8.555607 -4.5768642 7.400671
-11.07004 -10.623064 8.715361 7.3231215 -3.4496849 -3.7029512 4.0812154 -3.7518694
-5.7320805 3.6199481 3.8903935 -2.3594244 -0.45551887 3.3308356 -3.3344781 -3.7696764
5.1217895 3.1671798 -17.607868 -16.089691 18.368202 -13.399271 -15.230175 15.675328
17.958591 -16.724129 -15.247542 14.221367 -18.49217 -14.377203 14.830928 15.554618
-6.692579 -7.396609 7.676888 -6.1649566 -7.9548354 5.3031754 8.4842825 -4.1958055
-5.516779 9.181622 -6.078434 -8.113332 7.197947 6.391466 -1.1243384 -2.5501204
2.3071587 0.1803339 -1.2132673 2.7724442 3.8470547 -2.338526 1.309853 1.4570819
-2.7337177 -0.36761352 0.3562761 1.1583093 -10.303903 -10.236539 10.334239 -8.906811
-12.336491 9.739232 12.178484 -9.679258 -6.1669426 9.509213 -9.167402 -10.26695
7.4390693 8.384147 -6.173117 -7.7673383 6.7887797 -6.8116693 -8.918822 6.5941224
5.3317447 -6.381868 -3.954509 8.416126 -6.3515906 -8.84497 7.838746 6.032416
-6.12332 -6.0764184 4.997568 -2.839218 -4.5305824 4.1232843 4.7731085 -4.077021
-1.6329755 3.1836638 -3.7337368 -3.8910902 2.9308403 4.4034615 -5.55714 -6.3557844
5.233539 -5.1229577 -7.6530485 8.031614 8.748098 -7.0880785 -2.5127096 5.146528
-5.3897924 -6.4256577 6.461462 5.7558827 -6.1684594 -6.2056427 6.7865634 -2.1669805
-5.5447083 6.558772 7.266715 -3.8322408 -2.1592333 3.6844122 -4.5334153 -1.4492159
3.8466125 2.5815828 -6.850433 -6.637997 6.8336196 -7.4407883 -5.2833467 7.2178197
6.1121855 -5.814658 -2.0316226 5.1140866 -6.0746927 -6.7632656 4.080912 5.928313
-21.406916 -20.8461 21.073223 -16.884594 -18.981966 17.903141 19.162458 -17.92932
-16.342272 16.92329 -19.275091 -18.202724 18.760252 17.793472 -7.6247835 -8.136399
7.840784 -4.6556067 -8.400219 6.4982257 8.633712 -6.049611 -5.8735237 6.4071026
-7.282136 -6.1190586 5.4758105 5.8708215 -4.215974 -3.2280657 3.2100668 -2.4540794

_embedding_layer.cat_embedding_layers.2.weight f4 [42, 21]
00000000: 9fcb e33e 1fd6 e3bf de2e d23f 2200 233c
00000010: ac7c 9ebf b92a e8be afb8 d1be 60c5 c8bf
00000020: e1e3 983f ab70 9ebd b481 b9bf 628e d0bf
00000030: e6ad 053f f6b8 7abe 2707 36bd 8f45 dfbe
00000040: d113 fd3f 91f7 db3e 5395 8bbf 41be 9b3f
00000050: 21f8 4abf 5457 b3bf bb06 5cbf 6723 1f40
00000060: 1264 cebe df2f d0be 708f 0cc0 f864 a440
00000070: c85b 06c0 6abc 81c0 23ae d43f cbc6 eb3e
00000080: 7fef 95bb 5e0d 5d40 f3cc 64c0 8e52 9a3e
00000090: 27f5 4540 9427 3cbb 4d9f 2cbf b96e f5bf
000000a0: 3ce5 d2bf feaf 263f 2ccf 46c0 df2f 6fc0
000000b0: 1ed7 05c0 e1c2 3640 6afc 8940 54f3 8bbf
000000c0: 922b 0940 6a8f 5940 103e 91c0 bbee 57c0
000000d0: 67d0 d5bf 32c1 8040 df2d f2bd 195f 2240
000000e0: 66b4 dbbf 8e29 a5bf f640 61c0 3641 4d40
000000f0: 23fe 47c0 08f4 00c0 840a 2cc0 27c3 c8c0
00000100: 7a5f a7c0 828e c8bf 7bd7 a740 47f0 d540
00000110: 3a9f 8dc0 58ec c33f 89c2 b140 ee81 2f3f
00000120: ef63 82c0 1c35 b9c0 00f9 f540 aa3f 18c0
00000130: 5cf9 bc40 3bfd 5bc0 4e46 6dc0 abe2 e5c0
00000140: 9d66 cc40 1350 d3c0 5ea8 b3c0 d505 7ac0
00000150: f508 40c1 b29a 40c1 5b39 e9c0 9ad3 0f41
00000160: 900a 0e41 6a72 3dc1 6204 aec0 3353 2c41
00000170: 753c 8141 81e4 30c1 c7a0 07c1 b8da 0b41
00000180: e07f d4c0 5bc8 a640 ef00 02c1 55bf dec0
00000190: d86d 14c1 979d 2041 e58f 05c1 f54a 3cc1
000001a0: 3747 21c1 c93b 44c1 6c86 0ec1 4112 f7c0
000001b0: c773 0d41 7619 1c41 4a74 24c1 9ef5 7dc0
000001c0: 2040 2a41 247a 0540 6add 29c1 4220 09c1
000001d0: 1cb1 1d41 7cab 2fc1 e921 0241 50ca 08c1
000001e0: b6ec 0ac1 d68a 0dc1 4893 d840 7f7f f3c0
000001f0: 1ca6 f0c0 e8c0 17c1 c3e4 a0c0 3b5d 04c1
00000200: 8287 0bc1 d918 1841 cc3a 0e41 906b c1c0
00000210: 751a acc0 eb13 f340 b8b3 573f bbc5 09c1
00000220: 975c ccc0 c5aa ec40 8133 e4c0 e98e c940
00000230: ec21 01c1 01d7 abc0 6cf2 f6c0 6a7f 8040
00000240: f555 08c1 4f40 a6c0 3989 f9c0 4ff0 33c1
00000250: 0923 5cc1 7d1f 5dc1 7296 6341 6c65 7141
00000260: 5bbd 40c1 46c1 2fc1 d625 4f41 fe49 8241
00000270: 9789 53c1 7621 67c1 c82b 6041 08d2 41c1
00000280: e3b1 6041 a796 70c1 dded 23c1 4f11 4ec1
00000290: e6ed 4a41 28c8 47c1 c547 58c1 23ec 43c1
000002a0: 02d7 31c1 d35f 38c1 cb8b 39c1 ffa6 2341
000002b0: da21 2b41 0321 32c1 fc71 26c1 821d 3241
000002c0: d2ec 6040 2c63 3cc1 d32b 12c1 713e 2741
000002d0: 0906 16c1 9a34 2641 855c 35c1 80f7 1dc1
000002e0: 6523 14c1 1d4c 0b41 4bcf 1fc1 b6a1 d7c0
000002f0: 7743 53c1 278a 5abe 61a5 47c0 df8c c3bf
00000300: d5bc 4040 b842 f63f fd1f 5fc0 97a3 0840
00000310: fd0c 673f 641f d1c0 6162 1ac0 7a3d 0dbe
00000320: 2821 ae3f 4136 9cbf be76 b53f 45cf 75bf
00000330: 9769 2dbf f092 bdbf bba5 d63e fb69 26c0
00000340: 13df c5be d008 24c0 c6d9 a2c0 79e2 3fc0
00000350: 90a3 2c3e 1346 a03f 1791 3f40 8971 84c0
00000360: 223d 5840 5f57 f73f 3f3b dfbe 9103 e8bf
00000370: bc39 3ac0 7dc8 6a40 5f00 5dbf 1089 1140
00000380: 56dc 4dc0 9c7c 6a3e e794 a4c0 3b5f 8540
00000390: 9b67 3ec0 5659 e2bf 9695 23c0 01c4 19c0
000003a0: 1278 63c0 2a90 86c0 52de 3d40 7846 7640
000003b0: d0b1 2cc0 934e 1dbf a987 1440 edc0 f7bf
000003c0: fb0e 47c0 10c7 84c0 dec9 8f40 294a 86c0
000003d0: f8bd 3440 5fcf 94c0 c81f edbf d16b 4cc0
000003e0: 5f66 4440 3c1f 8ec0 b045 01c0 b4ae aebf
000003f0: 4681 91c0 0580 f7bf 2365 a2c0 7e88 8a40
0.44491288 -1.779972 1.6420553 0.009948762 -1.2381797 -0.45345095 -0.40961215 -1.5685234
1.1944543 -0.077363335 -1.4492707 -1.6293452 0.5221847 -0.2448462 -0.044440415 -0.43607756
1.9771672 0.42962316 -1.0904945 1.2167436 -0.79284865 -1.4011025 -0.8594777 2.4865358
-0.40310723 -0.40661523 -2.1962547 5.1373253 -2.099352 -4.05425 1.6615642 0.46050104
-0.0045756693 3.4539409 -3.575009 0.3014111 3.093088 -0.0028710114 -0.67430574 -1.9174415
-1.6476207 0.6511229 -3.1063948 -3.7372968 -2.0912547 2.8556445 4.3120623 -1.0933633
2.1432843 3.3993783 -4.538826 -3.373946 -1.6704224 4.0235834 -0.118251555 2.5370543
-1.7164428 -1.2903306 -3.51959 3.2071052 -3.1248863 -2.0148945 -2.6881418 -6.2738223
-5.230405 -1.566849 5.245054 6.6855807 -4.425687 1.5306501 5.554997 0.6855763
-4.074699 -5.787733 7.6866455 -2.3788857 5.9054394 -3.437331 -3.707416 -7.1839194
6.387526 -6.6035247 -5.6143026 -3.906606 -12.002187 -12.037767 -7.2882514 8.989161
8.877579 -11.840433 -5.438035 10.770312 16.15452 -11.055787 -8.476752 8.740898
-6.6406097 5.2119575 -8.125228 -6.960856 -9.276817 10.038474 -8.3476305 -11.7683
-10.079886 -12.264596 -8.907818 -7.7209783 8.840766 9.756216 -10.278391 -3.9681163
10.6406555 2.0855799 -10.616556 -8.570375 9.85574 -10.979366 8.133279 -8.549393
-8.682791 -8.8463955 6.7679787 -7.6093135 -7.520277 -9.484596 -5.027925 -8.272761
-8.720583 9.506066 8.889355 -6.04438 -5.3782296 7.5961814 0.84258604 -8.610774
-6.3863025 7.395846 -7.131287 6.298695 -8.070782 -5.3699956 -7.7170925 4.0155535
-8.520986 -5.19535 -7.798001 -11.246169 -13.7585535 -13.820188 14.22423 15.087261
-12.046229 -10.984686 12.946737 16.286129 -13.221091 -14.445669 14.010689 -12.113777
14.043429 -15.03678 -10.245572 -12.879226 12.683081 -12.486366 -13.517522 -12.245151
-11.114992 -11.523395 -11.596629 10.228271 10.695765 -11.1330595 -10.402828 11.132204
3.5144544 -11.774212 -9.135699 10.4527445 -9.376473 10.387842 -11.335088 -9.872925
-9.258641 8.706082 -9.988109 -6.73849 -13.203971 -0.21341763 -3.119469 -1.5277365
3.0115254 1.9239111 -3.4863274 2.1349847 0.90254194 -6.535082 -2.4122546 -0.13792983
1.3603868 -1.2204057 1.4176862 -0.96019393 -0.6773924 -1.4810467 0.41923317 -2.6002185
-0.38646755 -2.5630379 -5.0890837 -2.9981978 0.16859269 1.2521385 2.9932306 -4.1388593
3.3787313 1.9323539 -0.4359989 -1.8126088 -2.9097738 3.6684868 -0.8632869 2.2739906
-3.2165732 0.22899097 -5.1431766 4.167875 -2.9750736 -1.7683513 -2.556005 -2.4025881
-3.5542035 -4.205098 2.9666944 3.848051 -2.6983528 -0.6144802 2.32078 -1.9355751
-3.1102893 -4.1492996 4.493392 -4.1965528 2.8240948 -4.650314 -1.8525324 -3.1940806
3.0687482 -4.441313 -2.0198784 -1.3647065 -4.5470304 -1.9335943 -5.074846 4.3291616

_embedding_layer.cat_embedding_layers.3.weight f4 [18, 9]
00000000: 6c05 4bbf e651 04c0 01b5 11be 202b 3e3d
00000010: fd10 923e 4b48 b53e e070 84bf 2269 7ebf
00000020: ff88 55bf 4de5 9540 d420 37c0 8002 8940
00000030: 8409 fb40 38af b940 5e32 9240 0552 be3f
00000040: 4d34 b2c0 d74f c4c0 37ea 2a40 242e 9dc0
00000050: f601 a640 45db 0cc0 0537 6e3e 4ff6 2a40
00000060: 438e 11c0 eb17 c7be a11f 8bc0 965d 7f40
00000070: c7de d4bf 10f2 5040 7f4c b340 39e2 b140
00000080: 0a7e 1c40 eb40 3ebe 19d5 f4bf 8352 f6bf
00000090: 9a54 8e40 e05c 54c0 35a0 a940 b3bb 8540
000000a0: 4ccf c740 3f3b 4840 b9ef 1140 3eae 9fc0
000000b0: 80d6 91c0 91f2 c240 94a6 8dc0 046f aa40
000000c0: 8674 d840 e601 1141 6bd2 af40 1736 fb3f
000000d0: 4efa f2c0 6c01 abc0 64ac 1341 2621 1cc1
000000e0: 4295 2741 d1c5 3241 e4aa 4d41 b7b0 fc40
000000f0: d7a0 2f41 c6d8 1bc1 b067 34c1 a715 2a41
00000100: dd06 18c1 e2f9 2e41 d996 5241 8683 5a41
00000110: 7f20 4841 aabb 1941 8556 28c1 5ce4 3ec1
00000120: 13da fc40 6358 aac0 4d43 1341 ab0e fd40
00000130: 9ffa 1941 7abe e640 e758 e340 e22f e0c0
00000140: 0f76 10c1 acce 4941 7134 78c1 b45e 6441
00000150: 7a42 8441 6b34 5b41 043f 5f41 77eb 3e41
00000160: a15d 7ec1 ebb3 5ec1 8820 2e41 74cd 48c1
00000170: fd73 3441 3707 5a41 a56a 5941 e21c 5d41
00000180: 0aa6 2141 7dd1 5cc1 6530 65c1 c582 8941
00000190: 425d 89c1 d411 8b41 fcd0 8241 decc 8741
000001a0: 0fb9 8941 a368 5841 20cd 71c1 efd5 89c1
000001b0: 4722 4f41 ce0a 4dc1 e59c 5a41 f18f 7341
000001c0: e580 5441 71a7 4241 fffc 6141 51aa 54c1
000001d0: 7ed1 45c1 802d 4641 2745 39c1 44c3 3c41
000001e0: 60b1 5141 3c04 6641 4374 2a41 9b72 4341
000001f0: 801e 64c1 d2a9 28c1 8e92 8e41 f174 8dc1
00000200: af49 8a41 b597 9a41 c1c8 8e41 8317 9141
00000210: 602e 6e41 e892 91c1 ffaa 8dc1 398d 5041
00000220: 5c2b 33c1 d737 4441 7078 5f41 e632 6241
00000230: 47d1 5741 9742 5a41 1e05 6ac1 2a53 4dc1
00000240: de1f 1f41 1c99 0ec1 3e30 0241 f7b4 4541
00000250: 901a 3441 04dc 2b41 8d44 1d41 ed10 1bc1
00000260: a7bd 1bc1 f42c 3141 fd8e 16c1 7c08 2841
00000270: 17b1 3041 80b8 1b41 e72c 3641 f490 7940
00000280: 39e5 4cc1 3629 29c1
-0.7930515 -2.0674987 -0.14229204 0.046427846 0.28528586 0.35406718 -1.0346947 -0.9937917
-0.83412164 4.684241 -2.8613787 4.281555 7.8449116 5.802639 4.5686483 1.486878
-5.5688844 -6.134746 2.6705453 -4.9118824 5.1877394 -2.2008832 0.23263176 2.6712835
-2.274308 -0.38885435 -4.347611 3.990087 -1.6630486 3.2647743 5.603088 5.558865
2.4451928 -0.18579452 -1.9127532 -1.924393 4.4478273 -3.3181686 5.3008065 4.1791625
6.244055 3.128616 2.2802565 -4.99002 -4.557434 6.09211 -4.4265842 5.3260517
6.764224 9.0629635 5.494436 1.9625882 -7.593055 -5.3439236 9.229588 -9.758093
10.47394 11.173295 12.854221 7.8965716 10.976768 -9.740423 -11.275314 10.630286
-9.501676 10.936007 13.161828 13.65711 12.507934 9.608316 -10.521123 -11.930752
7.9016204 -5.3232894 9.203931 7.9080405 9.623687 7.2107515 7.1046023 -7.005845
-9.028823 12.612957 -15.512803 14.273121 16.53246 13.700297 13.952885 11.932487
-15.897859 -13.918925 10.882942 -12.550159 11.278317 13.626761 13.588536 13.819551
10.103037 -13.801145 -14.324315 17.188852 -17.170536 17.383705 16.352043 16.975033
17.21536 13.525546 -15.112579 -17.22946 12.9458685 -12.815138 13.663304 15.222642
13.281468 12.165879 14.124267 -13.291581 -12.363646 12.386108 -11.579383 11.797672
13.105804 14.376034 10.653384 12.21548 -14.257446 -10.54146 17.82156 -17.6821
17.285978 19.324076 17.848024 18.13648 14.886322 -18.196732 -17.708494 13.034478
-11.198086 12.263633 13.966904 14.137426 13.488593 13.641257 -14.626249 -12.832804
9.94528 -8.91238 8.136778 12.356681 11.256485 10.741215 9.829236 -9.691632
-9.733802 11.073475 -9.409909 10.502071 11.043235 9.732544 11.3859625 3.8994722
-12.805963 -10.572561

_embedding_layer.normalizing_batch_norm.bn.weight f4 [6]
00000000: 3ca7 79c1 1738 8e41 fbe4 3340 76eb 4cc0
00000010: 1b11 9c41 05b5 7941
-15.603329 17.777388 2.8108509 -3.2018714 19.508352 15.606694

_embedding_layer.normalizing_batch_norm.bn.bias f4 [6]
00000000: 1f3f aa40 f151 d5c0 5ca0 ca40 9f17 98c0
00000010: 7988 ad40 5e7c dc40
5.320205 -6.6662526 6.332075 -4.7528834 5.4229093 6.8901815

_embedding_layer.normalizing_batch_norm.bn.running_mean f4 [6]
00000000: 8188 39bc d103 5e3b 168f 2938 ebf0 243b
00000010: 0fd1 083c 9c24 aa3b
-0.011324049 0.0033876786 4.0426e-05 0.0025168012 0.008350625 0.0051923525

_embedding_layer.normalizing_batch_norm.bn.running_var f4 [6]
00000000: 47a3 7b3f 6c50 803f 8284 803f 48a1 813f
00000010: 384f 7e3f 4441 7d3f
0.98296016 1.0024543 1.0040438 1.0127344 0.9933963 0.9892771

head.layers.0.weight f4 [1, 50]
00000000: b3b4 ab40 e7f9 a740 8f1a a540 e43f c940
00000010: 96a7 af40 7e8c c440 1245 af40 c1a5 ae40
00000020: 8216 aa40 7447 a440 82ad b340 5ed5 ac40
00000030: 39f0 c440 9ecd ab40 a76f cb40 48d8 aa40
00000040: 297d b140 8674 ca40 1d10 a340 4317 c640
00000050: 0594 a940 f952 ad40 c921 c440 c0f9 aa40
00000060: acd5 cb40 ddf1 ae40 0a51 ca40 516f ac40
00000070: b586 ae40 0076 b040 fc74 af40 8922 a740
00000080: a57e 9b40 9b2a a940 6cdd ab40 ed94 af40
00000090: 7bd2 ac40 a8d8 c740 52cc b340 c96b a440
000000a0: 8ade b140 155f c440 7acd c840 0382 c940
000000b0: 822b c240 64b4 ca40 0786 a740 fb76 a540
000000c0: 2a0e af40 db4f c640
5.365808 5.2492557 5.159492 6.289049 5.4892073 6.14215 5.4771814 5.4577336
5.3152475 5.1337223 5.61493 5.401046 6.154324 5.3688498 6.3573794 5.3389015
5.5465283 6.326724 5.095717 6.1903396 5.299319 5.4163785 6.129124 5.342987
6.369833 5.4670243 6.3223925 5.3885884 5.4539437 5.5144043 5.4830303 5.2229657
4.8592095 5.286451 5.370779 5.4869294 5.4006934 6.2451973 5.6186914 5.1381574
5.5584154 6.1366067 6.2750826 6.2971206 6.067811 6.3345203 5.2351108 5.170774
5.470479 6.197248

exp_avg f4 [50, 57]
00000000: 4265 3dc6 155f 2647 be46 9245 3168 b8c6
00000010: bf98 5fc7 8907 35c8 6427 8dc5 65dd f545
00000020: 9439 f9c5 fd10 14c6 ae2e 0f46 8bfb b745
00000030: 020e 9e45 5989 1e44 a9ed ce44 8ce4 1bc4
00000040: 9e83 51c5 1edc 7c45 d7a1 a9c3 4834 3cc5
00000050: 267a 2dc5 d0fe fd43 e3b9 8044 d737 eac4
00000060: 8dc0 0744 4b6c 0045 fbce 4445 3c18 9d44
00000070: e8e9 b145 ad95 1546 e816 aac5 4d30 77c5
00000080: f6b7 3c44 550d 6d44 d86b c9c4 fc82 8545
00000090: aff9 be45 5dc2 fe44 7aa7 5ec5 4072 3844
000000a0: 1576 a9c5 51ec 9345 dee0 5345 7f6b 6445
000000b0: 280f 7ac4 429a 0245 2c9a 7445 ec3f 5545
000000c0: 98b8 fbc5 2530 a345 abbb cbc5 90d5 6fc6
000000d0: 71d7 8fc6 cef7 0cc6 83f3 bdc5 35dd 4e46
000000e0: df20 1846 7319 9545 81ae 0e47 1dfd 8445
000000f0: 893c aec6 57f1 4ec7 4dbf 2dc8 486c a6c5
00000100: 15cb 0546 2040 10c6 6cb6 24c6 1114 2246
00000110: feaa e045 43b2 b645 b56e 0745 62be 4945
00000120: eed4 07c5 d02f 18c5 d1c4 af45 59e0 d3c4
00000130: 6d64 93c5 3d27 bcc4 c192 cb44 3223 56c3
00000140: 8fcf 81c3 dd9b d444 8d6c 6f44 59db ee44
00000150: 2755 9c44 f09f be45 ce37 1446 c5db b4c5
00000160: fd2c 81c5 cbb7 ad44 a0b9 9b43 1366 c7c4
00000170: aeee a945 e58b c445 fbc9 f144 d2b9 64c5
00000180: 07b7 3e44 d804 a8c5 9184 9345 0a77 4c45
00000190: 62c4 6b45 529c 74c4 2d23 1d45 921a 7445
000001a0: b705 6845 6b6d 06c6 b61e b645 921e e4c5
000001b0: 5e40 70c6 8f94 91c6 209a 12c6 9a48 b1c5
000001c0: 3036 4e46 cf82 1f46 4adc 7dc5 a677 1747
000001d0: cef9 8a45 a4cf aec6 5d6c 51c7 e4d6 2cc8
000001e0: 16ab 92c5 b089 f545 d6cd 00c6 37a6 16c6
000001f0: 6ba7 1246 ae43 c345 d595 a445 809e 9d44
00000200: 4d13 0f45 637e 9ec4 48a7 30c5 1c02 9045
00000210: 06dc 5ac4 c820 63c5 38bd 06c5 c21b 7844
00000220: 9ab8 db43 4aef 93c4 13aa 8244 463d bd44
00000230: 30e3 1d45 1fe1 9444 9f73 b245 e34d 1146
00000240: 7190 aac5 0abf 75c5 63f7 7944 827f 2e44
00000250: 8e82 c6c4 6d3f 9145 1102 bd45 58da f144
00000260: bf09 5bc5 a3a5 4344 00be a5c5 b099 8f45
00000270: 9d58 4d45 6938 6145 ab89 72c4 4f7a 0945
00000280: 8f9d 6b45 d6ba 5845 25db fcc5 384e a145
00000290: 36ae ccc5 ee3e 6ec6 9513 8ec6 4ed1 0ac6
000002a0: 4fee b5c5 0667 4946 e1cc 1446 4772 bfc6
000002b0: 88f9 4e47 8266 ac45 4efe dbc6 3719 87c7
000002c0: ac42 56c8 2180 93c5 6d48 f945 ad53 09c6
000002d0: 0912 20c6 a809 1b46 54d2 cc45 9a35 b645
000002e0: 2248 4cc3 7840 6744 bd21 7343 1288 8cc5
000002f0: 943a 6745 7860 c843 6e3b 19c5 a78e 79c5
00000300: b1ea 04c3 3e64 fa44 5922 41c5 09c5 e0c2
00000310: 5a44 4045 7ce1 8945 b27a ba44 6b84 c545
00000320: c83f 2d46 db0a bdc5 23e3 8ac5 5edf ed43
00000330: 2237 b444 be67 e5c4 726a 8145 140a d845
00000340: 657e 1745 cd81 7dc5 fc95 3f44 0acd c2c5
00000350: 5d58 ab45 f071 7645 abad 8145 c52d 91c4
00000360: 9d02 0745 beea 8e45 dfce 6845 0315 10c6
00000370: 64e4 a345 c8b0 d5c5 39d5 93c6 76e9 abc6
00000380: ece1 1fc6 2abd edc5 5217 7446 70ee 2646
00000390: c67e 82c7 e16f 6747 0fec a245 993d d0c6
000003a0: 6644 85c7 53fb 41c8 db4d bec4 f9d2 7645
000003b0: 2f83 72c5 3858 b7c5 3f2f 9a45 f5b8 2045
000003c0: 1502 5c45 ea51 89c5 4acf 66c5 e914 8e45
000003d0: 65e4 cac5 ca43 b1c4 0f1f 7645 ffba 2445
000003e0: da1c d5c5 f013 52c5 f460 a545 fff4 d1c5
000003f0: fb33 59c5 e12b b245 04b3 dd45 da19 9944
-12121.314 42591.082 4680.843 -23604.096 -57240.746 -185374.14 -4516.924 7867.6743
-7975.1973 -9476.247 9163.67 5887.443 5057.751 634.14606 1655.4269 -623.57104
-3352.226 4045.7573 -339.26437 -3011.2676 -2775.6343 507.99072 1029.809 -1873.745
543.0086 2054.7683 3148.9363 1256.7573 5693.2383 9573.419 -5442.8633 -3955.0188
754.8744 948.2083 -1611.3701 4272.373 6111.2104 2038.0739 -3562.4673 737.78516
-5422.7603 4733.5396 3390.0542 3654.7185 -1000.2368 2089.641 3913.6357 3411.995
-8055.074 5222.018 -6519.4585 -15349.391 -18411.72 -9021.951 -6078.439 13239.302
9736.218 4771.181 36526.504 4255.639 -22302.268 -52977.34 -177917.2 -5325.535
8562.7705 -9232.031 -10541.605 10373.017 7189.374 5846.2827 2166.9192 3227.899
-2173.308 -2434.9883 5624.602 -1695.0109 -4716.553 -1505.2262 1628.586 -214.13748
-259.62155 1700.8707 957.6961 1910.8546 1250.661 6099.992 9485.951 -5787.471
-4133.6235 1389.7435 311.4502 -1595.1898 5437.835 6289.487 1934.3119 -3659.6138
762.8598 -5376.6055 4720.571 3271.44 3772.274 -978.4425 2514.1985 3905.6606
3712.3572 -8603.3545 5827.839 -7299.8213 -15376.092 -18634.28 -9382.531 -5673.075
13197.547 10208.702 -4061.768 38775.65 4447.2256 -22375.82 -53612.363 -176987.56
-4693.3857 7857.211 -8243.459 -9641.554 9385.8545 6248.46 5266.729 1260.9531
2289.2063 -1267.9496 -2826.455 4608.2637 -875.43787 -3634.0488 -2155.8262 992.4337
439.4422 -1183.4778 1045.3148 1513.9148 2526.1992 1191.035 5710.4526 9299.472
-5458.055 -3931.94 999.8654 697.9923 -1588.0798 4647.928 6048.2583 1934.8232
-3504.6091 782.5881 -5303.75 4595.211 3285.5383 3603.5256 -970.15106 2199.6443
3769.8474 3467.6772 -8091.393 5161.7773 -6549.7764 -15247.732 -18185.791 -8884.326
-5821.7886 12889.756 9523.22 -24505.139 52985.53 5516.8135 -28159.152 -69170.43
-219402.69 -4720.016 7977.053 -8788.919 -10244.509 9922.414 6554.291 5830.7
-204.28177 925.0073 243.13179 -4497.009 3699.6611 400.75366 -2451.7144 -3992.9158
-132.91676 2003.1326 -3090.1467 -112.384834 3076.272 4412.1855 1491.8342 6320.5522
11087.945 -6049.357 -4444.392 475.74506 1441.7229 -1835.242 4141.3057 6913.26
2423.8997 -4056.1125 766.3435 -6233.63 5483.0454 3943.121 4149.7085 -1161.4303
2160.1633 4573.343 3724.9294 -9221.253 5244.549 -6838.0977 -18922.611 -22004.73
-10232.48 -7607.6455 15621.83 10683.609 -66813.55 59247.88 5213.5073 -26654.799
-68232.8 -198637.3 -1522.433 3949.1858 -3880.199 -5867.0273 4933.906 2571.5598
3520.1301 -4394.2393 -3692.9556 4546.614 -6492.5493 -1418.1184 3937.9412 2635.6873
-6819.6064 -3361.246 5292.119 -6718.6245 -3475.2488 5701.485 7094.377 1224.8079

exp_avg_sq f4 [50, 57]
00000000: 5b1c 8653 27a9 d853 2d08 d053 e9c7 7353
00000010: 90d1 9653 4b13 1154 9a5b 6953 7fe5 7d53
00000020: 5ed2 d353 39ea b053 5af8 d553 e63c b953
00000030: fc17 1953 2bd5 b853 e990 bd53 8f7a d753
00000040: 72cf 4353 43ea d953 3dcd d253 aaba e253
00000050: caec a753 8c95 2853 b9d2 5453 d2d3 de53
00000060: 39c0 7b53 5735 8953 9415 5f53 a7bc 9153
00000070: dfd6 c653 8b04 c653 456d ea53 6942 d253
00000080: 8ade 9053 53c6 e952 d595 cd53 f9f9 e251
00000090: 11b6 c953 166e 9953 42f6 d753 7044 8153
000000a0: 8ad8 a053 0395 bf53 25d9 8953 fd8f e853
000000b0: fa7b 6953 145a d053 a3d1 4d53 6eda c853
000000c0: c7a3 6e53 a15b 3f53 05c0 8e53 027c 8d53
000000d0: 669b b753 8950 4953 9f09 9e52 14eb 5853
000000e0: d7a6 7953 7bc6 8353 1799 d453 b097 cc53
000000f0: 4570 6f53 09cd 9353 0bd1 0d54 2ba6 6553
00000100: 79d0 7953 cb96 d053 5f2e ae53 59b4 d253
00000110: 7f60 b653 d2bb 1653 dddf b553 b991 ba53
00000120: 0616 d453 208d 4053 4f74 d653 3976 cf53
00000130: 3835 df53 993f a553 970a 2653 1941 5153
00000140: 8e59 db53 a375 7753 53f3 8653 ba52 5b53
00000150: 161e 8f53 8164 c353 f5a6 c253 e177 e653
00000160: 0cae ce53 fc40 8e53 bf1e e552 ce07 ca53
00000170: 4c59 df51 9438 c653 95b5 9653 bb46 d453
00000180: 65f3 7d53 571a 9e53 4d3f bc53 8575 8753
00000190: 899c e453 7e50 6553 1ac7 cc53 0619 4a53
000001a0: 2260 c553 fbb8 6a53 544f 3c53 a377 8c53
000001b0: 9b42 8b53 f9bb b453 c112 4653 1cb2 9b52
000001c0: 346c 5553 2e8e 7553 1667 8053 88c8 ce53
000001d0: aa58 c753 3253 6953 44c9 8f53 24ad 0954
000001e0: 060f 6053 94ab 7353 d553 cb53 b0d7 a953
000001f0: 4961 cd53 c3d3 b153 1931 1353 9c3f b153
00000200: dbd6 b553 77a8 ce53 d2db 3b53 4ff5 d053
00000210: 4932 ca53 f07a d953 d01d a153 1e13 2253
00000220: e41a 4c53 b0c2 d553 b34d 7153 6e9a 8353
00000230: 2beb 5553 5481 8b53 9853 be53 6893 bd53
00000240: 2569 e053 5e4e c953 269b 8a53 4c37 df52
00000250: a3c5 c453 5234 da51 db06 c153 c3dc 9253
00000260: 7bcc ce53 a76d 7753 b713 9a53 ba54 b753
00000270: db04 8453 4dbb de53 1fa6 5f53 7b79 c753
00000280: 4316 4553 bf35 c053 d6fc 6453 54cf 3753
00000290: f4fd 8853 eecb 8753 092d b053 b54a 4153
000002a0: 6f24 9852 0733 5053 9581 6f53 28a0 a153
000002b0: 7da8 0354 c01c f953 788d 9253 8f3d b853
000002c0: 32ea 3354 d9a5 8a53 7a1b 9753 890c fc53
000002d0: ab5f d253 919f fe53 d358 dc53 b67d 3453
000002e0: cbbd dc53 6323 e253 769e 0054 953c 6953
000002f0: 501b 0254 5b81 fb53 ef45 0754 1c15 c853
00000300: fc46 4753 46e8 7d53 04e8 0454 457a 9653
00000310: 4baa a353 bf22 8553 cd1d af53 6ffa ee53
00000320: 20ef ed53 63cb 0c54 0d87 fc53 cf5b ae53
00000330: d369 0d53 cb1c f753 0bb8 0552 5cb2 f253
00000340: 9367 b853 a49a 0154 436e 9b53 32c8 c053
00000350: 2c96 e653 7c4d a553 bc6f 0b54 8be8 8b53
00000360: eb27 fa53 4dde 7653 889d f153 d016 8e53
00000370: 96b0 6253 d7cb a953 5691 a853 36f3 da53
00000380: 6e1e 6f53 968f b952 2214 8153 8fbd 9453
00000390: 0a0a 8953 ec65 de53 ab21 d553 26ed 7953
000003a0: f7ed 9a53 2385 1554 c6be 6e53 46f1 8153
000003b0: 48f5 d853 c720 b553 2b2b db53 d8a4 bd53
000003c0: 5878 1c53 0d67 bd53 243f c253 6edd dc53
000003d0: 4d68 4853 a559 df53 b50b d853 206d e853
000003e0: 70fe ab53 ac5b 2c53 90e5 5953 905d e453
000003f0: 94e9 8053 6d7e 8c53 846c 6453 335f 9553
1.1520027e+12 1.8611017e+12 1.7869807e+12 1.047031e+12 1.295522e+12 2.4923758e+12 1.0022642e+12 1.090477e+12
1.819535e+12 1.5196877e+12 1.8379894e+12 1.5911813e+12 6.575324e+11 1.5877007e+12 1.62836e+12 1.8509483e+12
8.40999e+11 1.8718763e+12 1.8107729e+12 1.9475886e+12 1.4424644e+12 7.240635e+11 9.140684e+11 1.914073e+12
1.08126175e+12 1.1786108e+12 9.581397e+11 1.2518706e+12 1.7080169e+12 1.7009595e+12 2.0137112e+12 1.8061146e+12
1.2444178e+12 5.0202735e+11 1.7659641e+12 1.2185706e+11 1.732686e+12 1.3179539e+12 1.855099e+12 1.110398e+12
1.3816554e+12 1.6456775e+12 1.1841072e+12 1.9976963e+12 1.00280736e+12 1.7897289e+12 8.839854e+11 1.7253162e+12
1.02494994e+12 8.21876e+11 1.2262138e+12 1.2153418e+12 1.5771723e+12 8.646396e+11 3.3938312e+11 9.316569e+11
1.07224596e+12 1.1319413e+12 1.826203e+12 1.7574364e+12 1.02838075e+12 1.2696002e+12 2.4363902e+12 9.8633535e+11
1.07294445e+12 1.7917662e+12 1.4962046e+12 1.8099377e+12 1.566606e+12 6.473962e+11 1.5622898e+12 1.6026175e+12
1.8218051e+12 8.270014e+11 1.8421487e+12 1.7820834e+12 1.9173411e+12 1.4194732e+12 7.1314224e+11 8.987403e+11
1.8842006e+12 1.06283054e+12 1.1592158e+12 9.4198576e+11 1.2293702e+12 1.6784096e+12 1.6720495e+12 1.9797074e+12
1.7753666e+12 1.2219512e+12 4.9203167e+11 1.7354287e+12 1.1990948e+11 1.7027055e+12 1.2945831e+12 1.8234395e+12
1.0907102e+12 1.3580935e+12 1.6170317e+12 1.1635845e+12 1.9637575e+12 9.8489795e+11 1.7590274e+12 8.680032e+11
1.6954428e+12 1.0081258e+12 8.0878476e+11 1.2066052e+12 1.1962358e+12 1.5524955e+12 8.5071816e+11 3.3435406e+11
9.166434e+11 1.05465237e+12 1.1029706e+12 1.7762552e+12 1.712372e+12 1.00212317e+12 1.235114e+12 2.3652613e+12
9.623247e+11 1.04655566e+12 1.7465697e+12 1.4589362e+12 1.764201e+12 1.527524e+12 6.321839e+11 1.5225528e+12
1.5619875e+12 1.7751793e+12 8.0684686e+11 1.7949376e+12 1.7368541e+12 1.8681409e+12 1.3839798e+12 6.9610544e+11
8.766245e+11 1.8361887e+12 1.0363907e+12 1.1304632e+12 9.187735e+11 1.1983404e+12 1.6348925e+12 1.6284438e+12
1.9276734e+12 1.7292064e+12 1.1906169e+12 4.7935272e+11 1.6902588e+12 1.1714758e+11 1.6580874e+12 1.261538e+12
1.7763878e+12 1.0626966e+12 1.3235114e+12 1.574801e+12 1.1340343e+12 1.9132503e+12 9.6056476e+11 1.7134732e+12
8.4648205e+11 1.6510709e+12 9.834944e+11 7.894574e+11 1.1767524e+12 1.1664839e+12 1.5133396e+12 8.3018206e+11
3.2672314e+11 8.942093e+11 1.0286712e+12 1.3883534e+12 2.26187e+12 2.1398584e+12 1.2588774e+12 1.5826135e+12
3.0909132e+12 1.1909759e+12 1.2980021e+12 2.1650841e+12 1.8070963e+12 2.1871975e+12 1.892766e+12 7.752032e+11
1.896154e+12 1.9425126e+12 2.2096574e+12 1.0017438e+12 2.235216e+12 2.160414e+12 2.3239755e+12 1.7186952e+12
8.558894e+11 1.0905236e+12 2.283313e+12 1.2925929e+12 1.4058734e+12 1.1436272e+12 1.5042385e+12 2.0528076e+12
2.0438382e+12 2.4188307e+12 2.1691951e+12 1.4977292e+12 6.073658e+11 2.12268e+12 1.435796e+11 2.0847489e+12
1.5840233e+12 2.226581e+12 1.3351396e+12 1.6559849e+12 1.9807239e+12 1.4199392e+12 2.3955002e+12 1.2018038e+12
2.1488231e+12 1.06029154e+12 2.0754601e+12 1.2205362e+12 9.736252e+11 1.4585387e+12 1.4479857e+12 1.8807665e+12
1.0270077e+12 3.9848896e+11 1.1087771e+12 1.2776709e+12 1.1771579e+12 1.9103854e+12 1.8307858e+12 1.07342555e+12
1.3308347e+12 2.5687352e+12 1.02540286e+12 1.1161974e+12 1.8636561e+12 1.555878e+12 1.8826442e+12 1.6290289e+12
6.720339e+11 1.6269554e+12 1.668566e+12 1.8972156e+12 8.6074334e+11 1.9185634e+12 1.8558187e+12 1.9965265e+12
1.4774163e+12 7.402724e+11 9.358593e+11 1.9616445e+12 1.1073492e+12 1.206833e+12 9.8107313e+11 1.2830946e+12

exp_avg f4 [50]
00000000: 7575 cec4 4b2d e5c4 936b d1c4 3425 e2c4
00000010: 4e23 7ec4 c120 fac4 a694 7dc4 446e 7dc4
00000020: f35a 9bc4 fead 6dc4 1723 82c4 eadd 79c4
00000030: 54b1 02c5 b31d 79c4 3af2 e8c4 deb0 77c4
00000040: d27b 80c4 5e55 93c4 fae4 6bc4 c8f4 f7c4
00000050: 6500 90c4 9c6b 7bc4 b49c 8ec4 80e3 76c4
00000060: ee1f e5c4 7f2b 7dc4 6863 e3c4 5844 79c4
00000070: f039 7dc4 e71c 80c4 4ade 7dc4 c3b0 8dc4
00000080: 684b 60c4 152a 75c4 0c5e 79c4 f3ae 7ec4
00000090: 47a5 7ac4 ef81 91c4 1b98 82c4 af22 6dc4
000000a0: 053b 81c4 f88c dcc4 8ea4 ffc4 aa97 01c5
000000b0: 6ced f2c4 bb0f 01c5 20bd 71c4 f9ae 6fc4
000000c0: 3c6e dec4 92c1 dec4
-1651.6705 -1833.4154 -1675.3617 -1809.1626 -1016.55164 -2001.0236 -1014.32263 -1013.7229
-1242.8422 -950.7186 -1041.0966 -999.4674 -2091.083 -996.46405 -1863.5696 -990.76355
-1027.8694 -1178.6677 -943.57776 -1983.6494 -1152.0123 -1005.6814 -1140.897 -987.5547
-1832.9978 -1012.6796 -1819.1064 -997.0679 -1012.9053 -1024.9032 -1015.47327 -1133.5238
-897.1782 -980.65753 -997.4695 -1018.7336 -1002.58246 -1164.0604 -1044.7533 -948.54193
-1033.8444 -1764.4053 -2045.1423 -2073.479 -1943.4194 -2064.9832 -966.9551 -958.73395
-1779.4448 -1782.0491

exp_avg_sq f4 [50]
00000000: f79f 7551 49ef 7151 c69d 6a51 6ae4 9351
00000010: 49ac 7d51 532d 8f51 fe79 6f51 6e2c 7551
00000020: f617 6d51 0d9b 7051 f6a4 8151 add5 7851
00000030: 25f2 8f51 375c 7551 a7a6 9851 50c9 7651
00000040: da81 6f51 9da2 9551 151f 6b51 eb21 8f51
00000050: 829f 7651 40e4 7b51 0390 8d51 d592 6c51
00000060: fcc8 9851 6762 7551 e262 9551 7fae 7651
00000070: b913 7b51 922a 7d51 d990 7851 7bf8 7051
00000080: 5f93 5f51 6df3 6f51 e623 7b51 0158 7651
00000090: 231e 7551 c9e0 9051 a8a9 8151 2833 6651
000000a0: 99f9 7e51 e3da 8e51 30d4 9251 5ed0 9351
000000b0: 40f0 8a51 3e3d 9651 09ec 6f51 fe66 6b51
000000c0: 7111 7851 5d85 8e51
6.593442e+10 6.4943854e+10 6.2979334e+10 7.939904e+10 6.8094824e+10 7.686759e+10 6.4283992e+10 6.5813275e+10
6.3644328e+10 6.458709e+10 6.9602296e+10 6.679605e+10 7.7280354e+10 6.586338e+10 8.195387e+10 6.6246214e+10
6.4292233e+10 8.033479e+10 6.3114924e+10 7.684367e+10 6.620238e+10 6.7616637e+10 7.600081e+10 6.3504732e+10
8.202587e+10 6.586987e+10 8.020114e+10 6.6218095e+10 6.739798e+10 6.795881e+10 6.6723877e+10 6.468506e+10
6.0015636e+10 6.4411324e+10 6.741494e+10 6.61274e+10 6.5798287e+10 7.778082e+10 6.961214e+10 6.1793796e+10
6.8444328e+10 7.669471e+10 7.882814e+10 7.9357e+10 7.459203e+10 8.065907e+10 6.4403575e+10 6.3190327e+10
6.659028e+10 7.651535e+10

exp_avg f4 [13, 7]
00000000: 0000 0000 0000 0000 0000 0000 0000 0000
00000010: 0000 0000 0000 0000 0000 0000 ae58 54c8
00000020: d0ad 6e48 3e35 82c8 5c24 76c8 976d 8348
00000030: 9a6f 7d48 3909 1548 a6bc 92c7 d5ea a447
00000040: 44db b3c7 a107 aac7 919b b547 0210 af47
00000050: 592e 4d47 b43c 49c7 f524 6047 570a 76c7
00000060: 1d80 68c7 92d8 7847 c5f8 6f47 0afc 0a47
00000070: 7767 a3c8 2d88 b748 2804 c9c8 e320 bec8
00000080: 7eed ca48 ebf9 c348 9f43 6748 9bd9 7047
00000090: 80ca 87c7 cd3d 9347 94a2 8b47 d278 94c7
000000a0: 6293 8fc7 54ed 2bc7 6939 4347 257f 5ac7
000000b0: 4ac5 6d47 222e 6147 6f41 70c7 8bb9 67c7
000000c0: 2351 08c7 fd5f 53c8 8f9e 6d48 c125 82c8
000000d0: 81da 75c8 b665 8348 8b1b 7d48 eeb5 1548
000000e0: 8919 8e47 7f13 a1c7 e610 a647 7c97 9e47
000000f0: 1c96 a7c7 35e0 a2c7 7195 2fc7 feb3 e247
00000100: 8d3b ffc7 8e10 0848 11a0 0148 d539 09c8
00000110: 5f69 05c8 ef6f 98c7 a3e6 5b47 e30a 76c7
00000120: 2022 8647 e1bd 7d47 c87a 87c7 c899 82c7
00000130: 382e 19c7 ac34 ac45 f321 d0c5 01fb 9e45
00000140: 2d57 a645 215f 9dc5 9ad8 a5c5 c228 0cc5
00000150: 6fbd 6348 6066 7fc8 683b 8b48 8da7 8348
00000160: 069c 8cc8 699c 87c8 62e0 1ec8
0.0 0.0 0.0 0.0 0.0 0.0 0.0 -217442.72
244407.25 -266665.94 -252049.44 269164.72 259518.4 152612.89 -75129.3 84437.664
-92086.53 -87055.26 92983.13 89632.016 52526.348 -51516.703 57380.957 -62986.34
-59520.113 63704.57 61432.77 35580.04 -334651.72 375873.4 -411681.25 -389383.1
415595.94 401359.34 236814.48 61657.605 -69525.0 75387.6 71493.16 -76017.64
-73510.766 -44013.33 49977.41 -55935.145 60869.29 57646.133 -61505.434 -59321.543
-34897.137 -216447.95 243322.23 -266542.03 -251754.02 269101.7 259182.17 153303.72
72755.07 -82470.99 85025.8 81198.97 -85804.22 -83392.414 -44949.44 116071.984
-130679.1 139330.22 132736.27 -140519.33 -136613.48 -78047.87 56294.637 -62986.887
68676.25 64957.88 -69365.56 -66867.56 -39214.22 5510.584 -6660.2437 5087.3755
5322.897 -5035.891 -5307.075 -2242.5474 233205.73 -261529.5 285147.25 269628.4
-287968.2 -277731.28 -162689.53

exp_avg_sq f4 [13, 7]
00000000: 0000 0000 0000 0000 0000 0000 0000 0000
00000010: 0000 0000 0000 0000 0000 0000 daf7 2055
00000020: cb21 4055 a03a 3a55 d50f 3455 522a 3e55
00000030: ff25 3e55 2e80 d054 8458 0855 d2f9 2355
00000040: 3fe1 1d55 2085 1855 675d 2155 9a6f 2155
00000050: db54 ab54 e0a7 9655 c9e0 b455 5bdb ae55
00000060: 21d5 a855 e4ac b255 0494 b255 f3b3 3e55
00000070: fe57 a255 2075 c255 3c9e bb55 c55e b555
00000080: f6a8 bf55 d2b4 bf55 5223 4f55 738d ae55
00000090: 105b d055 cfa1 c855 f238 c255 3edc cc55
000000a0: 4326 cd55 cb44 6155 0753 a955 27f1 ca55
000000b0: d594 c255 0558 bc55 79ca c655 a93a c755
000000c0: ff17 5755 1327 f655 896a 1256 23b2 0d56
000000d0: 442c 0956 fba0 1056 f6b9 1056 f3df a055
000000e0: 7623 d355 6bef fb55 1400 f255 7f72 ea55
000000f0: ba18 f755 54a5 f755 106c 8855 abbd a255
00000100: 981a c255 37c1 bc55 3e5d b655 28b9 c055
00000110: d57c c055 2d61 5355 3af8 cf55 7818 f855
00000120: 7309 f055 9036 e855 6819 f555 4e2e f555
00000130: 2de9 8655 37bb b055 1af0 d355 141a cc55
00000140: 4150 c555 de87 d055 4cab d055 c269 6055
00000150: c9d2 8255 8cf4 9b55 2fa5 9655 a4cb 9155
00000160: 44cc 9955 94ee 9955 04e0 2955
0.0 0.0 0.0 0.0 0.0 0.0 0.0 1.1061648e+13
1.3203211e+13 1.279756e+13 1.2373756e+13 1.3068061e+13 1.30669e+13 7.1640296e+12 9.36961e+12 1.1268335e+13
1.0849422e+13 1.0481096e+13 1.1088908e+13 1.1093794e+13 5.8869044e+12 2.070597e+13 2.4859692e+13 2.4032143e+13
2.3204167e+13 2.4556954e+13 2.45436e+13 1.3105005e+13 2.231235e+13 2.6726038e+13 2.5786036e+13 2.492733e+13
2.634155e+13 2.6347917e+13 1.4234413e+13 2.3990318e+13 2.8636191e+13 2.757466e+13 2.669373e+13 2.8155788e+13
2.8195527e+13 1.5480349e+13 2.3271758e+13 2.7892136e+13 2.674306e+13 2.5885778e+13 2.7321614e+13 2.7381845e+13
1.4781129e+13 3.383096e+13 4.0246566e+13 3.8949058e+13 3.7705803e+13 3.975527e+13 3.9782093e+13 2.2110464e+13
2.9018657e+13 3.4625714e+13 3.3260269e+13 3.2222185e+13 3.3960696e+13 3.4036181e+13 1.8749713e+13 2.2366938e+13
2.6677434e+13 2.5942255e+13 2.5063949e+13 2.6487684e+13 2.6455298e+13 1.4525895e+13 2.858313e+13 3.4097997e+13
3.2990422e+13 3.191513e+13 3.3686183e+13 3.3697403e+13 1.8542005e+13 2.4289766e+13 2.9128523e+13 2.8051547e+13
2.711856e+13 2.8660245e+13 2.8679267e+13 1.5421552e+13 1.7980228e+13 2.1434328e+13 2.0704525e+13 2.0037977e+13
2.1137824e+13 2.1156246e+13 1.1673725e+13
